weights/classif_rnn_Wxh.npy (npy, 56448 bytes, 1 tensors)

array f8 [80, 88]
00000000: 61b9 4b1d 2d23 bcbf 1d9d 86e3 4e0e b03f
00000010: 94fd 7564 6487 e1bf 1a25 afb9 034f afbf
00000020: a7f2 8dda bbcf b53f 9886 c88a ca55 c23f
00000030: e7ff 186c 6084 b83f 9f3b 58fa 9495 6e3f
00000040: 41fb 523c afcf 8b3f 1cc3 438b bb41 a13f
00000050: 0414 15c7 bc1e b6bf 35ea 3ac2 cf67 aabf
00000060: 0cc5 3a12 5690 96bf 2d99 966c 3710 963f
00000070: 0a7d ea6b 7ec1 a33f aed6 f7d2 4ef4 a13f
00000080: 38f5 8921 f55f a83f 6be3 14c9 0f8c c23f
00000090: 052a 2347 628c c83f 6664 432e 9b8e b8bf
000000a0: 87c6 627b 64b9 a7bf 17b2 5e9e 904c 72bf
000000b0: c8fa 59d6 8dce adbf 32c2 3401 9bed a53f
000000c0: 93fa 3cf7 99f1 a2bf 6590 0b02 b94e 973f
000000d0: 12b1 e575 7500 c83f f2e0 7bd4 56b4 b8bf
000000e0: b8da 0ccc fc74 a2bf edad 305c bc79 c7bf
000000f0: 2f86 fac4 a28e bebf 4d53 04dc 1a29 d03f
00000100: f708 a45c bd22 abbf c758 b955 f623 8a3f
00000110: 7a60 dcc3 95c3 9e3f 2be2 993a 1ca8 9fbf
00000120: 877e 1c6a ad9a bcbf 730a 4a8a b590 a7bf
00000130: c36f d70c 08d0 a0bf 4c73 336c 31bc 94bf
00000140: 4a36 6f14 df2f afbf ce9f e37f 3ed8 a73f
00000150: c743 efb3 7f3d a13f 9376 c160 fda4 c43f
00000160: 1c88 77a3 610e d83f 33af dc92 d577 a8bf
00000170: ec9c 2f8b 7cbe 9dbf 8049 72c5 8155 b8bf
00000180: 91d6 74dd 3acf b03f 7dcd e31f 3400 813f
00000190: 2563 3d43 df52 cabf 4437 58d6 8d85 aebf
000001a0: 0ebd c4db e29a a13f dcb5 4a53 e7d5 b3bf
000001b0: fb49 985b 1452 ab3f d11e 3bbd 79d3 b0bf
000001c0: 6742 eb67 cf5f ca3f e733 fe34 be71 7a3f
000001d0: e1d4 48c4 96b2 a03f 978f 7aa5 c46b c93f
000001e0: c4d6 ce65 4692 603f 6116 039b ad99 613f
000001f0: 15ed 99ec 5486 c6bf 0d09 d6c2 7b51 c73f
00000200: f897 cf30 f83b cdbf fd00 9422 e8a7 963f
00000210: a455 164e 385c a13f 2304 1c91 ab5a aa3f
00000220: 11cf b5ce eef5 c7bf b59e a71d 48ab c0bf
00000230: 4601 1798 d649 d8bf 3d5a e34a b275 aebf
00000240: de5d 1c3b ae4d abbf ac15 882e e46c a1bf
00000250: 9274 057d 83b2 b4bf 87b6 107f 5990 cabf
00000260: 97b0 ee15 859d d73f 7cf1 1319 4099 633f
00000270: 1292 6b80 87a7 b73f dfed f6bf 1c04 b5bf
00000280: cf73 bfc0 db5b c3bf ad5f 6617 81e5 c53f
00000290: 68aa f946 b43e c03f 2da8 5ecd 2e39 d33f
000002a0: d2c2 f812 8604 d43f d7c2 4b99 a119 d73f
000002b0: 3ff7 709e 0d1c 4a3f c39c b113 946d d23f
000002c0: 76b6 74e5 622d be3f a5fc 8d0a e186 b33f
000002d0: 7e9e 2f4f 5f16 df3f 4fa6 bc0c 6ef6 a3bf
000002e0: 8d25 c4b4 a539 b73f 56b5 5315 57ce c6bf
000002f0: febf 2e6f 2f06 babf 5c6f 75fd 9311 803f
00000300: e58a f969 f91a ab3f 5b8f 8b8e e65d b2bf
00000310: 7d2e 070f 830c a33f b1dc 6f25 487f 9ebf
00000320: 7be4 2c07 08d8 9b3f 913b 01b4 23f8 a23f
00000330: 6344 6bc7 7ba8 a9bf 8069 ed9b 9f86 b1bf
00000340: aad2 546b 6c57 a03f c43b 3f2c 868c d1bf
00000350: dcbf b8f5 e752 c5bf ece6 7558 530f cabf
00000360: fb40 a065 8ffd 983f 619a 0655 6aed a53f
00000370: 3810 93ea 8094 c53f 59a0 6704 252c c7bf
00000380: 48b9 3c73 0794 c23f f037 761b b5d5 bebf
00000390: d18b 8a73 438c b9bf 9336 2a4f 64ac ba3f
000003a0: 9f30 106a 0c24 74bf dd2c 5d5c 611c c2bf
000003b0: ccf9 b725 acdb d23f 9766 58d1 8553 d53f
000003c0: 8099 9908 df0b d83f df9b c818 91d9 d63f
000003d0: 4db0 b6d8 c794 9d3f 117a 2965 546e 993f
000003e0: 8267 f7a8 1191 b0bf 0c79 a50d 56dc 773f
000003f0: 75f5 4e72 86ae b1bf f40f f442 1bd1 afbf
00000400: fff9 b286 7979 58bf 6ea0 8d5a e677 a6bf
00000410: e0d9 70f4 c1c4 8fbf 3b2b c11d 55ea c5bf
00000420: aadf d5be 4b34 d7bf db58 c293 5d95 a1bf
00000430: abc6 fa96 1b81 b2bf 4ef7 a9c7 6e24 883f
00000440: 61d6 7beb eb0f b2bf b9b5 42cb b6be c7bf
00000450: a9e8 fa95 b454 80bf 9231 85ba 6a88 91bf
00000460: a10d ff53 a07d b6bf ee5e 0235 d33a bcbf
00000470: d95b 7c99 15bc 99bf ca3d 5191 248e cebf
00000480: 3abe cd44 2798 cdbf 5e5b 0cfb e1ee c2bf
00000490: a949 ee85 7a07 b9bf 6d32 f29f af90 cdbf
000004a0: 7bee 7315 ab4a 8dbf 6e64 17ea dcc4 c93f
000004b0: 0a22 867c e848 c2bf 9a0f e8d5 0197 d0bf
000004c0: 9915 c8e8 67bb ce3f f0f9 402e b87b c73f
000004d0: 3dbd 3af1 0185 cc3f 5ba2 6100 6bf8 cbbf
000004e0: fee0 cf46 d017 d0bf c31c 6eae 01ca be3f
000004f0: 4618 5c4d b211 a7bf 0941 8887 3329 c9bf
00000500: 0cb3 7167 ba2b af3f 72a9 6b99 a01f d43f
00000510: 1d57 56ba a666 ba3f 8ffb d443 4c91 c33f
00000520: 8c89 21c6 eb05 cbbf 316a bacd b844 82bf
00000530: 8baf acda 20dd d3bf 0253 f2aa f5bf ba3f
00000540: 32e1 b1db 6995 c93f 1193 276b dd65 d0bf
00000550: f10d 3eef 742f c3bf f80e 7ace 7478 cebf
00000560: 6c42 2d8b fb74 d1bf 8575 717d fddf d3bf
00000570: 83ac 2456 4ccd 82bf 2ee9 55da c61c d0bf
00000580: 0f55 e765 d7d4 abbf c89e 5faf 3627 b7bf
00000590: 1485 c82f 4046 e73f c6ca d95d 201d b4bf
000005a0: f6f1 3bb5 c435 bf3f 5c83 25a5 afd4 c6bf
000005b0: a1da e921 9026 c1bf 097c a5db 2111 6a3f
000005c0: 7c1b 9501 c0aa c63f 5c08 aa97 a5c5 6d3f
000005d0: dea8 accc b3c0 ab3f 58da 9689 bb1f b53f
000005e0: ddf1 6d00 8c87 c33f 3d68 5e52 f862 c63f
000005f0: 3d6c f83f 9658 ab3f c1a7 7302 c990 aebf
00000600: 2a18 c4db 8bcb b43f 4b75 cc12 bb90 d2bf
00000610: d09f 72d3 b279 bfbf e9cd c64b f3c4 a0bf
00000620: 2153 fd98 7519 b43f a535 d26f 8bac bf3f
00000630: ae65 f2a2 1cbb d43f 00c4 b0a2 e41e b0bf
00000640: 8473 0b11 a982 c93f 9411 6a4a 4e66 ccbf
00000650: 3f25 e5b3 e11f cdbf 8172 96d2 f6f0 903f
00000660: 6912 a3dd 21cb 913f 5140 e7b5 3292 adbf
00000670: a55e 511f 1ede bebf 6e25 e787 58ef d13f
00000680: 2f4e cf5d ae1f 743f bb4d 6f23 163c bf3f
00000690: 1fed 3a34 95fc c03f f8ea d93c c8e4 b7bf
000006a0: b0c5 f126 b1d7 bfbf abd0 733a e5d1 93bf
000006b0: 0331 3f5a 23a0 ad3f dbe5 c7c9 bf8c c7bf
000006c0: 9fac 5968 897b 82bf 8df3 d838 d925 adbf
000006d0: c02b a332 2916 9c3f 3080 a321 e255 d6bf
000006e0: 895f f59c da3a e7bf 568e 6993 14ac b0bf
000006f0: a575 725b 3a6e cabf dcb7 dcbd 4d1e a0bf
00000700: 7c55 9b84 5942 783f d664 f7e3 eea7 cebf
00000710: 145b 25af 0fb6 c23f 2489 9bee e551 bf3f
00000720: 16d9 4d2d 5636 95bf 0c44 ee8b 3af5 a3bf
00000730: 7981 f488 628f ae3f cad4 8931 b5c6 d8bf
00000740: da64 174e 5fc3 d4bf 5d26 a825 6b99 97bf
00000750: ec84 aa61 fdf0 a0bf 77d9 3599 97c0 d1bf
00000760: 01f2 8af7 5ebd 81bf 2571 3788 fd6f c93f
00000770: 921e 6903 2932 c63f f447 408a 0647 d2bf
00000780: abb3 5652 cb42 dc3f 49da dcc4 e785 d73f
00000790: ceb0 d940 78cf cd3f 65b1 d72d 2ed3 d1bf
000007a0: 72cc 7e9e 437e a53f fc95 6801 a9b6 c23f
000007b0: e035 5e1e a4ce d33f b836 682c 821b af3f
000007c0: 49ec 74c2 e4e1 b33f d566 4826 4b79 d63f
000007d0: cbc1 92a5 5e49 c63f 6577 ce9b 68b7 c73f
000007e0: 9149 1195 af3f c6bf d7d5 3b2b c3f8 44bf
000007f0: 47d7 b4a9 408e d8bf 295d 2324 8873 b63f
-0.10991174664716176 0.06271832518415406 -0.5477773630263294 -0.06114970819141714 0.08520101629069164 0.14324313904312613 0.09576990737059497 0.003733435604551485
0.013579720524260376 0.03370462489136214 -0.08640651569756136 -0.05157326932881682 -0.022034973967213253 0.02154623604078514 0.03858561580022453 0.03506704640669277
0.04760709795389534 0.1448993427127577 0.19178417657379057 -0.09592599753831763 -0.0463363075845225 -0.004467549244435285 -0.05821650735469103 0.04282841100428349
-0.03699952261967101 0.022761240720584292 0.1875140023870548 -0.09650175750346415 -0.03604879370543784 -0.1834025812289463 -0.11936394986198516 0.25250884519600875
-0.05299941783779787 0.01276390503987236 0.030042972640416533 -0.03091472728417181 -0.11173518982513474 -0.04602591813183645 -0.03283715397603217 -0.02024914954096184
-0.060912104839741035 0.04657168685099543 0.03367232390849711 0.1612850878181474 0.3758777710301062 -0.04778926294087995 -0.02904696082614759 -0.09505473204106885
0.0656620779671704 0.008301169608307951 -0.2056540563887889 -0.059612686553107724 0.03438481266709391 -0.07748266013614774 0.05336059206105755 -0.06572686071296664
0.20604889463585893 0.006456130024059959 0.03261252542544369 0.19860132293717633 0.0020228743510085374 0.002148474763177075 -0.17597447922512602 0.18217417729835753
-0.228392623742536 0.022124888525469 0.03390670731748038 0.051473008597902735 -0.18719277470847165 -0.1302271027372989 -0.3795067296269007 -0.05949170269166302
-0.053327030864405364 -0.034033899955868335 -0.08084890177038265 -0.20753020004615427 0.368989249628393 0.002392411414460392 0.09240004430063944 -0.08209399878153743
-0.15124079619900363 0.1710664142854034 0.12691358056629842 0.3003651624263764 0.31277610638339326 0.3609394070654565 0.000796801233157153 0.2879381363222359
0.1178800401873675 0.07627684123689223 0.48574049695023536 -0.038989485792921934 0.09072337783086067 -0.17817200223309254 -0.10165688003939974 0.00784602753872548
0.052940172373174645 -0.0717453096399913 0.03720483358810343 -0.029782416615458277 0.02719128173632555 0.03704940388035206 -0.050113552182332176 -0.06846044117756911
0.03191698847004905 -0.2742019111728349 -0.16659259317520891 -0.20359269923556356 0.0244047551896651 0.04282696044838442 0.1685944695838104 -0.18103468623235378
0.14514248968903076 -0.12044841690496333 -0.09979650088148097 0.10419299061524105 -0.0049171910222975115 -0.14149109849890965 0.2946577423425907 0.3332228226077886
0.37572456207126237 0.35702922268177234 0.02888786564078343 0.024834936785163523 -0.06471357703358474 0.005825363298155983 -0.0690692929337809 -0.06214223091413365
-0.0014938055781353874 -0.04388351302515124 -0.01551200415825077 -0.17121375992641127 -0.36256688724778974 -0.03434269360256944 -0.07228252826714747 0.011788239925632073
-0.07055544375529045 -0.18550763058503408 -0.007974062754659466 -0.017121951708121204 -0.08785440493288955 -0.11027259868785297 -0.025131547444370603 -0.23871285529683767
-0.2312058530765045 -0.14791512258735912 -0.09777036447329714 -0.2309779673563698 -0.014302574722470532 0.20132028036349275 -0.14284998016616185 -0.2592167462282703
0.24009417406356873 0.1834631181572628 0.2228090694311308 -0.2185186149465775 -0.2514534656070423 0.12026987560794837 -0.045056888526275915 -0.19656986348901054
0.06088049423929051 0.31443037970043186 0.10312883424043347 0.1528716403208503 -0.2111181943356083 -0.008920139101339238 -0.3103716025823295 0.10449157165050951
0.19987223841941099 -0.25621734108271804 -0.14988576585538696 -0.23805103380083614 -0.2727650508068453 -0.3105462765723462 -0.009180637720950685 -0.25175639459452526
-0.05435822600308359 -0.09044210225658411 0.7273255284564208 -0.07856943408277592 0.12191419052755478 -0.17836566509051976 -0.13398934989864578 0.003181997422117448
0.17708587720172975 0.003634284422617857 0.05420457719294956 0.0825154505645086 0.1525740625474005 0.17489532491600981 0.05341023951424304 -0.05969837336472451
0.08123087039356905 -0.29008366428191285 -0.1229507223348485 -0.03275261211402009 0.07851347909065655 0.1237265727997597 0.32392040169505776 -0.06297139141021546
0.19929993946325564 -0.221872125945208 -0.22753545078220758 0.01654420528722023 0.017376450684212594 -0.05775602789401602 -0.12057674660297353 0.2802335097481635
0.00491302596943259 0.12201059689623765 0.13270821619321624 -0.09333468900323882 -0.12438494873801775 -0.019355374996806656 0.05786238171239868 -0.18398282387333506
-0.009024690148370871 -0.05692938631953046 0.02742828723493651 -0.3489919022085841 -0.7259343209834564 -0.06512573813375275 -0.2064888903159218 -0.031481198717628195
0.005922650985401897 -0.23949991351290717 0.1461810689167683 0.12234341693286815 -0.020715090289251746 -0.038980321484935215 0.059687689989234856 -0.38712816083655055
-0.32442457796203217 -0.02304618279780467 -0.03308860604489347 -0.2773798938937015 -0.008661977700620051 0.19873017455291478 0.17340576807531655 -0.28558505536159307
0.44157679596792815 0.36754793381570444 0.23289397398492045 -0.2785144279175909 0.04197894391781966 0.14619934624458597 0.3094873711168855 0.060756748123919235
0.077665612673557 0.35115317095333626 0.17411406597740461 0.18528468711604798 -0.17381853846252374 -0.0006400063489013186 -0.38368240902797307 0.08770037538794341
