weights/classif_rnn_Whh.npy (npy, 51328 bytes, 1 tensors)

array f8 [80, 80]
0.11236922704772112 -0.027152724453554013 -0.021602935701058926 -0.01453737002835552 -0.06447004559204078 0.0503544875321592 0.026087729836423174 -0.04254917648179208
0.05126485022997285 0.03904679802457282 -0.01577258164901552 0.09694543382416233 -0.026972104526131975 -0.044838330905222094 -0.09069201492379357 0.05001818927495398
-0.013045545645046045 -0.020693192656543985 0.008098781689312438 0.01298177687364247 0.07374547773612955 0.00909894001753597 -0.0049589471354937395 0.0011836062201540179
0.04192775969202584 0.022894129801398502 -0.04782677203173031 -0.05940722854089914 -0.011455771403232323 0.02504188305100564 0.04371530452697923 0.003057279810103875
-0.05074580043682004 -0.02463894659568734 -0.01507906783329717 0.031357113954184564 -0.0035361910678177104 -0.03120504526991633 0.013894898678590726 0.04598219367110573
0.025872268372988897 -0.03556061401663995 0.02829571593701621 0.06865898702870096 0.04019382434251371 0.01291868068270348 -0.018610734456637096 -0.031186693951624843
-0.044976496831892504 0.003192448701315452 0.07898768258333197 -0.033188470442865485 -0.014385829908843606 -0.0024809995982959733 0.005274844967937671 -0.051131889309737624
-0.035176822140629546 0.03327653397915017 0.06801920057847471 -0.07545837685451101 -0.005549680964684867 -0.0355774990738345 0.03215415109534158 -0.05059837858519979
0.003091935373937115 0.0566872456121361 -0.05658025380444659 0.041640456931627406 0.014250213908396906 -0.05760497839348644 -0.014648715174954233 0.04072130349527539
-0.036315882948608734 0.04575112913344386 0.010881829666201605 -0.04026165084819235 -0.05102024519408096 -0.021903216735926802 -0.07135305826150089 0.08156109173333301
-0.016363076162587347 0.0664108841408954 0.03578688064090127 -0.02282212171748407 0.04926740567138938 -0.02188146904645361 0.0031305611600476145 9.414331571019159e-05
0.011913004132670978 -0.018429726805793703 -0.016603712066345637 -0.09152058899069179 0.05540365229139503 0.008365834945538725 0.007709158324567447 0.027154139686194376
-0.05020900372656171 0.05585203354669986 0.04814024530597128 -0.05279803867673744 0.003390482474272623 -0.025599491404963638 0.05253183498663276 0.007863022243724946
0.09243743400011427 -0.023394461855765814 0.070983493895134 0.05257779479541787 -0.007760833757928817 0.005602783260781538 0.03328011815752954 -0.05138186576061416
-0.023241660828175546 0.08542961953225503 -0.08655591214682529 0.05750451542502439 -0.003600752098763675 -0.04105291624546118 -0.015482450099247997 0.039340082515667986
-0.04464172933383324 0.017090048691462256 0.038835370009234975 -0.07443287913975886 0.02358054099124359 0.016301764256695012 -0.0331360605302058 -0.04625696838123501
-0.0003068228726413023 0.028590484822400033 -0.05816211436561403 -0.006725801794369663 0.0069737193221961116 -0.050120303798561326 -0.051504862389130227 -0.03016147780529818
0.06474739117971004 0.07101612839475178 -0.027119378112947172 0.022086591347791482 -0.03966213510429417 0.014788737172778808 -0.001706864367615183 0.039697587666102506
-0.037687632220320656 -0.05358927777686685 -0.03821497245145633 0.024512717637607147 -0.004380146116263108 0.03138314929105905 -0.03304498614177314 -0.06277624581507005
-0.05036085217344192 0.004449338066829738 0.06962744653497858 0.024977378109909434 0.06824337058924293 0.04120310131993767 0.025130956900158104 -0.1405226210176303
-0.02044205946905504 0.11084799605745022 0.2894470548016992 -0.1033874208722241 0.10031788709985781 0.05383298146815813 0.06640089960171337 0.00194080670439602
-0.005412804922381569 0.01564798819703305 0.015303018128581975 -0.05700142537700984 0.014181877597942422 0.08310440224616149 0.04647778442150338 -0.04921221815435923
-0.042888243466001744 -0.05379537642779702 0.08546069257203785 0.0399888586369791 0.01792687501057655 -0.10647298555938284 0.012752460232212758 -0.06695819405520069
-0.03357253359362836 -0.05438549814414196 0.037142275076561475 0.034778828090527236 -0.002651075797594294 -0.1953621779893421 -0.0332545084397049 -0.04023526097603943
-0.09827834196452391 -0.04125740442372001 -0.03206774552735116 -0.10158773897401575 0.05064687117504035 0.023387048332436124 -0.003118223972398064 -0.029704092649556754
-0.0033990913999548933 -0.10210814212150478 -0.055289037535325464 -0.07915206085238156 -0.018866649743329734 0.02195259025633739 0.058415909489390176 0.028661732481447974
0.09672006253812174 -0.002183288423361866 -0.15524826969503341 0.006962979959033137 -0.03543983392029262 -0.03543122158301613 -0.038557161262990546 0.04745504653778737
0.08170669797860718 0.010654360950712406 -0.004966105457736993 -0.014145399973472379 0.06506603130580318 0.06170911993955396 0.08295643557537163 -0.08049135442985858
0.007989264546439582 -0.120070996810899 0.010702086579724233 -0.012925595122967863 0.0321335693488149 -0.01200364999246502 -0.07598915136240464 0.08083853072986205
0.08070465435129065 0.05334313454775997 -0.09992069106601717 0.0896853679808708 0.027837939063209298 0.04934657771952503 -0.035310876922521425 -0.026577242130117796
-0.014634331030896758 -0.05920431721039319 -0.03803836594090012 0.14515385393292748 -0.060876778785384535 -0.013357494877156168 -0.07079997305918091 -0.05305369011000367
0.014059237337061107 0.049797537660185666 0.03900122237656358 0.037125291824114365 0.0843859614291215 -0.019705906493838587 -0.0031077988115090546 -0.06217333382770744
00000000: b82b 3fcb 3ac4 bc3f e7eb 197e eccd 9bbf
00000010: 71a5 5579 141f 96bf 78ac bbc6 c4c5 8dbf
00000020: 9cb2 63e1 1b81 b0bf 0f9f 503a 10c8 a93f
00000030: 65b4 e5e9 bdb6 9a3f 090c ec72 01c9 a5bf
00000040: c019 58ee 623f aa3f a5e0 0e21 f1fd a33f
00000050: 418e 6c09 b026 90bf 8974 c57b 6ad1 b83f
00000060: 8249 604b 939e 9bbf 27b8 b0b9 0cf5 a6bf
00000070: 4325 1b86 9737 b7bf b639 48ee fb9b a93f
00000080: 1549 3b7f 9fb7 8abf 58b7 d6a6 9830 95bf
00000090: 3fbf f113 1896 803f 931b ee98 3096 8a3f
000000a0: 44c5 1acf fbe0 b23f bfbc 6d0e 77a2 823f
000000b0: 9807 503c d54f 74bf 251c 7180 6764 533f
000000c0: e9f5 5729 8e77 a53f 84cd 110b 8f71 973f
000000d0: 49c2 7f2b c07c a8bf 6854 75cf 9f6a aebf
000000e0: 56fb 379c 1f76 87bf 23f3 ef52 94a4 993f
000000f0: 6d5d 8e36 da61 a63f 4e5e 9299 940b 693f
00000100: 092b 9282 5afb a9bf c470 58b7 f33a 99bf
00000110: c9dd 9539 c6e1 8ebf f93e dc25 0a0e a03f
00000120: 6f4d a31f eef7 6cbf a932 9e23 37f4 9fbf
00000130: ff09 3fbb ed74 8c3f b80e 0864 fa8a a73f
00000140: 912b 248a 427e 9a3f b74c 7434 0035 a2bf
00000150: e7fb 435a 8df9 9c3f d660 dda7 a293 b13f
00000160: 7dc2 1af2 4894 a43f e942 51f8 1b75 8a3f
00000170: 8518 623f b10e 93bf d6cf 5e9a 67ef 9fbf
00000180: ac97 f6cd 2807 a7bf 6397 85d8 0c27 6a3f
00000190: 0e74 7b69 8938 b43f b70f 5046 14fe a0bf
000001a0: b3d9 df67 5176 8dbf 31b0 5a84 0853 64bf
000001b0: 3b69 0f6a 139b 753f 7a6c bc80 f52d aabf
000001c0: 2ea9 5749 b202 a2bf 4b51 5432 9f09 a13f
000001d0: 9c0f fcd1 b469 b13f 64a3 cc7c 3d51 b3bf
000001e0: e7e3 f123 43bb 76bf e7bd fdc5 3637 a2bf
000001f0: 5f30 c546 8276 a03f 2214 82da 07e8 a9bf
00000200: b139 ff29 4254 693f 7e46 0254 1c06 ad3f
00000210: 3803 6147 16f8 acbf cc75 6ce1 e551 a53f
00000220: 159f 9455 372f 8d3f e0d8 9254 667e adbf
00000230: 35ba d644 2500 8ebf 6480 8635 6cd9 a43f
00000240: 1be5 2dd3 fe97 a2bf a734 c426 b16c a73f
00000250: 61bb 4b74 3649 863f 0317 5ad3 2c9d a4bf
00000260: cbbf 1559 531f aabf ca65 3bfe cb6d 96bf
00000270: 0be6 b3ab 3144 b2bf 96e7 9e0d 30e1 b43f
00000280: dbcb eb73 7bc1 90bf 9bcc 7bbf 4d00 b13f
00000290: 6c01 f573 a852 a23f 5792 9ba9 ae5e 97bf
000002a0: 8919 3cd0 9339 a93f e195 c587 1868 96bf
000002b0: f8f5 9d39 43a5 693f e0f5 33d9 d9ad 183f
000002c0: 19ec 2c59 d865 883f 24d2 9e07 3edf 92bf
000002d0: 4ec4 4441 9000 91bf 7e2c a0b0 e46d b7bf
000002e0: 664b 5715 de5d ac3f a365 f55b 1b22 813f
000002f0: 1da6 236e a393 7f3f d9e5 9c77 4bce 9b3f
00000300: 65ce f099 feb4 a9bf 3e10 ff42 a398 ac3f
00000310: 11cf 6b96 d6a5 a83f f9ad d132 5808 abbf
00000320: c478 076b 5bc6 6b3f 1da3 83c9 c036 9abf
00000330: f66c 88e2 73e5 aa3f cb7e 13fb 7c1a 803f
00000340: f7e6 f4cb faa9 b73f 0de8 4fc2 b7f4 97bf
00000350: d6dd d568 f92b b23f cac3 480a 7aeb aa3f
00000360: 9644 e1f2 d2c9 7fbf 6335 f2ad f1f2 763f
00000370: 04ed 2f76 170a a13f d93d 1952 b94e aabf
00000380: b69e a574 a9cc 97bf b031 002e b7de b53f
00000390: 3c31 f23b 8728 b6bf 99e0 3e5a 3b71 ad3f
000003a0: 3c8b 2a10 537f 6dbf 65ff 5b49 e304 a5bf
000003b0: caad b446 43b5 8fbf dd49 a71f 6224 a43f
000003c0: 3d28 0ddf 47db a6bf 4315 dec0 0d80 913f
000003d0: 3f46 3cc8 3ae2 a33f b302 a77d 080e b3bf
000003e0: d67b 8451 7f25 983f 55ff 65e1 68b1 903f
000003f0: 214d 97b0 35f7 a0bf 5aab d14c feae a7bf
00000400: d401 2334 a21b 34bf a7ed 27f5 d246 9d3f
00000410: 710f 22b6 6cc7 adbf 076b f0ab 838c 7bbf
00000420: d69c b986 7990 7c3f 1b5e 5c53 5ea9 a9bf
00000430: f2b3 1767 d85e aabf 1855 1783 a6e2 9ebf
00000440: 9e40 9ef7 4893 b03f b7a9 f1ec 1c2e b23f
00000450: 1ef5 54a8 2ec5 9bbf 8955 130e de9d 963f
00000460: 3030 536a 984e a4bf 6cbf 0cb4 8e49 8e3f
00000470: ddae cea8 1bf7 5bbf db12 8301 3e53 a43f
00000480: 0d2d b317 cb4b a3bf f290 efc6 0d70 abbf
00000490: 1008 cbb1 e990 a3bf 6fc1 5ba2 dc19 993f
000004a0: dc06 2385 eaf0 71bf c67f b3bf 7311 a03f
000004b0: 1727 8dbd 45eb a0bf 42cb bda2 1a12 b0bf
000004c0: b5d0 2aca e5c8 a9bf c52b c617 7839 723f
000004d0: 8b8f c5b5 1ad3 b13f 07d0 7c78 ab93 993f
000004e0: d27f d9c4 6578 b13f 8368 53a9 9218 a53f
000004f0: 0272 03f8 edbb 993f ea38 cf2e a5fc c1bf
00000500: 73a8 8763 c3ee 94bf b0d5 e4c5 8860 bc3f
00000510: 10ff 92f0 4c86 d23f 12c8 7617 9977 babf
00000520: b236 4cdc 6eae b93f f92d b41d ff8f ab3f
00000530: e1de 363c a6ff b03f 4ef0 af54 55cc 5f3f
00000540: d2aa f0c1 bc2b 76bf fec1 37b6 0606 903f
00000550: dd8a 2353 3057 8f3f 15a8 a373 4a2f adbf
00000560: bd11 d563 630b 8d3f 4b07 cd81 5446 b53f
00000570: 1c6b 29a8 efcb a73f f9bb 1207 5832 a9bf
00000580: 9283 23a6 72f5 a5bf 47e6 dd4c 118b abbf
00000590: e3be b07f c0e0 b53f d0b2 1970 6b79 a43f
000005a0: 8043 8f37 6c5b 923f 4c91 e246 d041 bbbf
000005b0: 398d 203d f61d 8a3f 3393 aa15 2c24 b1bf
000005c0: 8530 a84b 6b30 a1bf 91bf cf7f 6ad8 abbf
000005d0: d777 81f1 4f04 a33f 20ea 7bd2 87ce a13f
000005e0: 3541 327b b5b7 65bf 8d76 abba a001 c9bf
000005f0: 80dc 6224 bc06 a1bf bb83 1354 b799 a4bf
00000600: 418a a4f8 c428 b9bf 6979 6fc5 b01f a5bf
00000610: d2c4 97fc 2e6b a0bf 4967 9170 a701 babf
00000620: 28dc aefe 62ee a93f c77d f33e c6f2 973f
00000630: 562b 75bf 638b 69bf 9fe4 f2e9 bf6a 9ebf
00000640: 3bf6 c34c 69d8 6bbf e932 115b c223 babf
00000650: a444 1540 d84e acbf 87a0 c538 4f43 b4bf
00000660: 5ddf 876e c751 93bf 9094 da64 bd7a 963f
00000670: c763 a5a9 b0e8 ad3f 7c3a 9e4e 8059 9d3f
00000680: 02e3 7761 a5c2 b83f a3cd 080c b0e2 61bf
00000690: 96e5 8ce0 2cdf c3bf ded9 4eb3 3685 7c3f
000006a0: c39f 537f 2b25 a2bf 1dab e983 0a24 a2bf
000006b0: 8b62 4da5 c3bd a3bf 98e5 d121 074c a83f
000006c0: 0fa9 aeeb baea b43f 94a5 be1e f4d1 853f
000006d0: e8b2 78c8 5657 74bf 6a00 3372 43f8 8cbf
000006e0: c4f7 89dc 2aa8 b03f 0fba 0278 5698 af3f
000006f0: c4f8 c909 a23c b53f 9a11 e3d6 149b b4bf
00000700: cf82 91ef ac5c 803f 0c3d 800c f9bc bebf
00000710: 6cfa debe f9ea 853f fc05 ad02 bc78 8abf
00000720: d9ef e9aa cf73 a03f a9bf 33a1 5e95 88bf
00000730: 5ccb f367 0674 b3bf 92cf bd7d d5b1 b43f
00000740: 14e3 126b 0fa9 b43f 4190 b294 ca4f ab3f
00000750: d67f 5204 6794 b9bf 3956 68ca 9ef5 b63f
00000760: fe45 7577 8c81 9c3f c523 f362 f443 a93f
00000770: 1e8f 266b 4414 a2bf 7d21 1187 1037 9bbf
00000780: 908d 69a9 9af8 8dbf 6dbb 663c 0750 aebf
00000790: 8b3c 6bc3 c379 a3bf 5de0 c3c7 6694 c23f
000007a0: bd27 f0bb 3d2b afbf ea21 3b9d 2c5b 8bbf
000007b0: 05cc d870 f21f b2bf 4abf e86f da29 abbf
000007c0: e216 8ee4 16cb 8c3f 8df9 5717 107f a93f
000007d0: b304 39dd f7f7 a33f cc61 7a14 1602 a33f
000007e0: 4a60 9480 519a b53f 535e b7ff c82d 94bf
000007f0: 4c5d 41c8 8675 69bf 9653 f2e6 2ed5 afbf
