weights/dinos_rnn_bh.npy (npy, 928 bytes, 1 tensors)

array f8 [100, 1]
0	0xbfc6764cbb35fb85	-0.17548522130161018
1	0xbfc2fd066a878181	-0.1483467121279425
2	0xbfc56be69d8a004b	-0.1673553723558164
3	0xbf9a1cac64888696	-0.02550000537497129
4	0xbfc1671ea079193e	-0.13595946155164457
5	0x3f93bfb3471ca293	0.019285966124842856
6	0xbfb66b933c89c0e1	-0.08757896640759412
7	0xbfba349d41a87728	-0.10236533024769001
8	0x3fb0040973765a7c	0.06256159848121884
9	0xbfc16524992beb77	-0.1358991382511154
10	0xbfb2643f4143eae2	-0.0718421491946333
11	0x3f7ac211598d689b	0.006532733700476491
12	0xbfc86001abcf088c	-0.19042988671396122
13	0x3fb4c09643b9f27f	0.08106364396548747
14	0xbfa86cce2f048271	-0.04770511936135769
15	0xbfb5f2185d2c396e	-0.08572532915807127
16	0xbfb9ea0e2d394e55	-0.10122765163515031
17	0x3fd884598e2a4b44	0.38307799228021033
18	0x3fcc755511c2d797	0.2223306977008945
19	0x3f8ea7ab282eadaf	0.014968239940421705
20	0x3fa07bd9f03596f4	0.032194910595348875
21	0xbfda576b0e676215	-0.41158558279633556
22	0x3fa416aa4811c4ac	0.039235421464476644
23	0xbfc73e01db95ab1a	-0.18157981130510664
24	0x3fcd318bec5e962a	0.22807454148748835
25	0xbfd61ff587d9cd7e	-0.3457006289165391
26	0x3fb0556adfaa4022	0.06380336723873417
27	0xbfd1b4d6755310ec	-0.2766624589678617
28	0x3fd467b076d82197	0.31882869344601644
29	0xbfc379e14c284eb5	-0.15215698450685058
30	0x3fe0da6c58305971	0.5266629908026471
31	0xbfd00039e3653153	-0.25001380163737
32	0xbfbee94dcf63bfac	-0.12074743569587437
33	0xbfd2036cac6104b9	-0.28145901521572686
34	0x3f66f35626c60bfb	0.002801578774041411
35	0x3fb61772ff99153d	0.08629530658898417
36	0x3fdfeb5935f94154	0.4987395312391716
37	0xbfbf048da0317475	-0.1211632267090453
38	0xbfb3c0b40cf4c42c	-0.07715916935264094
39	0xbfe266e85450828c	-0.5750619551436826
40	0xbfbed5fe60ad4772	-0.12045278415942365
41	0x3fae20b64317e678	0.05884332245836971
42	0xbfae1c6f7c9473e2	-0.0588106956076684
43	0x3fba2c31a535584c	0.10223684581191711
44	0x3fbea8d2c15b9f3a	0.11976353855754676
45	0x3f9c251e8596610b	0.027485348609475085
46	0x3f88d0b92b0b2e80	0.012116858125771346
47	0x3fc938a3bdd25bd0	0.19704100388182022
48	0xbfc2b35291a67aca	-0.14609748946982953
49	0x3fbc0fcbd56718a1	0.10961603126551946
50	0x3fcf9edddb41da0e	0.24703572469634633
51	0x3fb2ce7f269ce949	0.0734633893270359
52	0x3fc6bca71cb31dcb	0.17763222600318182
53	0xbfcb38891a390f42	-0.21266282825865274
54	0xbfa455278175d146	-0.03971217589688307
55	0xbfa223eca2145121	-0.03543033102519844
56	0x3fc248d5179cf010	0.14284766819935202
57	0x3fccb9cd3a728560	0.22442021707415005
58	0xbfc18fe95b8fc92b	-0.13720433207306235
59	0x3fd3ef6943034e78	0.3114874987051972
60	0x3fd5db755792d003	0.3415196757516698
61	0x3fcb0c7311ae8206	0.21131742823946825
62	0x3fc167e9fd81733e	0.1359837043591145
63	0xbfc581af5ce0ee6b	-0.1680201724537825
64	0xbf9f98c5b9031e68	-0.030856217782256584
65	0xbfc0f93ff7a63bd2	-0.13260650245908195
66	0xbfdc8d6e12ca40cb	-0.44613220057455
67	0xbf79c496cbc24347	-0.0062909975496417475
68	0xbf8f22b7ad621835	-0.015202937105879591
69	0x3fca93eec09f4b35	0.20763954549200894
70	0x3fa14732518eb20a	0.03374631162236959
71	0x3fb1b3f10e9a2394	0.06915194136139596
72	0x3fe20c22f5a6cf75	0.5639815137751457
73	0x3fb1212d2d1254bf	0.06691248274212834
74	0xbfbe7029eb420f44	-0.11889898294071793
75	0xbfc32e7e81c70f4d	-0.14985638939662707
76	0x3fa0c629892b3c44	0.032761857980965675
77	0xbfc905f346c37880	-0.1954940886998351
78	0xbfbf945ccc1fc1a3	-0.12335758193490291
79	0xbfd16d9347c1d4d6	-0.2723129463914352
80	0x3fce97b258332ab6	0.23900441462168026
81	0x3fb036b0d68b5aaf	0.06333451497935515
82	0x3fd1a682e01708db	0.2757880390528393
83	0xbfd648d4a2fb8c56	-0.3481952277781536
84	0xbfc8114280285371	-0.1880267263192326
85	0x3f7e399e57a56f0e	0.007379168057322761
86	0xbf930abd4f651fe2	-0.018595655413520158
87	0x3fd643abc224ff23	0.3478803058569488
88	0xbfb1f30646c0094f	-0.07011450984285726
89	0xbfd85f399754395d	-0.38081207063887296
90	0x3fa82fc9d538c62e	0.047239596632050115
91	0x3fb9494b6b944d05	0.09877463699767837
92	0xbfcfcfdbbaa35914	-0.24853083241641427
93	0xbfcfa217af9b60ae	-0.24713417124326525
94	0x3fc188d851e0eb7a	0.13698867795923403
95	0x3fb432f22a5b3cb2	0.07890237363902733
96	0xbfbb5fdec4cb78ef	-0.10693161301194086
97	0xbfc197ddade36832	-0.13744708052291937
98	0xbfba59e6bfc2e9eb	-0.1029342859427868
99	0xbfa9ba7f5468f056	-0.05025098710436342
