weights/dinos_Whh.npy (npy, 320128 bytes, 1 tensors)

array f8 [100, 400]
0	0x3fd60f1abc788543	0.3446719017539019
1	0xbfa009e88ef5da71	-0.031325595332352026
2	0x3facc90a056b434f	0.05622130695485927
3	0x3fc2e8782f6e8117	0.14771940532683267
4	0x3fc25886f9bc2f17	0.14332663721176495
5	0x3f7e3941eefb67d6	0.007378823807551135
6	0x3f92f0ce6a32cb13	0.01849672816451704
7	0xbfad5cc535a7f754	-0.05734840660077958
8	0x3f810c423cf9abd6	0.008324162946527307
9	0x3f882330942b015e	0.011785869142273139
10	0xbf9cbadba45edb3c	-0.028056556613331937
11	0x3f826ac58a6c87c0	0.008992713248122786
12	0xbf88ea8f40db1779	-0.012166136900656476
13	0x3fcc4f8511f4c68e	0.22117675186887137
14	0x3f8bb4f3eaa75323	0.013528733824310251
15	0xbfa2e04c2959b833	-0.03686750416532938
16	0xbf77562596e3fa7a	-0.005697390397698338
17	0x3fb0fd9d87257abc	0.06636986302826647
18	0x3fd00391b61539a5	0.25021784574064504
19	0x3fb9645f4cb1f607	0.0991878092044872
20	0x3fb37f83470686fd	0.07616444095631532
21	0xbfcedf1c973988fd	-0.24118382820149256
22	0x3fb4dbefb539432d	0.08148096250921517
23	0x3fa1e9ba00c9d6e3	0.034986317249531294
24	0x3fb307e4fb8cb04d	0.07433920995089345
25	0xbfa45009d061b3e8	-0.0396731440422185
26	0xbf89ddab37807530	-0.012629830962448269
27	0x3fb10d6244d49c40	0.06661047153885225
28	0x3fd75f91524adc11	0.3652079871785086
29	0x3f91dfe3ebf1baff	0.017455636287588835
30	0x3fb41c07bed8f366	0.0785527077614013
31	0x3fade9fa8f576fda	0.0584257411935309
32	0xbf5d842cc3d33f2d	-0.001801532474292554
33	0x3f965ff2ca307b4d	0.02185038909021424
34	0x3fbce470bf3150e5	0.11286072414197042
35	0xbfab69c425de873b	-0.053541307089530275
36	0x3f92e6cb7e290502	0.018458537650308145
37	0xbfbae26b8ba3f370	-0.10501739653768793
38	0x3fb3621677efc652	0.07571545055523046
39	0xbf81c8837a991d2d	-0.008683230570695056
40	0x3f4c689265fd4a82	0.0008669581256788991
41	0x3fb9e2e667312f15	0.10111846942271215
42	0x3f80abdd22166bca	0.008140304186602072
43	0xbf813e666ab43c92	-0.008419799929951819
44	0x3fb4255c289ef6b2	0.07869506828043418
45	0x3fb0d71e835b43c9	0.06578245837159992
46	0xbf71e4b3c4410cd8	-0.0043684980519771086
47	0x3f736d7d8ffbe5db	0.004743090132018203
48	0xbfb6b2ab35e44b16	-0.08866376939503726
49	0xbfa109b0f0df0767	-0.03327706280062053
50	0x3fd10ae68ab5fd3d	0.26629031702028155
51	0xbfd45fb7134dfea2	-0.3183419884225974
52	0xbfceaf21186b09ec	-0.23971952144900344
53	0xbf8737d5f8c7112c	-0.011336967138853092
54	0x3fc66381133b61ae	0.17491162718830594
55	0x3fba5b2bee6e1853	0.10295366831823687
56	0x3fa8c9883183ec87	0.048412567180968806
57	0x3fc86415d52b8573	0.19055436047259952
58	0x3fbf474d7e4be27c	0.12218174298676304
59	0x3fc12c658ed33293	0.13416738008381354
60	0xbf97033960dd425e	-0.0224732365962289
61	0xbfa43ca7fca90d45	-0.03952527007325072
62	0x3fd68cd5603dbf64	0.3523457946639523
63	0x3fadb94af3a9d27e	0.058054296726287355
64	0xbfb06539e2635557	-0.06404458787013333
65	0x3f91b50026267f1d	0.01729202492572234
66	0x3f81577f0dbf51a4	0.008467667204890734
67	0xbfbf61c480b35d66	-0.12258556501489223
68	0x3fb10dadcbc6110b	0.0666149733061198
69	0x3fc269350dc38aef	0.14383567020475804
70	0x3fb6e75cbb7ca4c1	0.08946780755344987
71	0x3f985702c044e4d0	0.023769419655967294
72	0x3f90e66fcd2c9a05	0.016504046342697993
73	0x3f97eda902272f75	0.02336753917351993
74	0x3fc586e6b54d12e7	0.16817935803023618
75	0x3fb055db5f6bc631	0.06381007270444951
76	0xbfbaf4dbb0b7ca89	-0.10529873909380617
77	0xbfa98b54a46c0725	-0.0498911333761625
78	0xbfae189fb905cfc9	-0.05878161557748702
79	0xbfb41d8ffbedc504	-0.07857608700375712
80	0x3fa3b4dc16d91850	0.038489225186410736
81	0xbf42e639f7e3f32a	-0.0005767615364501201
82	0xbf90c9adb281cb80	-0.01639434244175275
83	0x3fc89acd0d39b49e	0.1922241510941704
84	0x3fba021aa5c251a1	0.10159460589267734
85	0x3fc9e1217d3b4e26	0.20218294730021674
86	0x3fc2a9cc0e804cc6	0.14580679615082753
87	0x3fb1e23d35935f98	0.06985838468551575
88	0x3f9f623b3b363017	0.030648160447114572
89	0x3fbaca30c7618da3	0.10464768283559649
90	0x3fc55d4860f8f026	0.16690926299077197
91	0xbfc8772b3c20ce1b	-0.19113674579567505
92	0x3fb54e9d631a7135	0.08323081655038751
93	0x3fc86a998d23cb55	0.19075316802590217
94	0x3fa6d2037dc34102	0.0445710268992361
95	0x3fb73981df6669ea	0.0907212419901168
96	0x3fb8f539ee27f65b	0.09749185623510341
97	0x3fa520431eaecd23	0.041261765952550065
98	0x3fa6dae5add43a01	0.04463880297599943
99	0x3fbdddfe5de5c30f	0.11666860382480258
100	0x3fae7bc0c4ab175e	0.05953791046844857
101	0x3fb607de6c1ddb22	0.08605756892744101
102	0x3fb81a6cfa005ab6	0.09415322402524393
103	0xbf9af16a95cc634c	-0.026311555283516072
104	0x3fb2199351918937	0.07070275060099084
105	0x3fa686b8a0bf5bd9	0.043996591207978226
106	0x3fc5d38f3e7a6613	0.17051878500642256
107	0x3fb08adcca3cc5e3	0.06461887299953832
108	0x3fa5bdf16b2eabda	0.04246477540376477
109	0x3f783d00f3a02e52	0.005917552678521414
110	0x3f5f74c6ba3ff4b8	0.0019199314783684817
111	0x3fc076280bb5c018	0.12860584804320818
112	0x3faadd34694047a7	0.05246890816501031
113	0x3fb996ea804a17e8	0.09995904571596237
114	0x3fb1c4be00013812	0.06940829753986602
115	0x3fc2295c69767255	0.14188723706765197
116	0x3fa8f347a2a8c586	0.04873107777201384
117	0xbf575324b869407e	-0.0014236315343119361
118	0x3fb6d7b92351e60d	0.08922917473127985
119	0x3fc03ab07339c5e0	0.12679105402234736
120	0xbf924cdcfd51bd48	-0.01787133499277374
121	0x3fc125c8e275395d	0.13396559770121544
122	0x3f9d27f3d707caff	0.02847271919194849
123	0x3fc8fdc305d03e81	0.19524419578418775
124	0x3fad44e35dd0487b	0.05716619987664814
125	0xbf9b6828954408d1	-0.02676452075048347
126	0x3fc61baca5312db4	0.17271955553074536
127	0x3fc1a4fac4c83225	0.1378472767686542
128	0x3fb9af6d97b28a6d	0.10033307031202705
129	0x3fad73968fa7c2ee	0.057522492443132
130	0x3fa06e21b6eff03b	0.03209023817177622
131	0xbf7832958a28a077	-0.005907615794548452
132	0x3fafaba3fc8f3a9c	0.06185638864518703
133	0x3fb5423bbd35162e	0.08304189080544042
134	0x3fb9c4b72910da7a	0.10065788986762839
135	0x3fb5dac0b77f495a	0.08536915283119609
136	0x3fc45f21b25df4ad	0.15915318688704386
137	0xbf95f6998613d293	-0.0214485157093401
138	0x3fa58d540bb813b0	0.04209387438826384
139	0x3f8546250fad6dd5	0.010387696782053016
140	0xbf71e16897c485c7	-0.00436535698489266
141	0x3fb415dad855398a	0.07845847875180403
142	0x3fb0f979aa619f1e	0.06630669030857603
143	0xbfb3a9f7a3be0c66	-0.07681224582306498
144	0x3f9a5449915e934a	0.025712155816694428
145	0x3fbbac9fb0c1cb88	0.10810278001171814
146	0xbf8fab3832574079	-0.015463294063835275
147	0xbfa1015e73b8c6b0	-0.033213569284624156
148	0x3fb1a19ad86e0d8a	0.06887214454586946
149	0x3faf76ea8a36387a	0.06145413338809731
150	0x3fc18ed0065bb19c	0.1371707945867343
151	0x3fd3ba9da731c210	0.30826512649130766
152	0xbfcbcb7b4141235c	-0.21714726148845898
153	0x3fc12c7db7a295d2	0.13417026011045025
154	0x3f71ae66666c92b4	0.004316711426132148
155	0x3fa6a7d64ca74822	0.04424924550734512
156	0x3fa0d41d93a0d849	0.03286831309417033
157	0x3fbd46a28734c7dc	0.11435905266696927
158	0x3fb777a2328a461b	0.09166921361818263
159	0x3f95ff260af4821e	0.021481127184531094
160	0x3f7db511335682a8	0.007252757253269827
161	0x3fa1d1d8939843cc	0.03480412294096133
162	0x3fbb116078d5c0b3	0.10573389959404515
163	0x3f967c7128ec2203	0.021959083674149237
164	0xbf9caaaa08b424d2	-0.027994782239180456
165	0x3fb245fe79efbb82	0.07138052441562873
166	0x3fd3620cf275c9b1	0.302859532144022
167	0x3fae7a00719b54c3	0.05952454935838027
168	0x3fbb8f6bfca44725	0.10765719335566055
169	0x3f8f31f9a59345c2	0.015232038846451416
170	0x3fa09e2f263a6994	0.03245684949543484
171	0x3fa68717f076f573	0.0439994317089071
172	0x3fb1ad6cf249e5d3	0.06905251422167362
173	0x3fb43109ab2e85ed	0.0788732569622181
174	0x3fa04b60bee8b396	0.03182508783752451
175	0x3f96b7ca5f238626	0.022185480171975545
176	0x3fc43ec2c36007e2	0.15816530742455287
177	0x3fb610d030b5ffb7	0.0861940497325112
178	0xbf8438d1a341780a	-0.009873998446149574
179	0x3fb4cb87fb1393f8	0.08123063926502982
180	0xbfa56c6cfbbfeda3	-0.04184284756771752
181	0x3fb76605a281f407	0.09140048234435492
182	0x3fb69c409df9c805	0.08832172257260147
183	0x3fca0ac0c6f0b161	0.20345315660359645
184	0x3fb78dc20de7cb0f	0.09200680579651198
185	0xbfb94d815070b16c	-0.09883888448593375
186	0xbf2faf68e7c5155f	-0.00024173884947679532
187	0xbfa233e98492e3f0	-0.035552308495830576
188	0x3fb4abdb0f4fc68e	0.08074730991190845
189	0xbfa1936763d05234	-0.034327727255150015
190	0x3fb90a479ade97ae	0.09781310587876987
191	0x3fcaab765c57c967	0.20835761555606355
192	0x3fc2ed288c0657df	0.14786249959132555
193	0x3fc526d39e9c1c68	0.1652473949872928
194	0xbfadaddd9c7c90fc	-0.05796711478459035
195	0x3fa22e9be5d1dfd5	0.03551184826295609
196	0x3fbb6005e60bbc49	0.10693394533494528
197	0x3f6e54801d4ab6a4	0.0037024023279944186
198	0xbf8c6855241d4e7d	-0.013870873608232909
199	0x3fbcd9e6150a9a30	0.11269987119394709
200	0x3fe545fe2d7dce08	0.6647940529350658
201	0x3fb439d5a09dbec0	0.07900748416227099
202	0x3fcec794d5263e73	0.24046574027714804
203	0x3fc78ebb616cb1a2	0.18404333359775388
204	0xbfa07ac4810204f7	-0.03218664240649532
205	0x3faafd2fa51d063a	0.05271290674728531
206	0x3fc15e71a8ac369b	0.13569470153781968
207	0x3fbbbdbcd89bb010	0.10836391723904648
208	0x3f853e9397721854	0.010373261508231625
209	0x3fc3bcec3f6b6b15	0.15420296761188781
210	0x3fa8cd38cb12341c	0.04844071844954831
211	0x3faeff1bdaa0b8a4	0.06054007571980094
212	0x3fba26d0a0caf00e	0.10215476918796204
213	0x3fd24dfa27e48562	0.28600934882896045
214	0x3fbf8906bb93c5c5	0.12318460540315986
215	0x3fad7e487f023e29	0.0576040892639152
216	0x3fc5ed4f3c101ce6	0.17130461151848592
217	0x3f99f9bb3d7eefe8	0.025366712215813353
218	0x3fd2607336bd54dd	0.2871368441167997
219	0x3fbd6f1d001541af	0.11497670413996873
220	0x3f81497b922decc3	0.008440938375989032
221	0xbfd6102eee7e43e7	-0.3447377518687617
222	0x3fb474ca8c1265e2	0.0799070922825176
223	0x3fc9798e204dc392	0.1990220697148542
224	0x3fc510cf929f040b	0.164575525848733
225	0xbf810d6d1269af1b	-0.008326389431395456
226	0x3fa4997c395c9c98	0.04023349952904559
227	0x3fc9d0ca5b2adbca	0.20168427897962565
228	0x3fdd65ac0ddd2d45	0.4593305716886856
229	0xbfa258d892ed3f4f	-0.03583409112491031
230	0x3f99f1fccec9cb59	0.02533717167029734
231	0x3fc25cf2ff87426b	0.14346158482523505
232	0xbfb8e70290e51013	-0.09727493321867113
233	0x3faee7965aaa2c45	0.06036062103984156
234	0x3fb9aba9f52b9df9	0.10027563319783174
235	0x3f3802ccc062a015	0.00036637781921422644
236	0x3fc78a1424019427	0.18390132673371903
237	0x3fb98fc8dc671d70	0.09985022908141672
238	0x3fa6cc517dc5c040	0.044527575114330364
239	0x3fa40f9c65525891	0.03918160187565534
240	0x3fb92501c0ed3ccd	0.09822092971920711
241	0x3fc46b95d911b9d6	0.15953324412426068
242	0x3fb3fc747d50d4bf	0.0780709081598898
243	0xbfa1f69e8b7d9b09	-0.035084681060473306
244	0x3fa6c8f5dbfc7900	0.04450195608500174
245	0x3fc0997498366f24	0.1296830886102437
246	0x3fac0017f510ea62	0.05468821398286107
247	0x3fad42303ece522f	0.057145602862111004
248	0x3fb0121c358348b3	0.06277633959260491
249	0xbf7cb6195bab8fdb	-0.007009600691819852
250	0x3fdf0cec8afa5344	0.48516381809286124
251	0xbfcb1a07d50ea8f7	-0.21173189070879747
252	0xbfb39b02733f0f11	-0.07658400834685276
253	0x3fbbc0513184c1a5	0.10840327700566961
254	0x3f96feb7c5dad221	0.022456046534630517
255	0x3fc7c074a63eaa46	0.1855607806913488
