weights/dinos_Why.npy (npy, 42528 bytes, 1 tensors)

array f8 [53, 100]
000000 2a bc b7 0f 77 95 e8 bf 0c 08 a9 e4 d4 5f d9 3f
       -0.7682452494608516 0.3964740975389993
000010 90 f8 1a 0a 50 a4 56 3f 90 fa 0f b3 61 c5 eb bf
       0.0013819486270416938 -0.8678444382965882
000020 89 00 fb 12 a4 7e e3 3f 49 12 b5 31 80 35 a9 3f
       0.6092090960228386 0.049236303394114396
000030 a7 24 17 fa a1 c4 c6 bf 66 71 ab 22 ca db d0 bf
       -0.1778757544655367 -0.2634148920604019
000040 53 16 42 2d 95 0b e5 bf 4a c4 64 91 06 24 c3 3f
       -0.6576639064739517 0.14953691577241762
000050 88 79 c2 70 a5 84 b0 3f 40 0b 9d e6 4a 0f c0 3f
       0.06452402117654377 0.1254666925470591
000060 27 f3 34 46 08 cc dc 3f f4 f0 d1 14 7e 28 d4 3f
       0.44995314460884334 0.31497146638118
000070 2d 27 b9 15 44 10 e7 3f 15 54 b5 94 a7 71 e0 bf
       0.7207355903894715 -0.5138738541087401
000080 78 74 5c 6f a6 99 da bf 15 c4 d4 8c 7c 3e d2 3f
       -0.4156280601035358 0.28506387475050704
000090 77 33 22 c3 cf c7 ee bf a8 86 c6 17 cd 06 b7 3f
       -0.9618910609438974 0.0899475272222171
0000a0 93 0a be 36 62 2b d4 bf 26 51 31 78 76 a1 cc 3f
       -0.3151479277222872 0.22367745274335354
0000b0 cb dd 18 5b 08 98 e3 bf 17 4c 83 06 ab 77 f9 3f
       -0.6123086718789009 1.5917158369454734
0000c0 18 82 2d 8f 27 71 d3 bf 14 b0 e2 b0 3a e0 bc 3f
       -0.3037814043255209 0.11279646700376161
0000d0 0b 7e de 3c 99 d4 c0 3f 55 f4 9d 84 38 6c d6 bf
       0.13148799392818974 -0.3503552718246444
0000e0 dd 41 be c2 6f 8d e7 bf 1a 58 16 39 c7 3d f0 3f
       -0.7360152057245234 1.015082571980662
0000f0 41 6d a2 6c 94 d0 d4 bf 5f 5f 26 ba 22 d0 ba bf
       -0.32523069962345025 -0.10473839802432171
000100 9e 51 5b 49 7b 0b b0 3f 38 61 1f 87 fb b7 bd 3f
       0.06267519513068584 0.11608860062495274
000110 70 03 26 32 9a 6d b3 3f 43 47 01 3e c5 ea e4 3f
       0.0758911487992131 0.6536585055384666
000120 c9 3a bc c7 c2 db d6 bf f4 15 a4 ac 01 f6 a9 3f
       -0.35716313844106345 0.050705005955062804
000130 91 c9 40 d4 f7 3b dd 3f 96 5f 2a 16 1a cc a0 bf
       0.456785161283869 -0.032807173925163344
000140 e0 a7 24 31 31 9c e7 bf 77 89 8c 05 6a 04 d1 3f
       -0.73781642530707 0.26589441816226816
000150 54 63 a9 9b 4f 2b 43 bf a3 5e 65 9b d2 20 d4 bf
       -0.0005849970542143126 -0.3145033376253911
000160 1c 3f 4c 71 58 20 d4 3f ac 9e 0d 33 03 d1 d7 bf
       0.3144742113517951 -0.3721321104589872
000170 6b 56 a7 b5 67 01 d8 3f 74 a3 a4 24 b0 bd e9 bf
       0.375085761448054 -0.8044052806554718
000180 7b 73 41 da b5 81 ce 3f 84 67 d0 1a 37 61 c3 3f
       0.23833344609274917 0.15140427407532908
000190 fb 1f 69 21 53 c6 f8 bf 98 18 e9 16 17 58 da 3f
       -1.5484191231826105 0.41162659871441454
0001a0 16 60 51 8c 1b 01 00 c0 b6 43 22 3c 1e 16 cb bf
       -2.0005408251127035 -0.21161249099944052
0001b0 ac 9d 3b 52 26 af d9 bf d9 28 91 41 de 23 b7 bf
       -0.4013152888350884 -0.09039105511434133
0001c0 f4 ba f1 84 36 bb bb 3f fa 33 b3 57 48 cb 83 3f
       0.10832539315900275 0.009665074516670192
0001d0 ef b1 7b 2b cc 84 e0 3f 2d fe f7 b5 49 2e d6 bf
       0.5162106370240148 -0.34657519121535324
0001e0 4b f3 52 57 b6 bd c7 3f 8b d3 6e b8 c2 16 c5 3f
       0.18547705901974107 0.16475709920419165
0001f0 e9 1f a7 f0 0f fb d1 3f d8 a9 f2 83 c4 d6 c9 bf
       0.28094862462285036 -0.20186668818253284
000200 1d de 96 18 89 5d c1 bf c2 2f 24 ac 06 94 8f bf
       -0.13566697788859097 -0.015419056061112605
000210 ce 35 aa b5 a7 eb e8 3f 1a 6b 84 d7 c4 da e2 3f
       0.778766493620134 0.5892051896401853
000220 41 d1 c2 54 58 74 e4 bf 43 e5 55 d4 ce 36 c1 3f
       -0.6392022757995975 0.13448510520883347
000230 e4 41 a6 7b ad bf eb 3f ca e9 ae 78 02 38 db 3f
       0.8671481528309042 0.4252935579821978
000240 67 ea f8 3b 36 0a da bf 5a 65 8b ea d5 2a ab bf
       -0.4068732820193532 -0.053061184769556305
000250 88 0e 35 04 a2 d3 ea bf 93 fa d0 10 17 64 d3 bf
       -0.8383340913937483 -0.302984014913741
000260 28 84 c4 21 d6 f4 e2 3f 67 2a e6 b6 a4 dc ef 3f
       0.5923872622989892 0.9956840107200379
000270 ea e7 dd 62 2d b0 cf bf cb a1 ec a4 21 25 c1 bf
       -0.24756400420648045 -0.1339456610960624
000280 b9 ee d9 70 a9 ba d3 3f ba 7b d1 7b 1f 8b b9 bf
       0.3082679369033304 -0.09977909825236866
000290 c5 12 fa 15 45 68 dd 3f 1e 4c 5f d1 de 1c 97 3f
       0.4594891275994935 0.02257106926829177
0002a0 2d bc 7a 7c da bc f0 3f 57 31 a8 c6 09 06 01 c0
       1.0461068022230038 -2.1279483337477063
0002b0 49 59 af c0 04 8b e3 bf 39 02 6f 88 ac 35 e3 3f
       -0.6107200396898317 0.6003019966811457
0002c0 85 ff bd 9e d0 77 a1 bf 7d 98 b6 e1 76 83 c5 3f
       -0.03411724031229738 0.1680744745364712
0002d0 6f d9 92 1d 7f 87 db 3f c1 0f 5f 3d 5b 95 ff bf
       0.4301450527958854 -1.9739639661138286
0002e0 1d ef 13 9e c1 8c de bf 72 9e cb e7 e4 73 d2 3f
       -0.477341083882253 0.28832361828106123
0002f0 b0 93 52 af 1c df bf bf 78 1d 6d b3 e4 2e b9 bf
       -0.12449816971145711 -0.09837178593180862
000300 82 85 95 12 98 e1 ca bf 99 ee 1e 7f f1 fa e5 bf
       -0.21000958354401794 -0.686882732661121
000310 e1 08 6a 32 4b 42 b7 3f a8 a9 cb 68 8a d6 b6 3f
       0.09085531216445332 0.08921113069997111
000320 21 28 6a 67 ef 6f c4 bf 2e 42 29 fb 4a b5 de bf
       -0.15966599034828824 -0.47981524016816735
000330 b7 63 11 4b 17 ce a7 bf c5 97 de 32 1b 5d ad 3f
       -0.04649422446590939 0.05735096927610032
000340 b4 3e 7a ff 98 68 eb bf e3 c4 d0 d9 8c fc c1 3f
       -0.8565182676120089 0.14051972041628522
000350 3f 7b 64 bb d9 4f cc 3f 9f 91 6a 4a 5b 6f dc bf
       0.2211868443491429 -0.4442966677400139
000360 97 2b ae 38 24 fd a6 bf 69 8a 9b 0e f2 cb de bf
       -0.0449000662984737 -0.48119784761926226
000370 41 b7 6c 97 05 5c dc bf 83 4a 47 87 2f af c3 3f
       -0.4431165674931102 0.15378374200243536
000380 a5 63 6b b7 a0 87 ea 3f fa ca bf 23 ab d0 c6 bf
       0.8290561277782343 -0.17824305768552745
000390 96 9b 5b 4f 1d c4 d4 bf d6 8a e3 3e f1 43 c4 3f
       -0.3244698786715444 0.15832343645805363
0003a0 e8 84 ff 27 d4 fd b6 bf 0c d9 18 37 28 9b b7 3f
       -0.08981061913029331 0.0922112593187629
0003b0 e6 36 b6 ff 47 f3 de bf 66 1c d1 75 56 90 d9 bf
       -0.48359870883801503 -0.3994346762232851
0003c0 86 7f 2a 06 25 49 d3 3f 0e 58 9d 31 f1 e2 f5 bf
       0.30133939363621953 -1.3679058015891346
0003d0 4f 5d 6a 2c 97 7b d5 bf c5 d5 82 e8 d1 14 e4 bf
       -0.33566836678933937 -0.6275414983016893
0003e0 48 e4 e4 b4 ea 9c ea 3f e1 5f d9 94 ea e0 ce 3f
       0.8316548855865529 0.24123890178702737
0003f0 23 25 c9 1b b3 12 ce bf 4d 28 1e b7 05 34 98 3f
       -0.2349456678078151 0.02363594942247742
000400 90 b2 0c 64 7e 22 e0 bf 38 64 76 83 e8 eb d4 3f
       -0.5042106584638351 0.32689869726306453
000410 01 f8 bf 06 3d e8 ac 3f 19 61 0d 74 3b a5 cb bf
       0.05645933825870487 -0.2159799877797546
000420 a4 f8 ec c0 99 75 c4 3f 34 91 62 06 90 0f 81 bf
       0.15983888549994163 -0.00833046454892692
000430 8f fe d3 5f ee a2 c6 bf d8 7a a9 95 e2 8e ef bf
       -0.1768472640906009 -0.9861920283400094
000440 ab 7d 09 f4 77 4a bc 3f 56 62 00 cb 00 be ba 3f
       0.11051130016266224 0.10446171718684502
000450 3e 90 50 98 77 ef c9 3f 82 ec 40 c2 05 38 bb 3f
       0.20262045800439127 0.10632358543891665
000460 34 e3 4d 8c a3 5f ac 3f f2 16 22 44 a0 2a db bf
       0.05541716659258214 -0.4244766869891087
000470 0f d8 0f e4 03 92 aa bf 59 df 9a d4 9a cd d0 bf
       -0.05189525755842805 -0.26254912149624016
000480 23 8c 47 49 24 4c e0 bf 3b 10 ad f8 0a b6 c9 3f
       -0.5092946463813671 0.20086800711044525
000490 83 43 82 1b 4a 2d d4 bf ad f7 4c c0 b7 4b d3 3f
       -0.3152642506257097 0.301496446412666
0004a0 14 c4 9c 98 2f 22 e2 bf a9 60 b9 d3 1d 0a d5 3f
       -0.5666730862341205 0.3287424628847569
0004b0 5c 0c cb db 5a 73 eb 3f 3f 35 f4 d2 e7 9d da bf
       0.8578314106783966 -0.41588779068918663
0004c0 5c 79 d9 b0 9a b4 da bf b1 a0 8c 1c 27 7c c9 bf
       -0.4172732092901208 -0.19910134214410882
0004d0 0f 56 dd 56 f3 15 bd 3f 2f bb cb 73 47 8c e9 3f
       0.11361618872373234 0.7983739148747641
0004e0 1a db d8 25 79 06 db 3f 54 59 96 16 28 45 b5 3f
       0.4222700948334236 0.08308649589011924
0004f0 54 c9 6a e5 54 e0 cb bf c4 ea 4f 20 03 ea cd bf
       -0.21778355791100046 -0.23370398595564812
000500 f4 d5 1b 94 1d d8 d2 bf a9 59 7a b1 42 80 b6 3f
       -0.2944406458258009 0.08789460022885599
000510 48 ee 2f cc 1a 54 d7 bf 73 56 9b ba b8 8e c6 3f
       -0.36450834217223305 0.1762305174985844
000520 f7 ee 0f 1a 92 c7 e3 bf 04 cc 7f 8b bd 66 c1 bf
       -0.6181116589573027 -0.1359478884838553
000530 e9 97 3f e5 e1 90 f6 3f 78 35 5e a1 fe eb a7 bf
       1.4103716807380755 -0.04672237129043827
000540 db 0b 8e 0b 30 41 ca 3f 42 81 15 1d be cf a4 bf
       0.20511437000467833 -0.04064745049504605
000550 a6 e7 3f 0c b6 ab cc 3f 2b 0c 94 ad f0 0e d4 bf
       0.22399020765425098 -0.31341187430388356
000560 d7 57 a6 b2 48 3b da 3f a6 e5 3a ac 81 2f e5 bf
       0.40986840673701636 -0.6620491374844064
000570 98 88 32 fa a8 f7 c2 bf 78 95 c5 2b 15 db 67 bf
       -0.14818298546476139 -0.0029120839591764668
000580 44 a9 6f 1d 0f 5b d6 3f 3b b5 62 20 5c f8 e0 bf
       0.34930780291201224 -0.5303173668413942
000590 f1 2a 34 12 1b 93 c4 3f 79 0b d2 1a ab f3 da 3f
       0.1607393111119886 0.4211223375243019
0005a0 19 6b c3 87 f6 62 e0 bf e5 58 a3 e3 42 c5 d4 3f
       -0.5120804454448687 0.32453987341194895
0005b0 d8 42 b8 5b 91 0f 9a 3f ce 56 48 c2 4e c2 ee bf
       0.02545001146615075 -0.9612191958028349
0005c0 62 d4 4e 27 a9 91 e0 bf b0 f1 45 12 62 27 e6 bf
       -0.5177808540089581 -0.6923075062655268
0005d0 27 e3 a0 40 d1 8f d7 bf 5d f1 e9 ed 1b c9 f6 bf
       -0.36815291701673164 -1.4240989011296599
0005e0 3d a3 8e 67 18 16 b3 3f 1d cd 40 38 e5 66 a7 bf
       0.07455589798213409 -0.04570690452274049
0005f0 f3 81 e8 be da de a5 3f 4d fe 6d 3f fa 29 ee bf
       0.042715869716861386 -0.9426242102490022
000600 d0 e9 1e 7a d3 08 b0 bf 70 7b 44 69 37 f2 a5 3f
       -0.06263467532600164 0.042863589859044704
000610 63 2e 7c 77 8c fa dd 3f 90 af 52 a9 bc 0e 77 3f
       0.46841727894272916 0.005629288633979615
000620 73 f2 39 51 92 9d e9 bf 7a 3c d0 de 1e 40 e2 3f
       -0.8004848085834751 0.5703272201370873
000630 29 f8 3c 9b ee 1b b4 3f f4 6d 85 a1 c2 c1 df bf
       0.07855120935434513 -0.4962011887889439
000640 56 b1 ca b2 e5 2a b3 bf d5 2c 95 af 0a da 85 3f
       -0.07487331023248109 0.010669787867888672
000650 91 a2 b6 86 e1 74 95 3f ac e5 4b 7e 8c 44 d5 3f
       0.020953677985434075 0.33230888684883086
000660 f8 a5 5f fc 44 49 f0 bf 69 a5 fa 16 3a d8 ca bf
       -1.017888055643537 -0.20972372171426493
000670 e9 70 2e ce b7 47 d8 3f 7e 39 70 bd 65 b8 e6 bf
       0.37937731871512753 -0.710009450909453
000680 7c 95 6c c7 0a b4 c3 3f 23 1f 8b 1b a5 45 d8 bf
       0.1539319490195047 -0.3792507904986328
000690 7a 15 4c 10 be 20 9a bf 47 f6 1e 0c c3 65 ba 3f
       -0.02551552748174888 0.10311526342317122
0006a0 8e f2 50 43 4e 63 b9 3f 48 fe d8 00 a1 6b c4 3f
       0.09917153495275441 0.15953457394970116
0006b0 1b a5 a7 21 23 a5 c0 bf 92 c1 09 7d 06 1c c0 bf
       -0.13003958838752613 -0.12585526566864452
0006c0 92 2f f6 7f 26 7c dc bf c7 35 05 a9 9d 48 91 bf
       -0.44507753845459164 -0.01687857002371176
0006d0 94 ce 72 67 40 8d d4 bf 13 4a 52 b4 5f e4 e1 bf
       -0.3211213121642029 -0.55912766665489
0006e0 83 fa 00 91 68 d6 db 3f 21 b5 cb b0 0a 93 de bf
       0.43496145401505987 -0.47772471680839784
0006f0 a9 f5 70 4f fa f5 de 3f ec 04 0c b7 0a 64 d3 bf
       0.48376329191145345 -0.30298107028654786
000700 5a 2d a8 9b a4 3c dd 3f 67 66 64 15 c3 fa c7 3f
       0.45682635498879665 0.187340150304226
000710 c6 13 bc 68 2d a0 c5 3f e0 5f 24 8c d7 bd c3 bf
       0.16895072568891417 -0.1542310175216235
000720 39 c8 e0 4c 39 5b b9 bf 08 97 d6 a4 dc 33 e7 bf
       -0.09904821516900676 -0.7250807971474567
000730 35 bc 7c 2a 0e 6c c4 3f 70 ed d4 33 04 ac 9a 3f
       0.15954758715221976 0.026046815551337088
000740 12 f7 63 fc 14 df d7 bf c5 be 47 cf 79 dc 97 bf
       -0.3729908432722918 -0.023301986004240733
000750 09 35 52 ec 63 e8 d2 3f 3e bd 45 8f 47 6f da bf
       0.2954339797805266 -0.4130419634957042
000760 69 02 de d5 cf 6c c7 bf b7 2c 37 1c b1 3c c1 bf
       -0.18300817435012398 -0.13466466787062867
000770 39 61 c7 f0 63 32 5e bf 5c 87 47 c9 61 ef b4 bf
       -0.0018430686933382358 -0.0817776791004951
000780 da 53 53 c0 7b 27 d0 3f cd 3c 5e 61 10 cf c6 bf
       0.25240987569605766 -0.1781940913610697
000790 fb 39 27 8f d0 7d c5 3f 48 77 88 c2 b0 a7 d4 bf
       0.1679020594587682 -0.32273501393671156
0007a0 ee 0a 98 c4 78 97 c9 bf 45 57 d7 e8 29 d5 a1 3f
       -0.19993505095779746 0.03482943503665451
0007b0 b9 cc 61 60 fc bc c2 bf 82 fc 50 8d 80 ce c9 3f
       -0.146392390309847 0.20161444568836734
0007c0 73 9c c4 52 53 85 cf bf 54 d1 2d 6a 60 4b 96 bf
       -0.24625627080351684 -0.021771913986826277
0007d0 0f 9f 1f 3e e4 40 d4 3f 16 ac 16 47 a6 be e6 bf
       0.3164606672930725 -0.7107726467560294
0007e0 45 4e e0 39 aa 62 b3 bf 4e 39 fe 73 37 3c c2 3f
       -0.07572425759308839 0.14246266521190382
0007f0 a6 fc f2 c9 d4 e3 ab 3f 7d c7 07 0f 4d 4f b9 3f
       0.05447258916091728 0.09886628739312005
