weights/dinos_RNN__Wxh.npy (npy, 42528 bytes, 1 tensors)

array f8 [100, 53]
00000000: 2890 4db9 a861 c93f e297 3741 aacd bdbf
00000010: 7054 6490 5123 ca3f b229 4f3d 73a6 ba3f
00000020: 2607 647c 6b4d 94bf 1c7a cdac 75a8 b93f
00000030: 7391 937b a663 8b3f 092f 1b89 5e35 bd3f
00000040: 003d 07aa 2ef4 953f 0527 ff25 519f 9d3f
00000050: 7d0b 86f1 f71b 7cbf 92f1 2815 3848 a23f
00000060: 4646 d19b e536 b1bf 6575 3e26 0a80 8e3f
00000070: 4d2a f551 0509 c9bf 5c74 c1d2 df45 a2bf
00000080: 6bd4 b9c7 0b86 b73f 4bc9 4d58 4b00 873f
00000090: f3cb 2686 6e48 743f 12e0 949b 49cf ab3f
000000a0: 4d59 3adc a65c b5bf becd b36c 4d3b b33f
000000b0: d44a 0a08 1148 353f c5f4 f195 8635 43bf
000000c0: 5076 1dcd 0607 94bf ca3e 0dd6 1937 c2bf
000000d0: 5892 9089 4a9d a23f 17ea f663 ce76 713f
000000e0: 20ac 34aa 0159 c93f 1465 9e1a e237 bb3f
000000f0: 9982 5b3f 0c03 b7bf 047f 77ae 9c3a a73f
00000100: 5b0c 6f0d 3e9a 923f 76aa a346 29e2 af3f
00000110: 8e83 8955 c103 c8bf f42d 7cac 6dde c03f
00000120: 79a6 e4b9 19f7 90bf 7e0d 2ec4 03df bcbf
00000130: 3252 6c71 ce9d 993f 728f b44a 06e1 aebf
00000140: 09dc 79dd 3855 a13f 391d 0c13 137c c3bf
00000150: 1f44 64b0 c4aa b2bf 5f95 f456 77bb b5bf
00000160: 6660 6763 ad3f b8bf 305c 35a4 4f73 d1bf
00000170: d809 4278 751b c4bf f3e9 3045 3f70 713f
00000180: f14e 1009 740d b63f 865e f43c fe6e bd3f
00000190: 3e80 d4ad ed06 b1bf d1ac c6fb b6e8 c6bf
000001a0: a5e5 c201 6a03 94bf 5b3c db6f 4d7c ce3f
000001b0: 340e 604c ea38 b63f 81d1 3a86 93eb d6bf
000001c0: 4e55 428e c677 9dbf 1ffb 4476 78b9 dcbf
000001d0: db18 3b2e 54f8 e8bf e769 49eb 4b22 b33f
000001e0: bfe9 0a0a b5f7 f3bf b0a5 8856 1418 d23f
000001f0: 7178 0523 be76 d9bf 9ebe 0f54 6413 c03f
00000200: ecb1 237e 6239 a83f 02bc 558b a726 e43f
00000210: 98d8 423b 4235 ccbf 88a2 e8c4 4550 d63f
00000220: cf55 74a8 17ab b83f b954 21b1 8a3a f2bf
00000230: f44a 671d 69ff ad3f d542 3d97 ff17 ad3f
00000240: 57cc 490e 63d6 e23f d5c7 f07b 6377 cd3f
00000250: 12f0 e68c 75b6 e63f 967a a881 7748 e13f
00000260: eac4 3b28 5b79 cc3f d2fb c876 e811 d13f
00000270: bf85 c380 73a5 d13f ee69 3f97 a9b1 c33f
00000280: 3ca4 12a3 9bb9 b53f 3d2e e1e2 1a49 c8bf
00000290: 5740 6478 76e4 c1bf 268a 2f1b 50a0 d7bf
000002a0: f648 f9a7 8a6d 96bf 344d 00a3 0143 c23f
000002b0: be79 ab2f b0fe eabf 1ae5 f99b 0a35 ae3f
000002c0: 4b5d 0a9c 0857 efbf 91a9 db6c e586 afbf
000002d0: 0177 b526 0f7a b4bf 4989 6636 5cbf e03f
000002e0: fa24 cd36 2071 cabf c577 ede2 23ee b7bf
000002f0: 22cc 0ad3 6c83 e4bf 7597 fe44 3bde a53f
00000300: 4770 7ae3 1e07 c63f 7283 8cd4 b8f6 d5bf
00000310: f53b f2c7 bd07 c03f 7333 b588 2577 cabf
00000320: bb7a b9b5 1c6d df3f 90e0 4b71 1f41 ec3f
00000330: 5a5e 62cd fd02 b0bf b106 0193 d329 e2bf
00000340: f379 1732 bc9b a0bf ee01 8837 c1c8 dc3f
00000350: fe4b ef9e bde0 c2bf 6cca fdf5 3075 b5bf
00000360: 39b8 0a66 4fec bcbf f24a 3b9e 7534 853f
00000370: f9b0 9e75 a2cc 93bf a69d fa97 0562 aebf
00000380: 1661 b833 0770 8b3f 18e5 d7c6 dffd 7d3f
00000390: 9b3e b709 aecf babf f4cc 4205 abf1 973f
000003a0: c94e 8402 ce89 72bf 2930 ee52 4c15 84bf
000003b0: 0d66 5d69 3fb7 b7bf b69a 2235 d27c c3bf
000003c0: 70e9 4e00 fe1a bc3f 61b0 7ed7 a6eb 953f
000003d0: e064 e520 e316 b8bf 5bdd 201e 7dd0 23bf
000003e0: e360 8f4f c97c 713f 8043 9e81 29db c2bf
000003f0: 5dc0 dfad 86a1 a1bf 3921 702c 14a7 b93f
00000400: b696 cd25 1be6 92bf d161 23f4 7bed 723f
00000410: 3faf e03a f629 a43f b556 ef87 f208 943f
00000420: c8e9 6acc 166e 953f 3f15 3a17 d48d b13f
00000430: 187f c3e1 0c97 bbbf bf51 2644 da90 bcbf
00000440: 67e3 8619 102f 9ebf 37ae 869e 7b2d c8bf
00000450: 0b7c 95dd cd36 66bf 91dd a24b 14c0 c9bf
00000460: e1bb 8978 1f19 823f d671 aca7 1491 d03f
00000470: 630e 2cf1 36e5 c13f 75bc c506 9bb7 78bf
00000480: 2ab6 86c8 4f27 d33f cc5f 4cfa 66c6 c23f
00000490: b153 8f7c 9391 c4bf 7c25 4bae f58a afbf
000004a0: 6740 520d 88ca adbf a233 4a38 5c2e 7d3f
000004b0: f67c af3b ed0e d23f d32d b8e0 1286 d0bf
000004c0: 3bf5 0f23 226a ccbf 2a65 844f c157 e0bf
000004d0: 07c6 33be 0fca babf 9553 1baf 15a8 b8bf
000004e0: cf50 519d ff42 9b3f f601 2034 0e27 cb3f
000004f0: e4fe cdcd f6a1 a23f 14a9 ac15 d2db 0540
00000500: bd8a a157 a913 cb3f 07b5 739a 79b7 943f
00000510: 9491 ba33 da8a f43f 1400 20ec a953 d93f
00000520: 4e64 28ba cc06 9abf b752 5823 8df2 e7bf
00000530: 4874 7c8f 4bf5 e13f 52b9 42ee c415 e93f
00000540: 0c50 1e26 987a cebf c1f1 47ad 0819 e23f
00000550: eed9 f453 5c83 cd3f 3524 ab5f 7a0a f83f
00000560: 29c3 9354 9a93 f53f 36b7 f9e5 f3ab f73f
00000570: de1f 0be1 e3ac e0bf 3ae4 309c 2a04 c93f
00000580: 0f4a 75ba e495 ae3f af6c 98d6 e8e7 ed3f
00000590: a13a 203a 0beb f03f 96fd 931b 66c3 ef3f
000005a0: f451 656d 2eba e13f 1244 110a 67fd f63f
000005b0: 80fc 9e53 b8c6 e03f 93d2 1ece 1a8d da3f
000005c0: f067 7fcd 1f4e abbf 8136 6ecc cae1 e53f
000005d0: 7df7 9f84 8764 04c0 4fd0 5944 1669 bb3f
000005e0: 5aa8 2d1d 18e1 0040 0730 0a1c 3638 fa3f
000005f0: de3c dde4 201e e7bf 73c2 bec0 d446 b8bf
00000600: 1cbd c806 6682 d43f 6010 e0b1 53f7 e43f
00000610: 7de0 0ee1 0847 e73f abd3 62d5 3c5b a03f
00000620: 7ca2 fc10 1598 e3bf 04aa 3708 88e2 f33f
00000630: abb9 1b98 713b c53f e27b aece 5900 f53f
00000640: c68b 41cc a66d ce3f 1085 61e6 6259 f03f
00000650: 0946 42e2 4813 c3bf aaa3 fc15 4d84 e5bf
00000660: a6ed 5055 5e72 f6bf c3c9 8596 9605 0140
00000670: 26c4 b5ff 909b febf 9f8e 4493 f6b2 dc3f
00000680: d69e 05ec c3ae 9b3f cb00 4992 760d f8bf
00000690: 797b 152e a2f5 b33f a4e1 236f 0bfb ed3f
000006a0: b8e6 0a47 c967 00c0 1132 ddb9 6a8c e6bf
000006b0: 2e99 8f01 2e03 f33f eb1b 471a 6880 f23f
000006c0: 95e6 da6d 160a d3bf 58ab f76c d051 f13f
000006d0: 440f 81d3 b71d 673f d852 c158 2883 92bf
000006e0: 2576 cdfe baad f6bf be88 cb09 ee9d f53f
000006f0: c758 6ada 6614 e5bf 537d f4e0 e17b c03f
00000700: 73e0 39e2 38c4 f9bf 8117 0f9a 11de c5bf
00000710: bde7 1240 ae53 e3bf 5a0b e943 0bac 82bf
00000720: 3a8f 4def ab89 ee3f 36eb f050 e41d eabf
00000730: dc26 93c5 24b5 d5bf 432d a65b 065e e13f
00000740: 161b c91c 1505 d93f f212 572e 8924 d6bf
00000750: 3f8c 4d17 46f8 f1bf e45c 2854 6cd5 ebbf
00000760: ffa6 8f82 adb6 f8bf 464e a259 12d1 ebbf
00000770: 2642 92eb f8aa d73f 7356 0ae0 b283 ed3f
00000780: 7de3 ad03 545b dabf 445f 01bd 9b42 c6bf
00000790: bc3e dd23 0460 d1bf 701c 761c 8bce e23f
000007a0: 34f8 a21f 0b0e eabf 283e 294e d733 b13f
000007b0: 89ce db95 d773 f5bf 0670 4940 0c6f f73f
000007c0: 2744 9398 46a0 e4bf ab26 90d6 482a d7bf
000007d0: c31c d426 2d38 f1bf 907f 3a22 74cb b7bf
000007e0: 0560 6f82 5075 05c0 71e2 fc71 ca1e a5bf
000007f0: 457d 2aef ff5e f33f 1885 ec39 535b f8bf
0.19829281852719416 -0.11641944973197796 0.2042028384245529 0.10410232779319165 -0.019826583354194537 0.10022674053968966 0.01337366165757523 0.11409560057944303
0.021439293983175567 0.028928058570989474 -0.006862610367877828 0.03570723779964448 -0.06724391035211238 0.014892653743852244 -0.19558779241409 -0.035689348675739224
0.0918891298877768 0.011231030113525128 0.004951888784876057 0.05431585334957857 -0.08344500424059227 0.07512363342157521 0.00032473007016979344 -0.0005862147480823135
-0.019558054227095945 -0.14230654670472226 0.03635628632790561 0.004263693058812488 0.19802876292064386 0.10632146024581274 -0.08989025637448335 0.04536904935571154
0.018166513032849312 0.06227234828277954 -0.18761459995860402 0.13178797647593365 -0.016567613574045546 -0.11277793445156267 0.025016046212004102 -0.060310551280308725
0.033853318248411375 -0.15222395353360144 -0.07291821772038574 -0.0848917567532985 -0.0947216384587378 -0.2726630309675242 -0.15708797809573016 0.004257437848588885
0.08614278050691461 0.11497487056873909 -0.0665119695081566 -0.1789768914580692 -0.019544273717405542 0.23816841088998583 0.08680595745686831 -0.35812843426108293
-0.028777220185096035 -0.4488202242827572 -0.7803135779329539 0.07474207395845377 -1.2479753868379786 0.2827196927124431 -0.3978724805837209 0.12559179405751747
0.047312810800438004 0.6297185632118956 -0.2203753270493436 0.3486494467675034 0.0963606630578717 -1.139292423167076 0.05858925327233591 0.056823718272999514
0.5886702803676468 0.23020595123085622 0.7097728492731241 0.5400960476288954 0.22245349373364515 0.2667180213938397 0.27572333883844274 0.15385932812826247
0.08486340266485198 -0.1897309882937054 -0.13978463057037757 -0.36915972380498585 -0.021902243139558096 0.14266987284700294 -0.8435898715068146 0.05899842409139407
-0.97937422253282 -0.06157605127175992 -0.07998747534790242 0.5233594000349423 -0.2065773265442557 -0.09347748079514336 -0.6410431024472738 0.04271111695497513
0.17209230525338823 -0.3431837154076255 0.12523624670981773 -0.2067610662001261 0.49103467699562103 0.8829495632953854 -0.06254564537300081 -0.5676057692691839
-0.03243816482039454 0.44975309775330075 -0.14748354206548692 -0.08381944661759072 -0.11298080674416235 0.010353964701982108 -0.019335306576679454 -0.05934159736835491
0.013397270456196025 0.0073221913603387576 -0.10473144280626416 0.023382827945806775 -0.004525952077773795 -0.009806247979007381 -0.0926398880232215 -0.15224673838129882
0.10978686816716787 0.02140675249363289 -0.09409923127295228 -0.0001511719447664189 0.004269396181335791 -0.1473132975484326 -0.03443547127233224 0.10020567021286277
-0.0184559099028749 0.004621013826373547 0.039382643401351995 0.019565381571587454 0.02092776892343709 0.06857038085043586 -0.10777359496887262 -0.11158527530489602
-0.029476405675925046 -0.1888880275777056 -0.0027116795360338 -0.20117429440663817 0.008836980691937004 0.25885502218605205 0.13980757499676874 -0.006034474918450096
0.2992743929160918 0.14667975637052988 -0.16069263059639874 -0.06160705330473612 -0.058185817361960095 0.007124290689387277 0.28216105297720107 -0.25818321175821984
-0.2219889327242671 -0.5107122948713017 -0.10464571374520669 -0.09631476903025622 0.026622766472727485 0.21212937874953725 0.03639193784965558 2.732334298450164
0.21153752116068417 0.02023115163040237 1.2838994999557132 0.3957314306171622 -0.02541656385628626 -0.748358315499522 0.5611932566131452 0.7839073804405337
-0.23811628209352909 0.5655558952708405 0.23057130908428242 1.5025581109096156 1.3485358527943367 1.4794806464592063 -0.5211047549610119 0.1954396498347551
0.0597373464212475 0.9345592681232996 1.0573837538283117 0.9926023996958289 0.5539772163997996 1.4368658440837447 0.5242578156684345 0.4148623478788888
-0.05333041556851004 0.6838125221999719 -2.5490866051977137 0.10707225006791642 2.1099092750128365 1.6387234778694635 -0.7224277944568731 -0.09483079629604578
0.320458895325787 0.6551912759901022 0.727421226088168 0.0319460878830918 -0.6123147327208041 1.2428055115693732 0.16587657859004187 1.3125856469630368
0.2377212998718205 1.021822833943876 -0.14902602241322452 -0.6724000386649227 -1.4029219944630795 2.1277286300257585 -1.912980078570635 0.4484230459367868
0.02703386428893747 -1.5032869066490544 0.07796682000251377 0.9368951006609234 -2.0506768751336857 -0.7046407346875317 1.1882762967084761 1.156349280021227
-0.297490699081757 1.0824741608182276 0.002821787868045352 -0.01807845155447549 -1.4174146607614457 1.351057089101729 -0.658740450470554 0.12878058895237618
-1.6104058110195438 -0.17083950064096246 -0.6039649249498705 -0.009117210397681031 0.9543056177030629 -0.8161489086990972 -0.33918113035597997 0.5427276411077532
0.3909352093800619 -0.34597997212794873 -1.1231137190122948 -0.8698026317314569 -1.5445990657848936 -0.8692714453376957 0.36981032376300715 0.9223265052593902
-0.4118242298059654 -0.17390772560860956 -0.27148536207549134 0.5877128177534257 -0.8142142885114994 0.06719728143911452 -1.3407817701198914 1.4646112929540336
-0.6445649127946397 -0.36195584252764473 -1.0762149349919106 -0.09294820628792722 -2.682282465957544 -0.041250540174989754 1.2106932966633661 -1.5222961676266262
