weights/dinos_rnn_Wxh.npy (npy, 42528 bytes, 1 tensors)

array f8 [100, 53]
000000 0e 5e ef da 03 a6 4f 3f 4c 08 61 46 af 4c df 3f
       0.0009658354591647893 0.48905546067192485
000010 98 dd 0c ba db 5b e1 bf 7e 63 1a 14 cb c6 c1 3f
       -0.5424631723207538 0.1388791893157552
000020 e5 f3 7c 0e a7 ab f6 bf 5c 8e d2 3f 16 9b f1 bf
       -1.4169073644582053 -1.1003630154672441
000030 b0 d2 bb 4f f6 ec ef 3f 29 36 50 e5 a3 8f dd bf
       0.9976760442064769 -0.4618921031368211
000040 5c 6b 27 d7 20 f5 e8 bf 01 ba 62 4f 7c b8 fa 3f
       -0.7799228861070833 1.6700404263498287
000050 d7 c7 2e 49 f2 0e f0 bf b1 61 5c 94 ad 60 f4 3f
       -1.0036490305615098 1.2736030383440318
000060 5b 3d d4 bc 54 7a d4 bf e9 a6 88 f5 6f 4b ca 3f
       -0.319966492083912 0.20542716492609905
000070 11 2f 67 97 24 3d c8 3f b3 ab 40 09 d5 68 00 40
       0.18936593430259355 2.0511875841961795
000080 97 d8 a8 c4 f5 b3 e5 bf fb be bf b5 b8 7a f5 bf
       -0.6782177773482257 -1.3424613093920346
000090 bf 74 f0 c7 25 e0 ef bf c4 a8 9f a6 7a 03 e9 bf
       -0.9961117653907862 -0.7816746954315694
0000a0 78 17 3b 03 a4 5c c4 3f 5e f9 5d d2 f7 c2 90 bf
       0.15907716901545732 -0.016368744101322157
0000b0 bf d2 ad 4a 3d ad fb 3f bf d9 36 9d 3f b1 de bf
       1.7297947804592437 -0.4795683894439228
0000c0 5e fb 82 7e 65 31 f3 bf 92 8a 95 f8 ee 79 fd bf
       -1.1995596830235722 -1.8422689161604109
0000d0 df 6e d0 f7 df 17 a9 3f f5 11 f9 4c 9e 39 b2 3f
       0.04901027584148009 0.0711916864320939
0000e0 74 97 be cd 39 29 f1 bf 8b 68 20 5e 1a 3c e3 bf
       -1.0725648915190193 -0.6010867918405592
0000f0 ec 74 f6 6a 98 4c f0 3f 04 f9 30 db 6d cd d9 3f
       1.0187000444632828 0.4031633987941776
000100 49 19 7f cd 01 cc d8 3f d5 20 29 8b 0a 14 e9 bf
       0.38745160167708953 -0.7836964338285052
000110 97 e2 22 d9 a8 a5 e7 bf 32 1a 3c 16 76 e1 c1 3f
       -0.7389721146528981 0.1396930321281658
000120 af 94 ff 69 be aa 06 c0 7c 5a f8 5f f6 37 e5 bf
       -2.833370998489577 -0.6630813478867164
000130 00 58 5c c2 9e 0d e6 3f e6 b5 62 65 d8 80 f6 bf
       0.6891626163585443 -1.4064563713430913
000140 4a c6 3c 11 bd a3 de 3f 8e 31 fb 89 fb bb c0 3f
       0.47874380763378055 0.13073677289356705
000150 b7 81 a1 ca 88 92 af bf 68 a0 c8 c6 8b e1 f7 bf
       -0.06166484330674698 -1.4925649418819606
000160 6e ef b0 a4 45 57 ca 3f 8f 66 88 9f 76 00 f6 bf
       0.2057883314281485 -1.3751131278753836
000170 67 b0 15 78 2f 7e e1 bf d0 32 5a f0 ac 9a f1 3f
       -0.5466534943966622 1.1002625836146542
000180 8d af bd f8 35 47 e8 3f 5e ed 69 c9 ac 64 f0 bf
       0.7586927278730272 -1.0245788448072157
000190 ef e8 60 9e 9c 97 c0 bf 79 54 0e 2f fa 3d f2 3f
       -0.1296268246968064 1.1401311720012741
0001a0 c2 79 7e 25 cd 07 e8 3f 99 ba 42 d4 35 9a cd bf
       0.7509523136430334 -0.23126862396516826
0001b0 34 bf 03 32 c2 ed dd bf b4 c7 66 96 52 9f d5 3f
       -0.46763663181535553 0.3378492802395343
0001c0 a9 ae 2b 47 d2 75 f0 3f 0c b2 7d 89 75 9d 84 bf
       1.0287649898627171 -0.010065954454796099
0001d0 45 5f 8f ea 7b 1a db bf 5e e5 5c b7 bb 18 e5 3f
       -0.4234914579987968 0.6592691975885534
0001e0 1a 8f 89 a3 b9 c6 e0 bf 8c f7 5e b8 46 95 c5 bf
       -0.5242584413613003 -0.16861804964531435
0001f0 13 d3 3b a2 4e 5c e1 3f 90 3a 01 dc 69 f0 c2 3f
       0.5425179642321346 0.14796183817312114
000200 01 5c be bd 24 cd bb 3f 32 89 41 8b cd 5c d5 3f
       0.10859899170314692 0.333789239875972
000210 79 f6 e5 5a 63 10 c1 3f 89 93 e3 d5 38 29 f3 3f
       0.13331262529748125 1.1975639681852235
000220 9f ba 8c b9 f8 e5 b9 bf 10 95 74 bd b4 45 ac bf
       -0.10116533784887814 -0.05521931469619734
000230 8b 0f 04 c3 18 93 8b 3f e0 14 54 c6 09 f7 f5 3f
       0.013464158488666353 1.3728120562748742
000240 12 9a 83 49 f2 dd d3 bf 91 f3 ab c4 49 4f d3 bf
       -0.3104215352927052 -0.3017143650648047
000250 aa 66 32 72 a0 a8 bd bf c0 1a 3b 20 a4 e0 f1 3f
       -0.11585428989419691 1.1173440226572637
000260 39 89 94 00 bf 17 f2 3f da de 76 d4 e7 4f e0 bf
       1.1307973883309173 -0.5097540998167134
000270 46 6e d8 71 25 31 bb 3f e4 47 f3 9f 65 2f f0 3f
       0.10621866254262455 1.0115715263423164
000280 6d d8 7c 5e 98 eb ad 3f 2f 36 fa 23 6a a2 bb bf
       0.05843807366766005 -0.1079470002971099
000290 25 ba a3 af 04 3c d1 bf 9a 02 5c 22 1c 31 be 3f
       -0.2692882266264028 0.11793685759404085
0002a0 14 82 aa 85 cd 67 b9 3f b0 38 85 f1 3a 26 c7 bf
       0.09924015534716829 -0.18085419457424257
0002b0 87 83 5d f9 6f 43 a4 3f 61 3e 76 14 13 1f d4 3f
       0.03957700652131906 0.3143966388533724
0002c0 fc 3b 7e 9a d4 a2 b6 3f 33 30 4a c8 56 af 9c 3f
       0.08842209598354595 0.02801261517974769
0002d0 a5 bf 09 6f 08 e1 d2 3f c5 05 de 24 6e df c7 bf
       0.29498492091715384 -0.18650605011138857
0002e0 b1 4b d3 49 0b 91 d3 3f d2 c4 3f fd 56 00 c7 3f
       0.30572778901585723 0.17969786992720188
0002f0 a2 cf 54 48 6c 31 c6 3f 3a 0a 41 02 0f da a6 3f
       0.1733832696132796 0.0446324053050557
000300 31 c4 d7 44 47 74 f4 3f 4a db 6e e5 66 a8 c2 bf
       1.278388279836019 -0.14576421931061595
000310 89 51 a9 4b 88 95 a8 3f 1c 96 29 ca 64 7e e0 3f
       0.04801584170914725 0.5154289196477211
000320 7b 2d 9e ac 0d b3 cf 3f 13 bf b7 1f 1d 11 c2 3f
       0.24765177658660406 0.1411472706672546
000330 8d c4 94 4b b5 2e cc 3f b2 75 a4 71 db bd b5 bf
       0.22017542067036225 -0.08492824100945631
000340 52 9f 5c e0 32 fe c0 3f 70 f2 87 eb f1 27 a4 3f
       0.13275752978483496 0.03936725616583636
000350 4e 23 9c a1 71 f3 c5 bf 5b 26 f4 ef de 46 a6 bf
       -0.1714918173895747 -0.04350945166704597
000360 88 c4 b4 92 01 ac dd 3f 95 dd c7 f3 92 ba ef 3f
       0.46362342192430406 0.9915251504270822
000370 1d d0 72 2a 1f 8a d6 bf cd f5 98 ac c3 87 cd 3f
       -0.35218028207168733 0.23070569923031173
000380 95 2e f8 1f b8 e5 e5 3f 9c f7 df 32 88 e8 b3 bf
       0.6842918991473704 -0.07776690713941864
000390 08 5d 34 70 be 50 d6 3f cc cf 5c 30 81 ed c9 bf
       0.3486782165286546 -0.20256056653454235
0003a0 73 76 4b 3e 38 13 a3 bf 2e f5 c8 3c 71 1a d3 3f
       -0.037256009678213874 0.29848891197237293
0003b0 13 f0 54 58 e4 86 cd 3f b7 50 80 d3 d5 0e d9 3f
       0.2306790763194618 0.3915304723207202
0003c0 5c 88 b6 07 ee 91 e1 3f 10 a9 d3 c6 42 5e de bf
       0.5490636969227682 -0.47450322548560653
0003d0 73 1f 2c 8a 28 ca b2 3f cd fb 12 12 86 0a b6 bf
       0.07339719174717434 -0.08609807912124197
0003e0 56 83 2b 89 a7 83 c2 3f 5d 3d d4 b1 41 2a b2 3f
       0.14464277456047608 0.07095728484659021
0003f0 94 79 0b 37 7e 93 d5 bf bf f8 60 6a 45 9a f0 bf
       -0.3371272599742039 -1.037663856069727
000400 fa ed 26 5c 58 f1 f1 3f 0f 79 7d 2b fb ba e9 3f
       1.1214221572580514 0.8040748452583858
000410 69 09 7e 9b 66 dc d3 bf d3 7b 1f 65 fa 6f c0 3f
       -0.3103271978835865 0.1284173005833212
000420 dc 0f 37 8f 64 29 87 3f 30 37 ae 2e f8 04 a8 3f
       0.01130941927011258 0.046912913988406024
000430 ef d7 ad 44 68 18 be bf c1 7b 62 27 9f 75 c3 3f
       -0.11755992581115014 0.15202702925759407
000440 dc a9 10 e7 f9 02 b8 bf 1a 35 5d 50 40 c2 cd bf
       -0.09379541293370813 -0.23249057697322756
000450 76 b8 d5 24 e6 b8 c9 bf 1e b7 98 b6 84 9c d6 3f
       -0.20095516966415844 0.353303125683725
000460 3f 7f a6 9e 25 24 c4 3f 15 8d a6 a2 f9 c5 d5 bf
       0.15735311743355315 -0.34020844348761275
000470 03 e2 26 5c 93 4e c0 3f 9c de ca b9 18 76 dd 3f
       0.1273979377708799 0.46033304351610993
000480 66 3d 64 a6 1b eb c8 bf 29 9c 8b c9 d2 0d e5 3f
       -0.19467492699230177 0.6579374252731941
000490 42 f7 a6 20 54 11 b3 bf 72 b3 b9 25 8d 9e 79 3f
       -0.07448316380665879 0.006254721981901011
0004a0 c1 a6 e5 1f 19 4b c2 bf 49 8d 6f fc 80 4c d1 3f
       -0.1429168134448471 0.27029442455223723
0004b0 9e fc be f6 8f c5 9d bf 98 51 af 95 e5 2b c2 bf
       -0.029073953089888797 -0.14196462448911684
0004c0 8d ae 88 6e 38 84 97 3f d2 c4 91 64 7a e9 a1 3f
       0.022965318438009908 0.03498442151693272
0004d0 f0 84 9e 6c 1b 2f e1 3f b7 95 fb 27 fc 50 b3 3f
       0.5370003816098272 0.07545448280469357
0004e0 14 60 b2 87 57 60 b4 3f 33 f1 d7 9d 0b d7 de bf
       0.07959506094846375 -0.4818753282013574
0004f0 78 f2 c9 5f 20 cd c6 3f 45 84 a4 b0 d3 af f2 bf
       0.17813496281805263 -1.167926492700887
000500 10 9c 1b 0d 82 03 c4 bf b8 bd a8 77 5d f2 f4 3f
       -0.15635705604583494 1.3091711687264773
000510 15 64 32 65 73 5d f2 3f ee 75 04 6c 82 4d e6 3f
       1.1478151276589916 0.6969616040911981
000520 f8 12 de ac 79 71 f7 bf d7 19 d3 2b de a7 d9 3f
       -1.46520392919882 0.400870840833162
000530 10 a8 70 4c ac 32 d9 3f 18 38 6d da b4 45 e2 bf
       0.3937178369984631 -0.5710090891022928
000540 41 43 de f4 82 0c f1 bf 84 9f 75 1a 5b 36 c6 3f
       -1.0655545773663138 0.17353380958524778
000550 0c e5 f2 13 36 4c ea 3f f4 cc b3 e2 ab 72 ec 3f
       0.8218031301140925 0.888997977045078
000560 31 f3 e5 69 47 40 f2 3f 33 94 df 03 d5 ea eb 3f
       1.1406931053781586 0.8724160266543833
000570 47 cd 5c a3 82 03 eb bf 3c b1 20 d8 3a bd e3 3f
       -0.8441785040544482 0.616849348186896
000580 52 79 6c 99 a9 ae d4 3f 83 5b 23 f6 ae b9 f1 3f
       0.32316055281434786 1.107832871891987
000590 a5 2e 4c 0c 99 74 dd bf 88 90 6e 8d df be f2 3f
       -0.4602415676206227 1.171599914997417
0005a0 f5 97 38 78 85 a7 fc bf 84 01 c4 d2 33 dd f3 3f
       -1.7908987709174629 1.241504500678361
0005b0 b9 05 9e d4 52 c5 e1 3f 67 da e0 ac a9 fc ca 3f
       0.5553373482400082 0.21083565656018097
0005c0 e7 81 30 19 b2 4b b5 3f 0b 85 51 5e 4b cd e3 3f
       0.08318627467134086 0.6188103525311431
0005d0 64 54 66 e5 45 8d f4 bf da 7d 67 ca e5 af f2 3f
       -1.2844904862334028 1.1679437548080984
0005e0 5e db d6 76 21 eb f2 3f 6a eb a8 00 29 eb 9a 3f
       1.182404960838276 0.02628768984343869
0005f0 53 89 65 97 85 6e d0 bf 48 23 e3 a7 b2 3b db 3f
       -0.25674571785761663 0.4255186690830226
000600 0f 52 17 20 a8 9f e6 bf 1d a9 87 dd bf 1e de 3f
       -0.7069893481044022 0.47062679895192777
000610 a4 a2 13 d3 56 45 e6 bf 80 b5 e5 8c 39 98 d0 bf
       -0.6959642527190977 -0.25929106482984565
000620 6b ac 95 f8 00 72 ca bf 1e c3 42 c0 8a d9 ec bf
       -0.20660411966250378 -0.9015554194539595
000630 8d f1 8b 2e 89 ef bc bf 50 78 06 3c 23 d5 e9 bf
       -0.11303002725975926 -0.8072677776688213
000640 24 1f 3e fb f0 ba f4 bf 8b 6c 59 be 1b 46 ea bf
       -1.2956399740377913 -0.821058151031495
000650 e4 ef 16 20 24 c9 e0 3f e0 13 ce b6 2d df bf bf
       0.5245533587217293 -0.12449918473255606
000660 d6 5b 5c 49 f3 d1 df 3f 64 be 9b 12 ee c0 f1 bf
       0.49718935169351874 -1.1096020438088994
000670 61 37 6f 31 76 0f 03 40 b5 5b 11 4d 01 33 bb 3f
       2.382549654203942 0.10624702579057906
000680 94 8b f6 f3 fd 2f c5 3f 19 25 70 71 07 5f e0 3f
       0.16552709972628732 0.5116002288424709
000690 34 09 bf 64 41 10 96 bf 02 fb 8e 03 95 c4 dc bf
       -0.021546384595930237 -0.4494984183074139
0006a0 fb a6 87 5c 53 30 d0 3f f7 f7 59 0a e4 9b d7 3f
       0.25294956241724237 0.3688898182953148
0006b0 5d d6 7c 4e 81 c4 d8 3f 88 90 ef bd fa f4 cb bf
       0.3869937197190206 -0.21841367983063642
0006c0 03 92 93 36 6c 07 c8 bf ea 7f 53 5c 65 15 f4 3f
       -0.18772652306428492 1.2552236181727445
0006d0 ae 6e 25 02 9b 3b f4 bf be 89 76 5c c0 c9 c5 bf
       -1.2645521243893358 -0.17021946444317665
0006e0 e8 28 d3 b5 69 9b eb bf 1a c6 25 17 4e 2a d4 bf
       -0.862721305014273 -0.31508209476950955
0006f0 97 2a 8f e1 d8 27 e7 3f da cf b3 ce d9 ee d4 3f
       0.7236141591505029 0.32707829652576736
000700 fd f5 3f 08 81 97 e7 3f 83 84 82 05 3d 88 f2 bf
       0.7372441445474461 -1.1582613196590337
000710 00 0b 62 be 71 ca e1 3f 66 d9 e7 64 92 fa e1 3f
       0.5559624403398118 0.5618373843015376
000720 d4 79 2f 55 a8 7e cc 3f cd 5d 5b 0f 6e 24 d3 bf
       0.2226152816719621 -0.29909850597092885
000730 eb 68 fa f2 f2 9c c7 3f 04 fe 45 b1 68 a1 e2 3f
       0.18447720398109566 0.5822032415744052
000740 58 75 70 61 8e 70 9d bf 77 28 02 cd 9d 83 ed 3f
       -0.02874968023035271 0.9223164562292955
000750 7b 1a fc 6d 08 75 e8 3f 28 5b 02 e3 f3 48 e5 bf
       0.7642862461223808 -0.665155356767035
000760 43 e0 83 8e a8 e8 f8 3f 93 0f 10 30 33 e1 e9 bf
       1.5568013731954273 -0.8087402285313935
000770 6a bd ae fb a8 ac f1 bf 7b d8 76 2c 19 3d db bf
       -1.1046533423758214 -0.4256041464062787
000780 19 a0 42 92 8e c1 bb 3f 0a 69 e7 96 25 ee e3 3f
       0.10842219420249001 0.6228206584303575
000790 0c 47 c7 e9 b6 df a9 bf 01 cd 14 f0 41 7a d2 3f
       -0.050534931218534224 0.28871200986323237
0007a0 a8 29 33 05 dd 31 d4 3f bc 28 74 b2 fd 78 c1 bf
       0.3155434180049732 -0.1365048524242577
0007b0 89 43 9e ee c0 0d d9 3f 43 28 39 50 f4 a1 b7 bf
       0.39146445562897064 -0.09231497725082342
0007c0 da e4 31 ee d1 6a 82 bf 1c 4a 0d 5f 01 ca d2 bf
       -0.008992805558806816 -0.29357942850507057
0007d0 98 5c d7 b6 7a 51 d6 3f 60 9a cf c6 b2 22 b0 bf
       0.34872310500709025 -0.06302945474417632
0007e0 c7 f1 fc c4 d2 4d ef bf e4 33 0c 9b ef 93 34 3f
       -0.978249916784585 0.00031399345157084716
0007f0 82 af 06 77 b5 63 f5 3f 5c ca 7f ef 81 63 ec 3f
       1.336842980333103 0.8871469190328969
