weights/eminem_rnn_by.npy (npy, 520 bytes, 1 tensors)

array f8 [49, 1]
00000000: 7933 8a65 70d8 683f 5ced 1e90 89bd 863f
00000010: 983a 8189 05f7 683f 8551 5d03 4f30 7cbf
00000020: 302d 5ee6 0414 a6bf 5b75 0399 322b afbf
00000030: a671 d1e7 2dae a9bf 488e c727 2b5f a2bf
00000040: 25b1 8c38 0f93 b0bf 349e 208e 3b0e afbf
00000050: 5d04 43d5 0ad6 a1bf 9d98 3499 9c0f abbf
00000060: d4e3 d645 5c31 98bf 8257 ddf4 015e 99bf
00000070: 407e 9cdd afc3 aabf b057 d71d 1f0e a8bf
00000080: f8f5 be69 203a a8bf 1a2d 83cf 212f a7bf
00000090: b048 7d83 6c79 acbf d442 72e0 af69 b3bf
000000a0: e28e 0e67 e50a a4bf cc14 b3eb 7aeb 9cbf
000000b0: 0f88 c91e a39f acbf 79a1 2380 3999 95bf
000000c0: 91c8 1bc5 fa7b 873f 4055 111f fdb5 7fbf
000000d0: 1943 b38d 880d 613f c8aa 3284 7bc3 833f
000000e0: 7683 cf31 610d 903f 1dae 592f 630c 74bf
000000f0: 450b 5ac4 e8b9 8bbf ef56 7419 3e3f 613f
00000100: 5086 05c9 e43b 743f 6a1c 0f89 c361 b0bf
00000110: c93f 6787 3264 79bf 262a 1d47 a380 823f
00000120: f175 99c5 bf90 7f3f d676 5343 b3a9 953f
00000130: 5f8f ff62 aae6 a63f 9685 3748 301a 743f
00000140: c2fd 7b75 2efd 513f 0f22 12d9 c896 923f
00000150: d0f0 7971 acd8 913f 62da ae88 affe 813f
00000160: 3bb1 4ff6 5300 97bf 9726 abfe be32 7bbf
00000170: b8d3 ed2c 9570 afbf 6157 cb4c 78a9 823f
00000180: e1b8 1c65 47bd b3bf
0.0030328936812282184 0.01110370131561094 0.003047476591781017 -0.006882008214081363 -0.04312148391826509 -0.06087644689408008 -0.050157007740128365 -0.03588232861127644
-0.06474394922833378 -0.060655461406267014 -0.03483613827985075 -0.05285348291572343 -0.02362579513803438 -0.02477267319712651 -0.05227422313896257 -0.046982738869402296
-0.04731847086757662 -0.04528146417723118 -0.05561389069647882 -0.07583140592238219 -0.039145630674537704 -0.0282420355186062 -0.055905435093123505 -0.021092318006510766
0.011466941013598382 -0.007741917376809682 0.002081648546301895 0.009650197002277663 0.015676039376447425 -0.004894626084574164 -0.013538187496356388 0.0021053517226715594
0.004939931576105019 -0.06399175735633525 -0.006199071291533139 0.009034419639324897 0.0077064028824600376 0.021155167564635168 0.0447285886619102 0.004907787897054835
0.0010979608250066696 0.018153322457267914 0.017428106714292124 0.00878655563233827 -0.022462188633583607 -0.0066401921018922816 -0.06140581296396114 0.00911230072362529
-0.07710691660460924
