weights/eminem_bh.npy (npy, 8128 bytes, 1 tensors)

array f8 [1000]
00000000: b2db 16f0 e40a aa3f d3a7 e532 8695 ad3f
00000010: d790 e716 0de3 ee3f e3b7 01fd ce35 d93f
00000020: 6b3c 8395 a60c c23f 4ab7 4b12 0451 c2bf
00000030: 56a0 d994 b412 c03f 8391 a5d9 1c9b b13f
00000040: e73a d01c 22e0 c63f dbc6 cbc7 afe9 c73f
00000050: 06eb 38b8 b845 c63f aa7a 78f3 2c6d e63f
00000060: 30f5 f6b3 1b9d de3f 50f8 79c2 5a44 d33f
00000070: d3d1 ae1b 2b0d d13f 10e6 668e 4efc c23f
00000080: b69d dc30 ecb1 d43f 2ee3 df24 6a48 cc3f
00000090: af13 8403 45be e0bf 455a e570 e7d7 dc3f
000000a0: 53a2 207a 7332 d93f dbe6 05f7 bc97 c13f
000000b0: 51cd 1119 2cbd e83f a4b8 1937 f624 b53f
000000c0: 907c 6b61 71a9 83bf df6f abd1 d6ce c5bf
000000d0: be54 31ed 1d66 d63f 550e c9ce 555b d83f
000000e0: 16c7 6495 e5d8 af3f 5b8e 714e 9c54 a73f
000000f0: 4c75 b43c dcac cb3f 89f4 fa6a 90e9 d3bf
00000100: e7fc 52d4 845f ca3f b40b d7b4 d4de d03f
00000110: f131 8cc7 c7b1 a03f 3577 ec90 4088 cd3f
00000120: a308 0490 ab9f d33f 5572 12fb e603 ea3f
00000130: 3414 3668 bd56 b83f e41a 5613 cc33 8e3f
00000140: 7504 c12c 8cfb bb3f a4fe b85c eff5 c33f
00000150: 05f4 8c07 9a1c d1bf f44a e434 aa02 cd3f
00000160: bc88 b890 0754 dc3f 80e7 c7d3 80d4 e93f
00000170: d972 ecc0 d9c0 df3f 59a6 82f8 216f cbbf
00000180: d2ff b0a2 2197 b53f 211c ec23 e4af bebf
00000190: e6d8 b1a1 97cb c53f fdc2 488f 35f4 ce3f
000001a0: 8aa8 0423 8c45 bd3f e2ae e7ca c7a7 dbbf
000001b0: c89d 5e6c bb32 ad3f 77ba 76e7 0f88 d0bf
000001c0: b620 7cac 5a35 ad3f 8981 f63b decd c83f
000001d0: a992 ebf9 dff8 b93f 2ad8 3714 39cd d93f
000001e0: 4664 209a 3796 b13f 219b e8a2 5047 e63f
000001f0: 7ae1 68d2 f3d2 c63f 233f acfa 58ae d23f
00000200: f8e6 dfa2 f501 e63f ba44 cde0 c569 b13f
00000210: c0cd 780e 6ab1 ab3f 16e0 5666 c363 d6bf
00000220: 04a6 29b2 3761 c0bf 9707 c9e7 788d b13f
00000230: 4c3a 507c bc22 d63f ca03 a2ea 338e e23f
00000240: 360e f6f4 7f60 d03f d995 529b 5ec1 ab3f
00000250: b01d c85c c237 d83f 4088 316c 24e9 cf3f
00000260: 7697 72db 3d93 75bf dd77 6fb4 f95b ec3f
00000270: 8408 3e4c a092 e43f c532 e568 7001 e53f
00000280: 1c87 7e50 6ea0 d83f 5e8d 329a 4ffb de3f
00000290: 2066 a32b d657 ccbf 4de5 1031 ddb1 e33f
000002a0: eb11 1832 f02d e93f b79f 46c9 5208 b6bf
000002b0: 410b 7280 6150 943f 1d78 71e3 a9a3 99bf
000002c0: c8ba b4b5 6216 d0bf 9969 c98d 6716 cf3f
000002d0: 57ca 5881 455b c33f f4b9 b933 467f b03f
000002e0: 56ee f442 6543 c5bf 560a 5fd0 dfd1 b03f
000002f0: 0137 321e 06fe bcbf c6d2 68d4 5d3f b53f
00000300: 40dc d962 5941 aa3f 26c1 18e0 da07 b5bf
00000310: 6921 3d62 bd0a ac3f 5bfc 2a58 20a9 e23f
00000320: d037 2051 d6c1 a8bf 5e1d 11a6 daef ee3f
00000330: 4e2e d02d 76db b53f b051 60e0 61a6 d3bf
00000340: 10f9 c063 4568 8a3f 9c89 7312 df22 b9bf
00000350: e8f1 02d1 b4df b03f c953 f6e5 7ded a33f
00000360: 12da a5bf b5a0 d13f 2e65 de82 93bc b8bf
00000370: c723 e58c a706 a43f b8c2 5343 f872 b43f
00000380: ea46 1e93 c997 e13f 1338 ee03 dd0f d2bf
00000390: 0847 1004 78fc cd3f c08c 7bdf 0604 d03f
000003a0: f51b aebe 22f0 a6bf 0faa 38e5 faeb a4bf
000003b0: 8410 8d35 5af1 d4bf 8faa 72da a5f8 a3bf
000003c0: f259 12f1 73b4 a43f 47c0 6e05 2a95 c43f
000003d0: 4012 98e4 2eed a13f 6d85 e46f f8da aa3f
000003e0: 3a03 b7b6 0759 b33f 8d0d 1120 8b41 d83f
000003f0: bbe4 f8f7 e55b e03f 0897 1b46 76a8 b43f
00000400: bf1a 8841 3abc ce3f d88b 4aaa 8eaa e13f
00000410: eaf0 0593 cc96 b43f 6076 e13f 34de d03f
00000420: ece1 5028 d04e ec3f 9118 0a43 75f9 cd3f
00000430: f90a 5b3b f6ae d03f 3988 6c9b 285a d2bf
00000440: d8aa 8893 d917 a53f 05c1 eef9 2f4f babf
00000450: 85ca 8a04 7dc4 bbbf d8d1 bce2 320a c5bf
00000460: 5cc4 4947 79a1 82bf 70e9 d4ab 49ef b8bf
00000470: 7734 f449 34d9 bc3f 1441 421a 2f92 d73f
00000480: 6103 ec20 ea54 cc3f d76a 8e52 85b4 dd3f
00000490: ec77 8196 6822 c23f 9764 4b4d b844 d73f
000004a0: 45fa 7c8f eaa1 ba3f 1ee6 36dc 7e4c cb3f
000004b0: 03c7 f3f1 4443 c1bf d9a8 a946 5fcd de3f
000004c0: 1c07 8901 8ffd e03f a059 f9dd d52d bd3f
000004d0: 0b65 8a9d d65a 8d3f e736 821a 8b01 9f3f
000004e0: 3d55 7f07 6034 a4bf 24d0 0dda 619b d53f
000004f0: 5592 50fb 0dcb 8a3f 47f4 f461 0582 b4bf
00000500: 3388 007c b9b6 c13f 283d 3e5e f3ae acbf
00000510: 8d68 5029 b899 a1bf c11f 3e0e e34a ae3f
00000520: 45d5 bb3e 5c4e 9b3f b43c 226e 1ced 60bf
00000530: 2ce3 231a 6356 993f 29cf e23e 1c33 6a3f
00000540: bfb4 f6f5 9012 d63f a0a7 bc1a c2f9 d53f
00000550: 066e aa9f 33bc c4bf bebd 5253 e0b5 f03f
00000560: a685 f4c8 bb19 d23f 041d e2ed f007 da3f
00000570: 8a7e 8747 2afc cb3f 2e91 e410 f357 a8bf
00000580: bbf0 74e1 e3b0 d33f 1c2e 96b0 a392 cc3f
00000590: 4920 ebfe 22ab cabf 2bfd 4f3b f8d9 d03f
000005a0: 2a61 f04f 9403 f23f 6de8 4043 85e2 b93f
000005b0: cc3f e9c6 2c89 b4bf 44f6 ede3 81d7 c63f
000005c0: 3745 298c e5bf d43f adcc 59bd 04cc b9bf
000005d0: 1684 d066 e502 c4bf 7461 5853 1182 c63f
000005e0: f47a d438 c072 d23f d0a9 e362 6e9d b93f
000005f0: 04a4 95b6 5d46 e73f 2218 db86 be4e ce3f
00000600: d079 c0f3 0748 c6bf 4485 4b32 83de c63f
00000610: 8e00 cad6 5471 d43f b92b b696 52f9 cd3f
00000620: 355b fdca b4a5 d53f fd68 6fdb 1a01 94bf
00000630: 9980 33bb 099c a23f ed04 3093 91bb bf3f
00000640: 2d67 095c 28db 86bf d468 e041 fbd0 d73f
00000650: b308 2813 ad64 d03f ccc2 a069 1b8c 6bbf
00000660: ad50 9aa2 05cc c33f 64f3 0af0 a3bf b33f
00000670: 1ca5 205c 83ea ce3f 323f 455b 8aee db3f
00000680: 5efd 9a34 2604 d63f a852 1b82 784d b33f
00000690: 919b 840e ff83 b83f d743 0fbf 6e64 bd3f
000006a0: 33f8 2cc1 c2f2 d23f 4e9f ea07 1164 a63f
000006b0: e6c8 1ed4 1d03 c63f d634 7b8a b8c8 b73f
000006c0: 3551 397d 623e d93f 324e 2115 a748 b73f
000006d0: 42c3 b1fa 5341 bebf 2a3a 0271 1595 d53f
000006e0: 7702 0aea 1d2f a7bf c617 38eb a014 bd3f
000006f0: e79f 0821 69ba d13f b1be 7fb4 f4d7 c7bf
00000700: 5b6a be42 a731 cc3f f3ba 96bf 01a9 d53f
00000710: c467 acbc 635e ca3f 3788 7009 b8ce e03f
00000720: 7cc7 7056 b55f c23f 60f5 766f 5f47 e13f
00000730: 2774 d567 5304 d03f aed8 184e 11c9 e83f
00000740: 4a95 a848 affa c8bf 42d3 f007 2307 e63f
00000750: 28bc d096 22f2 b1bf 5b49 a431 0bbf c2bf
00000760: acad 186a 2288 73bf c3b5 c146 ca21 d03f
00000770: 10c9 13f1 68bc c53f 0065 e229 0487 d53f
00000780: e71c 819b 38d1 eb3f 1961 96ba 47b6 c53f
00000790: 0fff 96f6 375c a1bf 7b3a 8f1c e9fe b23f
000007a0: 43c3 f5e7 b4de c1bf 9ddf a867 5c90 9c3f
000007b0: bdf6 0f25 7954 ca3f d0f4 a4bd 46f4 a03f
000007c0: ec33 b3cb 8f49 c9bf 9d2b e9a6 28ca ea3f
000007d0: ae64 13dd 8a7c b0bf 6892 d82c 5034 a13f
000007e0: ba83 1eaf e54a e3bf 6ec1 d7d9 3971 b43f
000007f0: c6cc 679d 6ea0 bdbf 1331 7278 660e ba3f
0.05086436682488883 0.05778140422155755 0.9652162024836127 0.39390921313940747 0.14101106930181415 -0.14309740918491293 0.12557084339209962 0.06877308190957447
0.1787150040331291 0.18681905036606036 0.17400273318511256 0.7008270983968334 0.4783391244380537 0.3010470294174228 0.266428734811851 0.14832479432315937
0.3233595349469981 0.22095991898074757 -0.5232262676878373 0.45067773842803077 0.39370428968917287 0.13744318067238379 0.7730923165931164 0.08259524197794349
-0.009600530419844128 -0.170374729516765 0.34998272097920935 0.3805746573818614 0.06220166634228812 0.04556740243495191 0.21621277774912995 -0.3111306233148033
0.20604000441924272 0.2636005178466647 0.03260635672458879 0.23072058750488514 0.30662049354590176 0.8129763511420359 0.09507354540080898 0.014747232761476999
0.10930706112505269 0.15594284083816945 -0.2673707078682244 0.22664382536512273 0.44262875683683567 0.8071903358788717 0.49614566650579445 -0.21432900080008002
0.08433733198125928 -0.1198713863087595 0.1702756442570667 0.241827673876763 0.11434245924889033 -0.4321155053610096 0.05702768037673028 -0.2583045730961326
0.057047685199053275 0.19378259590031302 0.10145377971236748 0.403150815719871 0.06869838250021684 0.6962054426011016 0.17831275724325818 0.2918913314797342
0.687739198793877 0.06802021730733801 0.05408793856295402 -0.34983906740262805 -0.1279668445525176 0.06856494578189963 0.3458701337812371 0.5798587401078461
0.25588988229739884 0.05420966764476604 0.3784032732077902 0.24930243761906645 -0.005267373685603141 0.8862274669770575 0.6428987015826952 0.6564256714569515
0.3847919260098125 0.4840888028940834 -0.22143056040549514 0.6154619177170076 0.7868576982878585 -0.086064504756563 0.019837878670396995 -0.02503838968947757
-0.25136630768512847 0.24287123130018243 0.15122288528216885 0.06444205057935176 -0.16611924905179148 0.06570242726506001 -0.11325109708033311 0.08299814639833433
0.05127982455899671 -0.08215110751257679 0.05476943802074425 0.5831453058270982 -0.04835386028581434 0.966779064511609 0.08537996881948937 -0.3070301715063364
0.012894193751091382 -0.09818834495994228 0.06591348746128001 0.03892129356533009 0.2754339572487946 -0.09662744469678294 0.039113269757372 0.07987929958086226
0.54977873548543 -0.282218221510335 0.23426723669449978 0.2502457792708803 -0.04480084016454803 -0.04086288498031731 -0.3272309802016553 -0.0390064076576283
0.04043924634713737 0.16080212846054762 0.035012689022583476 0.05245186200978478 0.07557724200070207 0.3790004552031057 0.5112180560310188 0.08069552623382148
0.24011924934185022 0.5520699811935357 0.08042601193841717 0.2635622619471629 0.8846207415982099 0.23417535565767314 0.2606788234372029 -0.2867528455555007
0.04119758535337831 -0.1027708039462177 -0.10846692429439926 -0.1643737418286395 -0.009097049224893343 -0.09740124173268838 0.1126892738868309 0.36829736294113613
0.22134138686672158 0.4641431146825829 0.1416750655070581 0.3635693316296708 0.10403314593438846 0.21327195885332711 -0.13486539663386318 0.48128492260606276
0.5309519796357764 0.1139806429795045 0.014333416636235904 0.030279325001678094 -0.0394620904113858 0.3376087788994957 0.013082608444230074 -0.08010896340870587
0.13838881068028427 -0.05602226758412093 -0.03437591080019429 0.059165091980559754 0.02666610844513186 -0.002066188361886734 0.024743603201360972 0.0031981994316882156
0.34488319415943275 0.34336903201130475 -0.16199345871142173 1.0444033865750124 0.282820650334623 0.4067346880987801 0.21863296978607522 -0.047546001255144396
0.30767151849046187 0.22322507975000938 -0.2083476776808786 0.26330381195289715 1.1258738634697445 0.10111267940456665 -0.08021812301853898 0.17845176343318958
0.32421244323366544 -0.10076932547399294 -0.15633838196029676 0.17584435052482272 0.28825383710675045 0.10005845941819946 0.7273396078209093 0.2367780836559073
-0.17407321359583117 0.17866554218111663 0.3194171998548051 0.234171222295428 0.3382389051743531 -0.01953546490026613 0.03634672556086222 0.1239558204979578
-0.011160197552431217 0.3721302169157188 0.25614477987995626 -0.0033627066996121165 0.1546637577017739 0.07714295015735001 0.24153177259840042 0.4364343539536889
0.34400324952362904 0.07540085960801923 0.09576410393184022 0.11481372990171167 0.2960669409257008 0.043732197014206706 0.17197010857996203 0.09290650730982306
0.3944326613320926 0.09095234170791214 -0.11818432684391403 0.3372243503189646 -0.04528134805605515 0.11359601729063148 0.2770026037783268 -0.1862779504149237
0.22026530035948863 0.3384403582557944 0.20600554192134102 0.5252342399946944 0.14354578705529863 0.5399624993366778 0.2502640260698307 0.7745443845112925
-0.19515028999118506 0.6883711962787873 -0.07010093862548727 -0.14645519184029862 -0.004768499785807217 0.25206238660652164 0.16981231471397296 0.33636573877591047
0.8692896878427775 0.16962524996484588 -0.03390669713144067 0.0742021269536312 -0.13960896803066633 0.027894443346866294 0.2057029181450413 0.033113680505701404
-0.19755742498674012 0.8371775875069606 -0.06440036675793934 0.033602242922175674 -0.6028927250191523 0.07985269134929293 -0.1157292494097418 0.10178223076417607
