weights/eminem_rnn_Whh.npy (npy, 500128 bytes, 1 tensors)

array f8 [250, 250]
0	0xbfa46afc0ad12855	-0.03987872726482126
1	0xbf6fa62a9c9ccd54	-0.003863414026363957
2	0xbf9d779f370bdfdc	-0.028776633963360485
3	0xbf64a28fe61015f3	-0.0025189219018126817
4	0xbfaadba96baeb9af	-0.052457136530722585
5	0x3f8e930404b7c7b3	0.014928847688654523
6	0xbf77dfb90e418d10	-0.005828593133716767
7	0xbfa33fbdb5747086	-0.03759568061852385
8	0x3fb2fd4802583cd4	0.07417726571314925
9	0x3f8be878755196ee	0.013626996116907954
10	0xbf65318f1a3f06d8	-0.0025871081324745186
11	0xbf701070cb57640b	-0.0039219289805823105
12	0xbf649fe9b059a7f6	-0.0025176586375907873
13	0x3f8562bf6496c9e6	0.01044225240443537
14	0x3face0c4b6a5c259	0.056402346893155104
15	0xbf93d29bd71c693d	-0.019358096126873326
16	0x3f93de4a0863ba56	0.019402653467233875
17	0xbfa0668c5b4b9f38	-0.032032381195504944
18	0xbf60875b01f89347	-0.0020176675314068945
19	0xbf99b6618bf74a5f	-0.025109790962071773
20	0xbfa34c13722d4f98	-0.03768978852045207
21	0xbfa0fa9bd0105848	-0.03316199221460231
22	0xbf975aaaeddd82c5	-0.02280680729689057
23	0x3f9157397aee082f	0.01693429768375426
24	0x3faa461036f60451	0.0513157908526486
25	0xbf803ba83f35cc57	-0.007926287106533687
26	0xbfac4886ff2f8328	-0.05524083962496312
27	0xbf7cf0fa396d43d1	-0.007065751494182274
28	0x3fa681c555190e7d	0.0439588228587384
29	0x3fa331d18f303498	0.0374894606867226
30	0xbf9e562c8db7e706	-0.02962560286503104
31	0x3f8f207506c378c8	0.015198625821025394
32	0x3f820db0d2740185	0.008815175459404365
33	0xbfadd80b51ee5e10	-0.05828891158233429
34	0xbfa1e0c3d8f9b59e	-0.03491794608712982
35	0xbf9887b260f34300	-0.02395514218079864
36	0xbfa17082b660a87a	-0.03406151272095399
37	0x3f961c6beff7e99b	0.02159279491568498
38	0xbf978fe076e5467b	-0.023009783989726956
39	0x3f814c7189544678	0.008446585658506964
40	0xbf7c238fbf66e92e	-0.0068698516028525124
41	0x3f7e0ad41e2f83a8	0.0073345456939656675
42	0x3f90b914ff587887	0.016331031880433968
43	0x3f72a8d54b64022c	0.004555543119068289
44	0xbf8c0b0baa11c6d0	-0.013692942741019648
45	0xbf8822e38c664d8f	-0.011785295221477891
46	0x3f9263f42228ba07	0.017959417900948817
47	0xbf95b25632d5fc4f	-0.021188113072181654
48	0xbf4ade90aecba1de	-0.0008199888667066964
49	0x3f9b9fe6cb4f28b8	0.02697716346646281
50	0xbf76039b59013ec5	-0.005374533488136717
51	0xbf8dc43f66a0519f	-0.014534468955425704
52	0xbfa01dce22833115	-0.03147739573759815
53	0x3f4e2e39d9515990	0.0009210379090614385
54	0xbf7857426991a3cc	-0.005942592070916807
55	0x3fa285e01feae3ba	0.036177638908561474
56	0xbf6bda4b4ae49238	-0.0033999891812917203
57	0x3fab39688755848c	0.05317236568476699
58	0x3f8597a566883b5b	0.010543148223431656
59	0xbfa06ece42ba44f9	-0.03209538044496613
60	0xbf8fa546d159e914	-0.015451958907978049
61	0xbf91d347e4e80892	-0.01740753492959663
62	0xbf7eb7a84b701025	-0.007499368096436175
63	0xbf6f49b6283cf4ba	-0.0038193280942367654
64	0xbf9b3704b9e8c2e4	-0.02657706627559521
65	0x3f71a20e203bbbde	0.004304938487378755
66	0x3fa29a77a8162d93	0.0363347428020361
67	0xbf7aea8d832a6507	-0.006571343214681897
68	0x3f984a6bca1a367c	0.023721393785811604
69	0x3f82a9545578abcb	0.009112032755259755
70	0x3faf4bfa2579ee50	0.06112653453325534
71	0x3f768f3d26cfd913	0.0055076969847418665
72	0xbf89548463663167	-0.012368234904692256
73	0xbf662bba09ecd971	-0.002706397397015774
74	0x3f92454e024816f9	0.017842501534707875
75	0x3f98bf8e47c969db	0.024168227321163954
76	0x3f606da26b894ac7	0.002005402781187857
77	0x3f80092710cdc553	0.007829957199393311
78	0xbf9be733adbdfc2c	-0.027249152640703198
79	0xbf9ae20c957c74a8	-0.026252934097205
80	0x3f9d089a3783ad37	0.02835312808831
81	0xbf8cfbe9ff6e24ea	-0.014152362926113733
82	0x3f7311b0c49dd7a2	0.004655542850619117
83	0xbf8c20fd555f4d2e	-0.013734797637801135
84	0x3fa7112fa6efdddc	0.04505299485020561
85	0xbfa1d10386d9c61f	-0.03479777356268365
86	0x3f716f506df05989	0.004256548097166032
87	0xbf8844704b5a11c8	-0.011849286365085102
88	0xbfa1f3cf18c04132	-0.03506323983322303
89	0xbfb4437221464f73	-0.07915414154405002
90	0xbf75471e1f0ee268	-0.00519477621212925
91	0x3f92984ee76e8c10	0.018159134746053296
92	0x3fb5e296649dfd0b	0.08548870045159533
93	0xbf993735468d3c29	-0.024624664717802034
94	0xbf973e5c3f46662d	-0.02269882332038813
95	0xbfa21a6fd6e0c969	-0.03535794733069759
96	0x3f952760f8f97406	0.020658030697052986
97	0xbfaa2aa641b547e0	-0.05110663940526172
98	0x3fa2e2d5b48396b6	0.03688686207332863
99	0xbf88194d26c4b3ce	-0.011767008538834303
100	0x3fa3c2175480c6a0	0.03859017282992494
101	0xbfa0928b555f9d24	-0.03236804406315688
102	0x3fac8bd83a8f4562	0.05575442995872028
103	0x3f9222b9f87092ab	0.017710595882948137
104	0xbf84345ce4dc39ef	-0.009865499243031343
105	0xbf735825c9c67f17	-0.0047227359868029705
106	0x3f91d7794513aee7	0.017423529473417878
107	0xbfa869a5590206fa	-0.04768101417086075
108	0x3f943833d9b1275f	0.019745645677438414
109	0x3f72f07b0418a7b2	0.00462387135625335
110	0x3f9bfb4cf0c08e22	0.02732582301554321
111	0xbfa1a3b00c7e3566	-0.03445196297171087
112	0x3f83bfc28b3e537a	0.00964309680402108
113	0x3fa66b52a12db6c8	0.04378755776893467
114	0x3f88e9a204002ba5	0.012164369341936718
115	0xbf75b3cc95e396fd	-0.005298422968029956
116	0x3f9043272cd887b9	0.015881168472453775
117	0x3f8749229409a229	0.01136996282839771
118	0x3f9fa37d89e6017e	0.030897103826192922
119	0xbf89226039cc35f0	-0.012272598041387334
120	0x3f9cad2228b86081	0.02800420163666262
121	0x3fa0794e3924e233	0.03217548797187355
122	0xbf6fc99e0b951edf	-0.0038803183385062025
123	0xbf965d642c096a6c	-0.021840634525100475
124	0x3f93fb53ebcb5669	0.019513427035084883
125	0x3fa8a61ab4fafa86	0.048142275421459366
126	0xbf9ba398ff93b628	-0.02699126300733759
127	0xbf4ff376366dce90	-0.0009750678262733948
128	0xbf8baab3e114b11a	-0.013509183222219213
129	0xbf8c96937d83cb0b	-0.013959076183231575
130	0xbf9f5b10c6b72319	-0.030620824936508393
131	0x3fa20ef6dbe29dff	0.03527041849275391
132	0x3f8f1ca5fadd8770	0.015191361158659794
133	0xbf91522b69638f93	-0.016915014560154495
134	0x3f77cef4c1f204b5	0.005812603077289304
135	0x3f633836972c2736	0.0023461405011219417
136	0xbf75b2ab5d2d84d5	-0.005297345533876914
137	0x3fb88af06e7e7d10	0.09587004373178254
138	0xbf78c53a5df8961f	-0.00604746627462796
139	0xbf9aade262dc75bd	-0.026053941043860485
140	0x3f334a54b0f6ac75	0.00029434745462237423
141	0x3f7a34cb81af9019	0.006398005435560372
142	0xbf68f335ff34497e	-0.0030456595064915484
143	0xbf8497d3e34bb7cd	-0.010055213331238289
144	0x3fa61fa42997b391	0.04321015365335435
145	0xbf9525e07bae832f	-0.020652301358157373
146	0x3fa4a44b879832b6	0.0403159716625842
147	0xbf97774ecd994ba6	-0.022916060732608344
148	0x3f8ac64213b06d75	0.013073459840646543
149	0x3f9800a32d806a46	0.02343993153781756
150	0x3faeae06135b23a8	0.05992144571570829
151	0xbfa9420397c8ad54	-0.04933177211600062
152	0x3f873ef6e218ce09	0.011350563788346884
153	0x3f8fdc3b115ff15d	0.015556775539146523
154	0x3f90b57b32462d78	0.016317295974244556
155	0x3f972b562298e5fa	0.022626252996110076
156	0x3f3b543330b12a31	0.0004170060134966207
157	0xbf90f790fadfe1e7	-0.01656939059464149
158	0xbf837f6bb5a253f8	-0.009520379524738928
159	0xbfa3029e91bf8fb9	-0.03712935952333347
160	0x3f5fc106f644a8a7	0.001938111113370536
161	0x3f8172c7f354d9e5	0.008519708741556673
162	0x3f730a370a60a3cf	0.004648413660142971
163	0xbfa90411c8fb4827	-0.04885917261493971
164	0x3f81d99f55ac5d71	0.008715863039056445
165	0x3f9c452e09eaaca6	0.027607650141970773
166	0x3f9b12cc2cdb4266	0.026438894498655684
167	0x3f86b43309c61780	0.011085890517971597
168	0xbfab2e2c34303cc2	-0.053086644526155094
169	0x3f97d384ed6be75b	0.023267819396074568
170	0x3f9545b35cd0b995	0.020773699321745182
171	0xbf9dc1a259f6f85d	-0.029058968297015365
172	0xbf8a5a68e71fb5cd	-0.012867755463925068
173	0xbf50a768c3521b48	-0.0010164759708303928
174	0xbf82bbcfaa48fa88	-0.009147283920467389
175	0x3fae158b7aff81a1	0.058758124126828244
176	0x3f79bd54c2eaaf16	0.006284075831597643
177	0xbf895a682754fe03	-0.012379468632047091
178	0xbfa9eda09d2c0cbd	-0.05064107817272532
179	0xbfb48f1f5a3884be	-0.08030887558608676
180	0xbf7e6802356118d9	-0.007423409106257683
181	0x3fa4dcda9669b555	0.040747481213524374
182	0xbfa68662eb76a39e	-0.04399403690633295
183	0x3f994c7aae056bf3	0.024705807563218895
184	0x3f8ba65cde4daed7	0.013500905546343684
185	0x3fad27107d4fa407	0.05693866281200859
186	0xbf8905008b10a1ac	-0.012216572040487282
187	0x3f8cc6efb6b4c5c9	0.014051316035508148
188	0x3f9a4df4c0e8748a	0.02568800380150952
189	0xbf9cebb386758278	-0.028242878991820736
190	0x3f906801605234ff	0.016021749023413353
191	0xbfab2ad9979d2da6	-0.05306129432446065
192	0xbf810805bd72ed27	-0.008316082805655057
193	0x3f93647ec0c3166c	0.0189380459931016
194	0xbf9d48a52c3fdaad	-0.02859743197037783
195	0x3f91708e088f5bc6	0.01703092505689676
196	0x3f9bf9eef558052f	0.027320607876395172
197	0x3f83fb8414c9c335	0.009757072338489084
198	0xbf9e9d6ab8af5ddb	-0.029897372743873035
199	0xbf85900fe9a227e1	-0.010528683011461428
200	0x3f820d8d333554a3	0.00881491005444907
201	0xbf727cfb346b1cc8	-0.004513722675887517
202	0xbf7ff5e588ee19a0	-0.007802864666592774
203	0x3facade7b2c01326	0.0560142903996506
204	0xbfa593f1f080384e	-0.0421443563537741
205	0x3f940223a3af626e	0.01953941046289958
206	0xbf80232ba899b6b9	-0.007879582484032853
207	0x3fa7272628df10f5	0.045220558633021136
208	0xbf7d56d16136f666	-0.007162874116543349
209	0x3f67f7c3579ac369	0.0029257598187872225
210	0x3faf616bfe18f423	0.06129014469886609
211	0xbf9432374d3c7009	-0.01972280892287873
212	0xbf9979c4c21f3765	-0.02487857279611862
213	0xbfa223e26afbffd5	-0.03543002658807352
214	0xbf8a6e43c52a74e9	-0.012905625776790735
215	0x3fac9ce8797dd443	0.05588461382914336
216	0xbfb15615ff6d0894	-0.06771981702789481
217	0xbfb433246584baa3	-0.07890536764601079
218	0x3f8a7528bf26e3aa	0.01291877587651576
219	0x3f91bd6f92a46753	0.01732420284779519
220	0xbf8e54dee7a06da9	-0.014810315555272196
221	0xbf792e9ca1490ca4	-0.006147968135851976
222	0xbf81cfb8db90a1c3	-0.008696979714003633
223	0xbfb707ed25682281	-0.08996469653369311
224	0xbf7d143c25926010	-0.0070993756754873655
225	0x3fa5b172b5c4ebad	0.04236944645750582
226	0xbfa9d81fcafdd19f	-0.05047702172206247
227	0xbf344f32afe29f7c	-0.00030989634968613794
228	0xbf7850f5a022459c	-0.005936583971690192
229	0xbf90c9310bbe78c2	-0.016392484990881646
230	0xbf862594f4a7a492	-0.010813869205735824
231	0xbf7d4a063bc11d23	-0.007150673245696101
232	0x3f94c5283a1d5a3c	0.020283344790494193
233	0xbfa4d40b1e665859	-0.040680263005172086
234	0xbfa03ac76813bf8b	-0.03169844766114157
235	0xbf9bbf191baa7aa9	-0.027096168817133535
236	0x3f87f66c1761b711	0.011700481856873364
237	0x3fa279bba36a585b	0.03608499879662538
238	0x3f988c324baa9f1b	0.0239723070796166
239	0x3f843f0714af4e96	0.009885840719938071
240	0xbfa8217e946b3ffe	-0.04713054239039137
241	0xbf8f2593688246e7	-0.015208388926370954
242	0xbf7670c9ba3e494f	-0.005478656766984293
243	0xbfa1ea2b86e473e7	-0.034989700523716576
244	0x3fa2b46bd767ca47	0.03653275494061297
245	0xbfa8de755a0ac5d4	-0.04857222293993471
246	0x3f88ab367cb82652	0.012045312577373544
247	0x3fa20cad63468811	0.03525297009333895
248	0x3f9481aab211cfb9	0.02002588950968207
249	0xbfa2423899e3c0f1	-0.03566147688423083
250	0xbf49c1889f191122	-0.000786010465340801
251	0x3f8db8695573856f	0.014511893196359009
252	0x3f81c644e3a72633	0.008678949544349645
253	0xbf52f8799f339be8	-0.0011578738893207544
254	0x3f87899d383e0b14	0.011492946890717039
255	0xbf8a7bcee9ed3da5	-0.012931458009602556
