weights/eminem_Why.npy (npy, 98128 bytes, 1 tensors)

array f8 [49, 250]
000000 f7 15 65 f7 bc bb cf 3f 2b cd ee a1 57 07 b4 3f
       0.2479168136580225 0.07823703483045523
000010 85 9f 62 0e d9 36 d9 bf 30 db 32 63 96 ca ce 3f
       -0.3939726486664699 0.24055747836765695
000020 0a af 57 31 b7 d1 dd bf 98 54 cb 1f b8 34 ca 3f
       -0.46592502421002335 0.20473386337713317
000030 85 ab d2 4a 76 51 d1 3f 94 6c 68 b3 c1 39 c5 bf
       0.2705970507328675 -0.16582509288932512
000040 05 a1 33 62 a1 98 dd bf 68 60 67 d2 c4 1b b9 3f
       -0.4624408205986728 0.0980799688035191
000050 c2 c6 0e 51 16 24 b0 bf 82 16 63 9e 6e bf ec bf
       -0.06305064658115625 -0.8983681767937954
000060 62 18 22 d7 08 ef c9 3f 97 08 ed 21 6c 2b d6 3f
       0.20260725502538707 0.346400292521261
000070 01 2e 32 c7 fd 7b 69 bf e1 1a fe 79 fd 59 c0 3f
       -0.003110881481523498 0.1277462812106114
000080 fd e0 97 bb 27 05 dc bf a9 ff 52 a7 29 94 c0 bf
       -0.4378146488156885 -0.12952156705978027
000090 3d a6 2d 61 fd ae c1 bf 26 88 24 7b 3c 2d d2 bf
       -0.13815276379618693 -0.2840110018315748
0000a0 0c d9 61 fe 0f 38 99 bf cc e9 e2 f2 ee ed e1 3f
       -0.024627923871286803 0.5602946037172898
0000b0 1a 37 59 ef 23 19 e2 bf b9 fa b9 1d 08 27 c8 bf
       -0.5655688929343541 -0.18869115306366327
0000c0 b0 e7 ca 1c ac fe a0 bf 9d 20 1d ad ff 12 c4 bf
       -0.03319299556228772 -0.15682979538747058
0000d0 a5 da ec a8 d4 97 e3 3f e5 43 5a a1 4e 54 a5 bf
       0.6122840213127644 -0.04165883750568592
0000e0 09 33 c8 2f 26 c7 d1 bf e8 93 ad 64 9f 82 cb 3f
       -0.2777801005002379 0.2149237863151534
0000f0 22 c9 0d 34 f4 c2 cd bf 97 d9 38 4b 6a a9 c2 3f
       -0.23251202146236333 0.1457951419158234
000100 12 23 ba 96 c6 65 b8 3f 05 be 02 9d 18 e8 a5 3f
       0.09530297450886518 0.04278637806543987
000110 ba 90 2e b3 fc c3 cc 3f b5 d1 ea 96 46 64 cb bf
       0.22473105191341408 -0.21399767273909523
000120 cc ec 52 9e 60 0f d4 bf 23 fd 1d 09 9b 01 ea 3f
       -0.3134385629779899 0.8126959970540252
000130 d7 d2 b3 e5 34 2e dd 3f c9 34 78 05 ad f1 47 bf
       0.4559452288806773 -0.0007307143050085059
000140 01 67 1a f5 00 9c e1 bf 25 bb a1 ed f5 c5 b4 3f
       -0.550293425290164 0.08114563991123853
000150 87 58 b3 06 c9 17 ce 3f c7 0b 6c 7f 7c 36 e7 bf
       0.23510086848427056 -0.7254011620246893
000160 5b 29 b8 fb b3 de d2 bf 52 5b e2 0b b4 83 f3 bf
       -0.2948427160451012 -1.2196541275240702
000170 f2 ab d0 ff 23 9b c8 bf b9 5d 68 b7 f6 e8 d7 bf
       -0.19223451605770908 -0.3735939780321718
000180 26 96 d3 28 08 2d b7 bf 8f 96 c3 35 78 b0 a6 3f
       -0.09053088185063327 0.04431510597514176
000190 07 80 6f 6f 23 78 c8 3f 19 b4 f5 a3 39 3b d0 bf
       0.19116633359135468 -0.2536148167772026
0001a0 f4 9d 3f 40 2b f1 ab bf 05 9f 9e 42 78 9e d0 bf
       -0.05457434806140418 -0.25967222696134257
0001b0 51 71 5f f4 f2 16 b3 bf ce e2 2a 72 5c 27 d3 3f
       -0.07456892458089227 0.29927741192981905
0001c0 66 10 ac 72 1b 3b c3 bf a8 94 3f 31 1d 54 c2 3f
       -0.15024130915856232 0.14319195656495265
0001d0 58 45 64 0e 8d 35 bd 3f 41 81 e3 75 11 f1 df 3f
       0.11409837342605067 0.49908863556449395
0001e0 a5 19 ef 03 fc 81 c9 3f d1 71 3c f5 cd f0 d2 bf
       0.19927931015099634 -0.29594754170264276
0001f0 c3 66 bf e2 21 89 ca bf 58 39 99 58 a6 ab dc bf
       -0.20730994769728825 -0.4479766717166931
000200 27 e0 f8 c7 56 7e f2 3f 5f 0d 41 90 82 b1 c1 3f
       1.155844479695597 0.1382296757093213
000210 84 d0 07 aa f5 ba c7 3f 4f 84 76 33 d5 2b d7 3f
       0.1853930549838233 0.36205034280471166
000220 af 28 21 93 2a fa d1 3f c9 54 12 cb 74 d4 d4 bf
       0.2808939396678722 -0.3254672988053469
000230 ad 3f ca 2f 88 4f e5 3f f2 ac e7 6a c0 0f 70 3f
       0.6659584935568909 0.003921271926155644
000240 79 40 b7 a0 cb 05 d6 bf b3 be 70 4b a2 0a cf bf
       -0.3441037244310859 -0.2425120228158356
000250 0e 8b 0a 95 8f cb f2 bf f3 7b dd af 67 06 d2 3f
       -1.174697477523924 0.28164093183835276
000260 1d 95 33 bf 5f 96 d0 3f 9d a5 f3 15 9d c8 c5 3f
       0.25917810127278235 0.17018474170553768
000270 10 39 cc a9 b4 f7 c9 bf de d5 e3 de 29 21 cb bf
       -0.202871878537231 -0.21194957145023258
000280 8f c5 65 7f 60 a9 b9 bf 73 bc ca f0 97 39 f2 bf
       -0.10024073705951352 -1.139060917466648
000290 c2 cd 20 8c ad 31 b9 bf e8 b4 51 1c cb 5b 91 bf
       -0.09841427489373358 -0.016951726535286676
0002a0 bf 4d 2e c2 90 7c d9 3f 91 06 b3 0c 3d ab c3 bf
       0.39822787249542196 -0.1536632835396188
0002b0 0d 20 4c c7 de 80 d4 3f 14 17 1a 0d 1e f5 c4 bf
       0.32036561453469475 -0.16373038902036596
0002c0 77 09 cc d2 01 ce d3 3f 63 2e 73 d7 e4 3b d7 3f
       0.30944867692610195 0.36303063430816546
0002d0 93 7e bd 17 29 1f a2 3f 76 18 64 0c d8 af ab bf
       0.03539398588941114 -0.05407595778710654
0002e0 78 34 da 2e 9f ca d1 3f da 4c c8 df 60 5c bb bf
       0.2779920537512406 -0.10687833274305394
0002f0 5a 1f f0 3c d5 29 a5 3f c9 b8 8b 9d c2 b7 c8 3f
       0.041334785164564194 0.19310791676202246
000300 ff 4b 14 32 7f 4d a2 bf 09 f1 49 3f ba 23 d1 bf
       -0.03574750410384552 -0.26780563526678286
000310 d7 55 fb 82 ac 34 e5 bf 55 71 fd bb e6 30 c4 3f
       -0.6626799162137854 0.157742349426267
000320 b2 44 4a a3 65 8f d9 bf 78 66 5e 16 5e 0b d6 bf
       -0.39937725969600557 -0.34444381889770836
000330 64 e8 11 e6 fb 08 c2 bf 5b 3b ee d4 d0 e8 a6 3f
       -0.14089916929134738 0.044744993202690174
000340 6a 6e 44 1b 62 eb c5 bf 13 b6 95 9e f6 04 88 3f
       -0.17124582606708155 0.011728216852783501
000350 bc 4a 29 5b 81 12 d0 3f d4 18 31 6f 54 8d d7 bf
       0.25112947370977756 -0.3680010877473141
000360 ee af a0 7d c8 d4 e2 bf 44 9a 5f 9c 4c 0c c1 3f
       -0.5884745076814377 0.1331878436605668
000370 44 b5 bb ff 3a 7f bc 3f 4c aa 1e 7d 59 db ae 3f
       0.1113163828228681 0.06026725437489641
000380 e1 6e 4a 5d e9 79 dc 3f b2 60 37 a5 7d 91 b2 3f
       0.4449408923189662 0.07253251346208137
000390 98 02 c9 37 4a 92 e3 bf 02 aa 94 e3 6f a5 cc 3f
       -0.6116076554827314 0.22379873859729577
0003a0 3d d7 02 e3 3d a1 c5 3f e6 40 95 0e d8 02 d5 3f
       0.16898320755506716 0.3282985823070831
0003b0 3d db 17 57 b5 b8 c5 3f ac 85 a9 82 e1 02 c8 bf
       0.16969935181233523 -0.18758791809072528
0003c0 21 93 1b ee 56 d4 ae 3f 31 80 19 ca 45 7a e6 3f
       0.06021377235973647 0.7024258563287785
0003d0 ad be 75 14 3e 3c 9e 3f be a7 71 27 48 b8 b5 3f
       0.02952668189885681 0.08484316790568777
0003e0 a9 75 cc 59 d0 ec b7 3f 69 7c 4d 12 e8 f6 d5 bf
       0.0934572428927455 -0.34319497859355025
0003f0 55 c2 fe bf c4 b4 d7 bf f2 03 ee 2e 5d 23 e6 bf
       -0.3704082369759239 -0.6918168942066798
000400 61 27 3a bb 2e 5c d6 3f af be 41 d9 1b 82 db bf
       0.3493763759985225 -0.42981620995031283
000410 60 43 1d dc e8 91 7d bf 58 f1 2c 44 f8 ae a3 bf
       -0.007219228371312919 -0.03844428856106913
000420 d7 b7 54 cf 1c 58 e2 3f db 71 54 28 9a 48 a5 bf
       0.5732559251243811 -0.041569535658911604
000430 8d 7e 69 d8 b2 32 bf bf 67 85 7e ba 75 34 d5 3f
       -0.12186734946726059 0.33132689678503485
000440 b4 cf bb 4e 44 ba d0 3f 95 e4 ee 55 9c ba c0 3f
       0.2613688248522934 0.130694906196173
000450 70 d1 38 f4 89 ca a6 3f ce 64 b1 f3 f7 f1 bc bf
       0.04451399904465603 -0.11306714725050712
000460 51 ad c4 6f 74 81 b6 3f 2a 5b 0c a2 28 6c b0 bf
       0.0879128239509346 -0.0641503711343431
000470 58 a8 65 6b 3e 35 a8 3f b4 08 b4 e5 e7 82 c0 3f
       0.047281218156812244 0.12899492946605096
000480 95 c2 18 76 37 c9 98 bf 4b be a4 50 61 fd d2 3f
       -0.024205080588390066 0.29671509623856157
000490 ab fc 33 ba 74 76 ac bf e0 a5 3f 5d a6 dc ba 3f
       -0.055591247300975276 0.10492934967592005
0004a0 eb 87 7a 08 a8 ec bc bf eb a9 a0 6b e3 e0 a0 bf
       -0.11298608977315865 -0.03296576203168285
0004b0 46 7d 83 08 01 0e a5 bf 77 00 e1 ae 55 4e e1 bf
       -0.041122467316876896 -0.5408123412708069
0004c0 76 27 d3 30 63 38 e0 3f 62 13 33 d9 41 2f b3 bf
       0.5068832353219779 -0.07493983795855066
0004d0 cf 46 72 73 a1 d6 c8 bf 29 94 50 2e 4a eb c5 3f
       -0.19405000817328363 0.17124297391379287
0004e0 43 b9 86 99 8a d9 6a 3f 1d e3 4a 5f 48 79 ce 3f
       0.003277559950411264 0.2380762543960139
0004f0 c2 48 df 1e 77 53 d6 3f 27 82 05 04 75 fa bc bf
       0.34884431853164355 -0.11319667194539616
000500 37 a6 4f 15 d8 23 c2 3f 59 67 44 0d 94 dc aa bf
       0.1417188743646862 -0.052464129085093965
000510 3d 1e 3d 5f 7b df c9 bf 79 b6 95 70 4f db 96 3f
       -0.20213262701348525 0.022320977446204957
000520 b1 28 9a cc 95 20 88 3f 7d 83 8d 1b f3 fc c0 bf
       0.011780901247466198 -0.13271941037512738
000530 63 66 62 3e 4a e6 e2 bf 4a d4 1b 5c b5 d6 cb 3f
       -0.5906115740246601 0.21748988149161824
000540 6d 1e 20 bc 58 fe d3 3f 40 ce c3 55 47 99 bb bf
       0.31239908572795266 -0.10780759662503048
000550 76 0b 53 a3 b0 d6 bf bf e6 cd df 31 4c 93 d5 bf
       -0.12436965930377916 -0.33711533422976314
000560 55 25 92 34 d9 f7 94 3f 82 11 a5 fc 24 0b bc bf
       0.02047671683661652 -0.10954505127035044
000570 7d fe c2 4b 59 52 9f 3f c2 1a 5d b0 43 04 b5 3f
       0.030587573289038595 0.0820963197303213
000580 8a 44 f0 94 21 97 c4 3f ef 7c 0c 40 46 15 c8 3f
       0.16086215755834515 0.18814924361593152
000590 a5 4a 5d 4b b9 dc ca 3f a1 59 44 8e 23 4e e1 bf
       0.20986095600035984 -0.5407884386684608
0005a0 84 96 c1 61 7c fd f8 bf fa a3 da 9e c4 a9 c5 3f
       -1.5618861979104688 0.16924340969606516
0005b0 13 7c 82 8b 5e 8e ca 3f fa 87 e3 be be 1e dc bf
       0.20746976673123693 -0.439376531996572
0005c0 82 50 69 52 b1 6f da 3f 88 42 52 2f 26 ba 94 3f
       0.41306717918383395 0.020241352689995412
0005d0 0e 98 8d 38 f1 7e a4 3f 0c 5f 79 17 81 91 c5 bf
       0.04003099265428044 -0.16850293775745973
0005e0 d1 3a 70 32 2f c0 d1 3f 27 75 d1 39 54 7c c2 bf
       0.27735500264763596 -0.14441922019151684
0005f0 7a c2 16 31 dd ac c4 3f 51 92 f6 f2 78 3b bf bf
       0.1615253915492934 -0.12200122768133183
000600 71 30 8d aa 19 f6 92 bf 08 ab 1d 93 49 9d aa bf
       -0.018516922983778664 -0.051981257637484346
000610 f8 1a dd af 80 0b 4b bf e2 98 87 83 d5 ac c3 bf
       -0.0008253458360990276 -0.15371197626445282
000620 46 d6 72 7a 23 25 b4 bf 5b a6 21 e2 0d ab d9 bf
       -0.07869168986766181 -0.40106532176159754
000630 b4 00 d3 be da 7a d4 3f 41 8c 3c 9e 4f 02 d2 3f
       0.31999844203165684 0.28139105274948767
000640 84 8b 24 9d a3 f0 db 3f fc 1d 90 98 f4 d7 f3 bf
       0.43656244607898764 -1.2402234992495087
000650 ef bb 36 70 fd f2 cb 3f aa 9f 7a 64 f6 fc c0 bf
       0.2183529661101313 -0.1327198019619094
000660 2a 33 10 89 16 0b d6 bf 67 01 17 c9 93 6a e0 bf
       -0.3444267595776177 -0.5130099227463177
000670 80 53 60 2f 80 b9 be bf c8 96 f7 dc 2b 32 d6 3f
       -0.12001801640174214 0.3468122156030913
000680 67 b6 79 c2 38 24 d2 3f 18 66 5a 31 fc a1 d0 3f
       0.2834607981847967 0.2598867876018587
000690 75 d3 af 12 e0 fd 90 bf e4 3d 00 11 76 fa b1 bf
       -0.016593457356026648 -0.07022798457204932
0006a0 48 1a bc 29 7f 0a ad 3f 24 fe c3 af 06 12 b1 3f
       0.05672070869882312 0.06668130675461065
0006b0 4e 12 b0 db 8a b1 da 3f 09 02 58 79 76 21 d0 bf
       0.41708632902035425 -0.25204240655878657
0006c0 2b e2 fa df 6d 41 d0 bf 7a 4b 46 5e 8f 32 a3 bf
       -0.25399348137901495 -0.03749511743367058
0006d0 72 79 3c e5 de 48 cc 3f 1f 3c 6b e3 84 31 9e bf
       0.22097383683371735 -0.029485775356814622
0006e0 c0 83 0f cd b1 1e b2 3f e8 fd 08 e3 83 d1 c4 bf
       0.07078086143839268 -0.1626438959665244
0006f0 15 0e b1 d2 94 ab c8 bf 03 c5 67 a9 56 b3 cb 3f
       -0.19273624694516003 0.21641047736878968
000700 5e 55 3c b2 49 18 c0 3f cd da ee fc af c3 cb 3f
       0.12574120715059228 0.21690940714116494
000710 4c a8 3c 91 1d c6 ce bf 96 7d 4a 31 ac 39 e7 3f
       -0.24042100516936882 0.7257901156153135
000720 c2 52 7e 38 8c 6e d5 3f ce 34 f3 b2 69 02 ce bf
       0.3348722984021998 -0.2344486354617516
000730 ab 16 20 46 72 60 d2 bf 6e de 6c 67 f3 5a e4 3f
       -0.28713662002733525 0.636102392199019
000740 0b 01 eb 8c 4a 25 91 3f 9b b9 d6 28 91 41 ea bf
       0.016743817187262738 -0.8205037877685756
000750 83 fa d6 c4 ec b5 d8 bf 0d 62 ab a1 32 1d b2 bf
       -0.38610381338723004 -0.07075802275665684
000760 44 4c ce 80 b9 f3 b9 3f 2d c2 53 c9 7c f9 d6 3f
       0.1013751925914202 0.35897750531060774
000770 a8 33 c6 1b b7 97 dd 3f bd b4 24 f9 d0 24 de 3f
       0.462384965060489 0.4709970887223099
000780 7d 86 20 78 18 f9 cd 3f e0 90 13 fd 6d f1 d1 3f
       0.23416429391459195 0.28036069597716384
000790 43 16 7b c0 8c 65 c1 bf a1 19 ca 4a ca 83 d3 bf
       -0.13591155432202315 -0.30491883567483496
0007a0 b0 c7 6f 76 55 9d c3 3f 5c ba a3 0f 6d 2e ca bf
       0.1532389477065954 -0.20454180968904978
0007b0 e6 4e 19 8a 9a 4d ab bf c2 14 bb 95 92 8c d2 bf
       -0.0533264440133772 -0.28982987043520947
0007c0 3b 74 6b 03 63 f3 b0 3f 3e 9c 78 f3 6c 5c c2 bf
       0.06621378739824106 -0.1434456051658532
0007d0 08 13 a0 50 5d ca 9d 3f cb e1 69 22 c6 7d f2 3f
       0.029092271848656842 1.1557065338403045
0007e0 d0 14 5b 7f e7 07 e8 bf 61 1b da 19 96 ca e4 3f
       -0.7509648787896825 0.6497297768517961
0007f0 88 f2 73 2a b8 ba d2 bf 7a 12 50 b6 bd 7c b6 3f
       -0.29264644761841696 0.08784089756961491
