weights/names_RNN__Wxh.npy (npy, 56448 bytes, 1 tensors)

array f8 [80, 88]
000000 8b 71 a4 4c 76 13 fe bf 8d bf 83 31 54 6b 14 c0
       -1.8797514909593669 -5.104813359895968
000010 bd e3 6c 90 ef 70 e9 bf d4 83 22 6e c8 38 c7 bf
       -0.7950361080939882 -0.1814203775184341
000020 21 93 58 66 6a 78 eb bf a0 c0 30 b2 f5 0b ed 3f
       -0.8584491728730407 0.907709930446817
000030 f7 7e 1f dd 90 b0 f4 3f 1b 7c 6d f8 25 05 47 3f
       1.293106902849045 0.0007025180246776926
000040 ec 76 ea fd b4 54 13 c0 01 a2 64 41 8b 89 e8 3f
       -4.832721679149227 0.7667900349816251
000050 51 f7 86 00 8d ed e9 3f 19 fe 86 1b c2 78 01 40
       0.8102478990838141 2.1839639807292426
000060 6b 08 9f c3 8b bc 01 c0 5b 79 93 20 6e 49 07 c0
       -2.2170634539516434 -2.910854582310248
000070 1a ad ea c1 4b 9b ef 3f 18 ab 97 81 dd 3c f9 3f
       0.987707022422373 1.577359682293439
000080 83 fd 84 52 c5 72 10 c0 38 ac 79 91 a1 92 06 40
       -4.112080849997599 2.821597229505212
000090 3e 38 18 51 3c 5f 0c 40 16 46 76 7a 92 24 00 40
       3.546501763869883 2.0178575103134433
0000a0 dd 50 11 9b 59 40 00 40 d2 36 ba cc f0 5a 10 c0
       2.031420909372271 -4.088809203019723
0000b0 90 d0 74 0f aa 4a 14 c0 0b 63 2d 9c 71 f8 f4 3f
       -5.0729143538520844 1.3106552220035066
0000c0 c3 d7 18 c9 b4 ae 09 c0 24 9a ae 4e 06 2b bc 3f
       -3.2103057585436274 0.11003150387714605
0000d0 54 c7 a5 87 65 cc f7 3f 54 7f 65 18 92 1d 08 40
       1.4874015139325438 3.0144388109182874
0000e0 e3 ae aa 49 80 14 85 3f 9f 9b 95 15 a9 0a fe 3f
       0.010293009040956707 1.8776026576176503
0000f0 3c 1c 52 ad e3 ba 0e 40 d6 0d ff 4b 8a 81 f5 3f
       3.8412545719798157 1.3441260307889613
000100 53 94 d5 36 ac f4 02 40 3e c8 e8 76 b3 48 e7 bf
       2.3694690975121744 -0.7276246378371594
000110 2e 49 bc 3a e3 7b f0 bf e8 7b c2 46 1f e5 f1 bf
       -1.0302459997515814 -1.1184380306292443
000120 61 8a 2c aa 15 b2 c4 3f 09 b8 83 d6 f6 a7 fc 3f
       0.16168471154476818 1.791006887385722
000130 e3 a4 97 65 ea 66 e1 bf 24 f5 46 9d e8 65 ef 3f
       -0.5438129410005356 0.9811900207347759
000140 9b c3 1d c8 9b 3d fc 3f b0 73 60 a3 9b cb 04 40
       1.765041143135227 2.599417950039843
000150 a5 fd ce f8 c8 95 d1 3f 66 f2 d0 ae f1 8d e3 3f
       0.27476715371809696 0.6110771574381715
000160 ca 4a 1b 8d f4 26 13 40 22 e4 b5 00 17 59 01 40
       4.788042263785153 2.1685009055622837
000170 07 08 5a d1 b3 16 e8 3f 83 49 89 ef 6b b7 f4 3f
       0.7527712906742189 1.2947806698690278
000180 c2 47 ef d7 d2 38 ef bf 2c 47 2d 5d 26 fa 07 40
       -0.9756864755129231 2.997143485969806
000190 62 72 c2 8f 03 de 0f c0 7b c6 36 6f 6b 16 e0 bf
       -3.9834052306380707 -0.5027367756030822
0001a0 43 f3 c8 65 3b 22 f8 3f c5 67 b8 6c fc a1 03 40
       1.508357427213199 2.4540947431350753
0001b0 8f 6b 96 e0 56 77 d3 3f 4d 43 e1 7a b6 7c e8 3f
       0.30415889675503477 0.7652237319945044
0001c0 3f e4 88 2c a5 d8 10 40 89 31 ab 4e 90 31 fe 3f
       4.21156758866806 1.887100512790399
0001d0 08 e1 48 3b b8 ba 04 40 d0 e6 8d 92 69 50 eb bf
       2.5911717063537516 -0.8535659658802732
0001e0 d4 db 49 0d fb 51 83 3f 4b 56 f8 88 eb 3f 05 c0
       0.009433709471734199 -2.6562109661852324
0001f0 ac d2 b5 79 ed 85 ec 3f e8 35 08 13 79 b7 ed 3f
       0.8913485886719932 0.9286465999336402
000200 23 3f cd db 18 d2 0f c0 b9 d9 ad e3 45 6e 08 c0
       -3.9775864765178013 -3.0538442408971744
000210 35 a3 a4 63 41 b6 0d c0 3a d3 ab c5 e5 bb e3 3f
       -3.7139919075601946 0.6166867123380151
000220 b1 34 22 7b a8 a0 ef 3f 32 ad cb 3e dd 04 f9 bf
       0.9883615879968116 -1.563687558455808
000230 20 54 46 71 f5 34 78 3f e6 dd c4 49 f7 74 f5 3f
       0.005909880408940388 1.341056144867133
000240 79 c8 cc 47 ab fe fa bf 40 25 ac 72 52 d2 14 c0
       -1.687175064533703 -5.205392638928345
000250 0e d9 65 6f 0f 4f 0b c0 96 b1 2f f4 03 32 fb bf
       -3.4136036589581016 -1.6997108019378167
000260 47 b5 ea 76 fd 79 fd bf 18 ac e7 3e 56 15 76 bf
       -1.8422827382267586 -0.005391442200997985
000270 48 9e 26 de fc 7b e7 3f ce 97 23 c5 1b 6b f5 bf
       0.7338852251895753 -1.338649530481678
000280 74 7e df 1c 55 00 11 c0 fc 77 8f 82 98 db ea 3f
       -4.250324679509152 0.8393061208732884
000290 b8 6c 16 49 0d fe f2 3f 45 77 6a 67 e6 e1 f8 3f
       1.1870243887886271 1.5551513709719569
0002a0 94 19 04 c4 07 ec f2 3f 34 d7 84 98 db f9 f6 3f
       1.182624593436775 1.436000438477504
0002b0 23 3b cc d5 e8 86 2d 3f 44 d3 69 10 5d cf e5 3f
       0.0002252730581848379 0.6815629311155154
0002c0 51 94 01 16 8c 09 d7 bf 09 43 24 de 3a 28 d3 3f
       -0.35995771550216654 0.2993304414131193
0002d0 d1 a9 60 79 e1 9a c2 3f 16 21 d9 00 39 1d d1 bf
       0.1453515856422443 -0.26740861018017037
0002e0 45 a3 b0 e0 c4 e2 8d 3f 73 38 b4 2b fe b5 ef 3f
       0.014592683894152034 0.9909659246057018
0002f0 6b 30 ea 21 8e 55 e8 3f 6e 67 d9 ea ea c4 88 bf
       0.760443750610205 -0.012094340602903233
000300 44 91 d0 30 af 51 f9 bf 18 3d 24 30 14 dc 06 c0
       -1.5824424654793612 -2.8574603806552084
000310 9b cb b3 5f 0a c6 08 40 aa 76 c6 23 54 10 df 3f
       3.0966994740242177 0.48537162297894076
000320 4e 89 18 67 fa a6 e3 3f 5d 52 2d 10 dc e5 02 c0
       0.6141330731955266 -2.3622361434775443
000330 7c 3b 1c 90 19 4d f1 3f cd 78 6c 5b 9c bd 0b c0
       1.081323206835548 -3.4675833837965
000340 33 fa 0f c3 c3 20 10 c0 f6 33 4b 4a 83 db d1 bf
       -4.031996772623233 -0.27902300124406965
000350 22 6c f5 47 bf 87 08 c0 d5 bb a4 ed 6e df fb bf
       -3.0662828084728213 -1.7420491488407965
000360 57 ad 0a 8e 54 69 01 40 7c 43 f8 4e 06 b2 0c c0
       2.1764308068283458 -3.5869260949625055
000370 e5 e4 f0 29 89 86 10 c0 cf b4 ce ea bd 9e 0a 40
       -4.131382613494883 3.327510675843406
000380 0a 3b e1 99 98 4d 00 c0 f9 89 ea 7a 0a 56 17 40
       -2.0378887197360926 5.834024353566286
000390 c9 ee 89 a6 05 57 0a c0 54 b0 11 39 1d 6d 0f c0
       -3.2924912463039147 -3.928278394558257
0003a0 27 e1 7a 56 7f 20 57 3f 0f c5 f6 8a 10 3b fe bf
       0.0014115565808606263 -1.8894200733450963
0003b0 23 ee 9d ef 22 ce f5 3f e2 46 2f 24 4c 6f f2 bf
       1.3628262863193263 -1.1521722234214669
0003c0 d3 67 3d dd b7 cf f4 bf 12 ec c7 f3 d3 16 08 c0
       -1.3007124559576269 -3.011146454371109
0003d0 15 66 0b 11 4b 71 f3 bf 7e a3 c6 eb 69 2e 01 c0
       -1.2151594796945393 -2.147662965774031
0003e0 ee 3c fa 80 49 a9 fe 3f 3f a9 c8 76 30 7a e2 bf
       1.9163298643286981 -0.5774156875607231
0003f0 b1 69 d5 18 6f 82 f2 3f de 5c 23 58 ae 86 04 c0
       1.156844231611654 -2.5657622228423937
000400 16 37 78 51 23 db f6 bf dc 59 25 54 1e db 00 c0
       -1.4285004789739495 -2.106991441144812
000410 da fd 63 14 a5 87 f4 bf 4e 04 36 ee c3 e4 d7 3f
       -1.2831164165980824 0.3733377290992096
000420 e7 62 3b 87 07 c4 fd 3f a7 a6 50 66 d3 7f 01 40
       1.86035874199859 2.187414931617997
000430 80 65 dc 87 ec 38 b4 3f 2a a6 5d 50 5f 3f d4 3f
       0.07899359051625332 0.316367939455264
000440 ff 0d bc 84 32 d8 f1 3f 3d 9b 68 dd 37 2f 0b 40
       1.1152825531906954 3.3980557725475635
000450 2e 80 5c e0 cf f6 11 40 29 08 87 7d 51 56 d7 3f
       4.491027360578341 0.36464345224897216
000460 f7 7a 8b a2 3b ee 9b 3f b1 b2 74 67 02 be e8 bf
       0.02727597407908441 -0.7731945057508566
000470 7b 5d 51 cd 80 c3 ff bf 4d 99 19 71 c1 fc 09 40
       -1.98523025705603 3.2484158359467643
000480 2f 13 0e 45 1a 64 d3 bf e8 63 d5 a8 f4 a4 04 40
       -0.3029847788205186 2.5805447759744204
000490 c1 11 0e 43 29 5f f5 bf c5 e7 45 66 9a 31 d2 bf
       -1.3357327098211587 -0.28427753436664843
0004a0 75 54 ec 8d 19 92 95 3f ec 78 b4 c7 5d 30 fb 3f
       0.021065139090826485 1.6993081856704135
0004b0 15 d2 49 8b d5 5e f3 3f bf d7 79 72 40 17 01 c0
       1.2106528702689776 -2.136353391974779
0004c0 c8 f5 bc 10 cd c2 e8 3f 88 11 00 37 50 35 0f 40
       0.7737794234196196 3.901031903924551
0004d0 5b be 74 f8 6f 1c 07 40 fc 7c de 59 c9 6e 06 c0
       2.8888854418399155 -2.804094984152128
0004e0 f4 bb ca e7 df 5a b6 bf c1 2e d3 54 a4 18 c2 bf
       -0.08732413681967427 -0.14137701169817343
0004f0 b8 dd b6 c9 e1 79 0a 40 cc 3f 9f d3 90 04 e5 bf
       3.3095126875811864 -0.6568073399775982
000500 41 2b f4 85 61 fc e2 bf f4 2c 08 36 3a 8e 0e 40
       -0.5933082214627136 3.8194469662899966
000510 38 19 80 24 56 77 0a 40 d7 35 ca 67 40 61 e1 bf
       3.3082697726814807 -0.543121531214349
000520 79 0d 03 18 3a 6f 07 40 5c 05 00 74 af 4b 6a bf
       2.9293100238734806 -0.003209917718778028
000530 18 8c 5d f5 a6 0b 0a c0 28 88 ed b2 20 fa d3 bf
       -3.255689541737876 -0.3121415850965854
000540 88 91 11 91 e5 0f 0b 40 20 65 85 eb 81 23 05 c0
       3.3827620824324107 -2.642337646492379
000550 0c 15 5a 20 2b 07 f6 3f 0f 3c 3e 6f 22 7f f3 3f
       1.3767501128907638 1.2185386987146136
000560 bf 1e e6 74 e8 46 07 40 d2 c1 9a 2d 10 e4 b2 bf
       2.909623063347538 -0.07379246819869614
000570 10 91 80 de e9 ed 82 bf 32 36 3e 1c b5 c7 f9 3f
       -0.009242846586922343 1.6112567046396973
000580 44 94 c1 27 24 be e9 bf b2 91 e3 8b 4d f0 f1 3f
       -0.8044605995643299 1.1211677040492813
000590 4a c3 51 4a 39 33 f9 3f 42 73 f7 65 84 f2 de 3f
       1.5750058081723233 0.4835520740287401
0005a0 29 3b 78 ae c2 a2 f5 3f 4c 43 1f a4 24 39 d0 bf
       1.3522364440174874 -0.2534877398257336
0005b0 20 96 09 cd 32 20 6e bf 2a 32 7b 13 b9 0f 29 bf
       -0.003677462788163735 -0.00019120344381064305
0005c0 ac 3b ff ee f4 f1 a2 3f fa 19 4f e2 72 59 e8 bf
       0.037002233671607015 -0.7609190387818778
0005d0 3c f8 ab cd 8a 1b e3 3f 9f 77 a3 ae 4f 4f e5 3f
       0.5971120850588316 0.6659315501126349
0005e0 ba 84 1e 85 08 7c f1 3f 22 c0 a4 ec b1 09 c1 bf
       1.092781562802243 -0.13310836844311874
0005f0 32 02 54 7f 04 bb d5 bf 7d d6 1b 55 72 af d4 3f
       -0.3395396464766548 0.3232084113254599
000600 c1 36 dd 70 a2 cf f7 3f 8c 4a 50 47 11 72 f7 3f
       1.488192025065857 1.4653485093773808
000610 90 9e 5d 49 d4 4c f9 3f cb 38 20 63 fa fa e5 3f
       1.5812571397636113 0.6868869720508654
000620 57 93 b7 d0 d6 26 e1 3f f2 c5 f9 fc 4a f7 04 c0
       0.5359911037927344 -2.620748497364496
000630 d6 f7 da 9f 3a dd f1 3f e5 49 1a 91 81 29 cc 3f
       1.1165109867429144 0.2200166662701825
000640 f1 1e 20 7e 3f 73 e9 bf fd e5 54 95 2f 9d e9 bf
       -0.7953183616054657 -0.8004377285607799
000650 21 38 88 da 4a 52 e5 3f e5 1d db d6 5b e1 e6 bf
       0.6662954586224751 -0.7150096126942428
000660 28 1e 5d 15 0a b1 76 3f cb e0 fa 88 25 b1 0c c0
       0.005539931667790245 -3.586497373729889
000670 f4 a3 06 4b 19 4e 10 c0 1c 5a 80 d5 d5 cc f6 3f
       -4.076268360405255 1.4250086154839954
000680 07 4a 04 84 ec 18 f6 3f 94 6b b5 7e 78 99 f8 3f
       1.381084933939407 1.5374684285695581
000690 70 70 b3 85 1d 09 ea 3f f8 a8 7c 7e 5f 36 e8 bf
       0.8136127101274848 -0.7566373320053392
0006a0 f7 48 3e 90 9d cb f7 bf 3e ed e0 92 6b 9f e3 bf
       -1.487210811090845 -0.6132104748461769
0006b0 71 b4 52 80 ec 16 00 40 e9 91 89 20 1c ec a8 bf
       2.011193277858688 -0.04867637536225173
0006c0 39 04 dd 64 2f 70 ed 3f 32 ab f7 cb 7c de f0 3f
       0.9199444742190571 1.0543182342032194
0006d0 6f be f3 6f a7 eb a1 bf 85 10 e4 29 ae 91 f5 bf
       -0.0350010227356251 -1.3480664860117326
0006e0 05 43 0c 7c e6 06 f3 3f 0a 22 1a 96 79 ff ba 3f
       1.189184650957203 0.10546073832131966
0006f0 56 0e 90 6a 31 c0 de 3f 5c dc bb 96 1d 5f f0 3f
       0.48048053175464156 1.0232215774574547
000700 89 d6 cd 72 46 e4 de 3f 3e 1c 15 1e 7e ca d9 bf
       0.482682811845145 -0.40298417031994294
000710 8f 6e 47 e6 0e e4 e7 bf c0 12 4f 83 20 f4 e7 bf
       -0.7465891358983344 -0.7485506596209106
000720 51 17 48 d8 77 69 fc bf 14 22 6c c4 f9 e1 cd bf
       -1.77574905858042 -0.23345872965752845
000730 17 c1 ca 29 b2 2c d7 3f 8d d4 b8 e6 13 1c fd 3f
       0.36210302430392133 1.8193549168184149
000740 f3 bb 92 53 a6 20 e9 bf 96 14 cf ac 92 ba fb bf
       -0.7852355606354408 -1.7330500364635433
000750 0e 72 4d 4d 97 d3 e5 3f 7e b7 d1 e7 d9 8b c1 3f
       0.6820789823355555 0.13708041972443746
000760 b6 d6 51 f7 3a b4 39 3f ba 13 2e 7f a3 a6 ec 3f
       0.0003922122917353431 0.8953416332229758
000770 01 13 a9 16 64 a8 b5 3f 24 fd 42 49 eb 33 f7 3f
       0.08460069230302382 1.450175558260363
000780 8a 35 8d 99 18 84 f3 3f 1e 92 0a 92 6c f6 da bf
       1.2197500227078728 -0.4212905336555951
000790 a5 b6 48 1d 22 e1 e9 bf 71 d3 81 94 84 95 e6 3f
       -0.8087320873216483 0.705751695683473
0007a0 e1 d7 d3 19 83 ed f3 bf 16 a9 f6 7d d9 7a c1 bf
       -1.245486355675432 -0.13656157160341625
0007b0 e8 73 c0 f8 62 fb f3 bf 55 98 01 f9 42 94 a6 bf
       -1.248873683630558 -0.044099896332043066
0007c0 72 7e b0 7d 20 a9 c2 bf 24 17 3b 56 57 e7 f8 3f
       -0.14578634392909212 1.5564797752753714
0007d0 99 4a 21 36 1d 6f f1 3f 6f 65 fa 82 f8 49 e2 3f
       1.0896274675803055 0.5715296323934761
0007e0 0e e6 ff 40 e4 a6 f0 bf cc 26 1d 4a 2f fc 77 bf
       -1.0407450236365352 -0.005855736469877203
0007f0 fe 8e a4 01 44 bd d7 3f 8b 99 9e 45 64 cf c5 bf
       0.37092685852461205 -0.17039159201995022
