weights/names_rnn_Why.npy (npy, 11648 bytes, 1 tensors)

array f8 [18, 80]
000000 a1 c1 a7 f1 4d 73 bf 3f 30 6d 7d 44 9c b8 b7 bf
       0.12285315656459385 -0.09266068145864348
000010 ad 3d a0 67 b3 6d 73 bf af 10 c1 5b 29 60 e0 bf
       -0.004743290710407616 -0.5117384712289289
000020 23 f0 c0 34 93 79 de 3f 40 0d 5f 08 fe 9b 9d bf
       0.4761703505680563 -0.028915375958388667
000030 5c 30 a4 30 70 3b f2 bf 08 df 28 e5 03 95 d2 3f
       -1.1395112896016348 0.2903451669585455
000040 ba 5e 44 da b3 f4 cc bf 51 97 35 fd 21 5e a2 3f
       -0.22621772916385458 0.03587442604002312
000050 80 ff a0 cd 88 81 b9 3f de ef e6 d6 fd 5e d0 bf
       0.09963278789746077 -0.2557978247311875
000060 5c f5 74 fd 09 8d cc bf f0 47 15 80 2f d3 bd 3f
       -0.2230541694242828 0.1165036857321693
000070 ed fc 56 49 63 a2 cb bf de 3e c9 9b 0e 88 d4 3f
       -0.21589318352741974 0.3208042641972336
000080 67 f1 16 65 d2 20 d5 3f f9 2e 67 a5 ee 8f b3 bf
       0.33012828704865743 -0.07641498125229508
000090 9c 4e 02 c9 ed 8a cf 3f ad e3 d2 df e6 76 b3 bf
       0.24642727198498882 -0.07603304829070963
0000a0 10 0a f2 67 ea ab c6 3f 12 d2 e2 68 e2 4e c5 3f
       0.1771214492365094 0.1664698612345466
0000b0 53 d0 c7 fc 72 2e de 3f bc 0d 21 9c 2b 6e c7 bf
       0.47158503232572463 -0.18304963229648574
0000c0 15 e2 2a d0 1d a2 d0 3f 96 84 5e 57 89 f0 f2 3f
       0.2598948033223974 1.1837247288570203
0000d0 1a 86 01 53 4c 65 e3 bf 28 55 cc 6e b0 1f ba bf
       -0.6061154957971582 -0.10204603867562823
0000e0 5a f0 a7 77 fc 2f e0 3f 70 25 e5 04 58 83 82 3f
       0.5058576905280561 0.0090395809644572
0000f0 88 f8 ac bd 25 e3 e0 3f 5a 21 85 93 22 1e d4 bf
       0.5277279572108151 -0.31433929830793306
000100 2c e4 bf 75 d9 11 c2 bf 91 3c 81 19 54 a8 d9 3f
       -0.14116972207537637 0.40089895716386886
000110 3d 2a 8f f5 20 1d e7 bf a6 cc 58 08 8b 86 e2 3f
       -0.7223057552412865 0.5789237177872522
000120 da c4 f5 6f 13 0a ca 3f b6 38 95 66 9b 15 b9 3f
       0.20343249289320547 0.09798594717469453
000130 a9 2f b3 d5 f1 00 b9 3f 3e fb fa ea 52 42 cf 3f
       0.09767066447528684 0.24421154473926693
000140 da 2b 80 e8 6c 91 c4 bf 1a 4f 50 2d 79 3d d5 3f
       -0.16068803169795737 0.33187703538099955
000150 f6 ce a0 31 93 d3 c7 3f 30 3d dd 09 87 8f 70 3f
       0.1861442558598509 0.004043128484979605
000160 4a 8d 5b 40 4c 19 c6 3f 70 22 aa f5 fc ef d5 3f
       0.1726470293279852 0.34277271261866016
000170 b9 89 6a 78 00 f3 b4 bf 11 ae b6 a1 2b 00 e4 3f
       -0.08183291377876047 0.6250208052128433
000180 dc 44 a7 28 b0 20 da 3f ba 66 08 24 9a 27 e5 bf
       0.40824512453134587 -0.661084242226216
000190 ea 7c 66 3c af 7f dc bf 24 3b ea d7 84 c1 be 3f
       -0.4452932443472962 0.12014036437379311
0001a0 11 d2 8d 70 c2 82 d1 bf 9e d4 cd 5e ac d8 a5 bf
       -0.2736059283409143 -0.042668711254841826
0001b0 ea 2b 14 59 05 9c de 3f 21 3d 54 37 35 81 e6 bf
       0.4782727594289883 -0.7032724457402858
0001c0 74 57 26 cb b9 88 a9 3f 18 79 c1 0a c3 d5 cd bf
       0.0498712597356378 -0.23308599496062565
0001d0 8e c9 5f 21 8b 11 be bf 1e 07 32 92 e1 10 e1 3f
       -0.11745519223021558 0.5333106856707877
0001e0 79 4a 75 69 1b 90 c5 bf 75 60 4e 9d 02 d4 cc 3f
       -0.16846029900860396 0.22522003823246775
0001f0 68 f3 34 4d c6 c5 91 bf 51 89 05 d0 c2 45 ef 3f
       -0.017356012785274016 0.977265745441665
000200 46 2c d2 a5 91 6f c4 3f e3 7d 6d 60 60 f6 9b bf
       0.15965481373527463 -0.027307039151649348
000210 bb 9a e7 0f 57 51 d2 bf e9 16 2b d4 6b 51 cf 3f
       -0.2862146048850424 0.24467227802067917
000220 a8 f3 cf 86 bc eb d0 bf fc 1f d6 a6 9e 2a b4 3f
       -0.26438820996537027 0.07877532551913186
000230 39 00 4f f4 ac 44 d6 3f 33 b8 54 75 90 1a db 3f
       0.34794162615071716 0.4234963556108397
000240 74 90 4b 60 78 f0 d9 bf 50 6d 1a b3 99 c2 c6 3f
       -0.40530213741136056 0.17781373257899213
000250 d4 08 ea f6 4d ca d1 bf af e0 e0 9f 64 a3 d3 3f
       -0.27797268974985667 0.3068477212250497
000260 55 6a 16 c2 e9 59 b9 bf c8 27 61 45 c2 2b b0 3f
       -0.09902821529832669 0.06316770738445066
000270 53 6a f9 44 b7 3f d9 3f 5a 13 20 6a a1 70 d5 3f
       0.39451390968102834 0.3349994217281186
000280 7b b3 6a c0 89 d7 a6 3f 53 c5 57 74 99 18 d0 3f
       0.044613175142649696 0.2515014301453295
000290 41 90 13 e5 76 0f b2 3f 62 a3 c0 0b 02 fa b7 bf
       0.07054846852003128 -0.09365856921125507
0002a0 db 63 5a 7b 27 94 d4 3f 5b 86 39 57 63 6e b7 bf
       0.32154261633109876 -0.09152813796529229
0002b0 29 ba 97 c9 b8 50 ed bf 10 93 20 49 3d 2b c5 bf
       -0.916103738532745 -0.16538206167856417
0002c0 bb 2b 6f d0 d2 8d d4 bf 27 25 7f ec 83 40 d5 3f
       -0.32115621905239394 0.3320627030885412
0002d0 41 60 76 14 bf f9 c1 3f b7 ff 0a bf f2 aa d6 3f
       0.14043415545597962 0.35418385178126804
0002e0 d5 12 57 b9 d1 f0 b5 3f ad db d1 73 15 eb cd 3f
       0.08570585989862008 0.23373668818723328
0002f0 bc 59 55 ed 58 04 d9 bf b7 ab 89 37 cf e0 c1 3f
       -0.3908903424939145 0.13967313968472947
000300 94 4c 4a b6 c8 ee d4 3f 4a 8d 88 14 83 66 c4 bf
       0.32707422067432756 -0.15937841894729338
000310 6a cc 92 aa ba 06 db 3f 41 c8 6b f6 49 dc cc bf
       0.4222857156521004 -0.22547268421436864
000320 91 7a 43 2f 6b 73 e3 bf 62 b9 99 e8 7f 7c ea 3f
       -0.6078391955487225 0.8276977103212568
000330 8f a5 90 55 3a 54 d4 3f 56 0b 33 81 c2 0e e0 bf
       0.3176408610912284 -0.5018017314363117
000340 0b 25 ba 16 dc 0c d9 3f 60 07 78 ca 9c a3 f0 3f
       0.39140989512868946 1.0399444493236487
000350 fd 04 e1 a1 6f 75 e1 bf 5a 72 1d d5 ef e1 d1 bf
       -0.5455854570101618 -0.2794150906754901
000360 e1 1a 7f cb 56 5a e8 3f c1 4b 7f 8d 1e 46 e5 3f
       0.7610277151623813 0.6648094905489118
000370 ec f4 1e c3 f4 7d d0 3f a1 ec dc 37 45 6c d1 bf
       0.25768775038507274 -0.27223329978341765
000380 cd a9 0f 82 bf de bd 3f d0 b5 4f 85 15 ed ce 3f
       0.11668011594125645 0.2416102314886488
000390 aa aa 0f 1b 27 b9 d1 bf a6 8a d9 3f 8c 46 ef 3f
       -0.27692582743353944 0.9773617980066163
0003a0 bc ae 72 d6 fd 90 e0 3f 49 bb b9 d6 01 3d a2 bf
       0.5176991642415127 -0.035621697866068454
0003b0 22 e6 71 f6 15 ed e1 3f 03 dd 53 17 45 9f a7 3f
       0.560191136682253 0.04613700780640253
0003c0 0c 82 4d 25 d6 a0 d1 bf 12 29 b5 57 67 6b d1 3f
       -0.27544168131683544 0.27218040051651926
0003d0 d8 c9 37 ae 40 06 a1 3f 6f da 55 2e da cd d4 bf
       0.03325082899745596 -0.3250642254346649
0003e0 11 c6 af 29 70 c0 e0 bf 4d d0 f5 2a 65 dc e1 3f
       -0.5234909834090918 0.5581537093226047
0003f0 ad e4 ee 20 8f 93 d2 3f 2d 1c 57 f2 d8 f1 c1 3f
       0.29025629249697255 0.14019309838315178
000400 6f 80 e1 c8 87 f3 d7 3f f1 4b 5a 2d 5c 76 d6 bf
       0.374238916561814 -0.3509741251847905
000410 e4 4f be 95 7c f6 a2 bf 24 cf 7b 8d fd 97 a6 bf
       -0.03703679397509044 -0.044128345032645094
000420 18 b1 d9 87 35 54 c0 3f 5e 69 b0 df 56 40 dd 3f
       0.127569857915099 0.4570519623245185
000430 65 2f 10 cc 99 ae b8 bf 30 4e fe 23 ab c1 e6 bf
       -0.09641419631969723 -0.7111411765094484
000440 fa 5b 80 0b b6 ee e0 bf a9 1b 10 7d eb 8e ab bf
       -0.5291395401608263 -0.05382476712843893
000450 6c 27 cd c7 0e 36 e2 3f a7 b2 de 9e 0b da e2 3f
       0.5690988447542913 0.589116869252014
000460 10 da 7f a7 aa 02 b7 bf 86 e5 1d 41 fe f8 b5 bf
       -0.08988443936673485 -0.08583058442845556
000470 60 90 7e 01 bd 6c b5 3f cc 7e 7a 37 a4 3d f6 3f
       0.08369046484455245 1.3900491873863983
000480 65 4a 74 c2 cc 1d ea bf 08 80 cf d2 d6 db c2 3f
       -0.8161376760420579 0.14733395856364973
000490 93 9c ba 5c 5a 8e a6 3f 93 d2 3a 2f b2 7f bd 3f
       0.04405481702752314 0.11522973683424657
0004a0 70 cf 73 5a 61 39 c3 bf 25 70 f0 26 fa 9e e2 3f
       -0.150188607374385 0.5819063911944836
0004b0 51 07 da 7a 67 6e e5 3f 9a 35 00 1a 6e 43 b5 bf
       0.6697270774313698 -0.08306015143189996
0004c0 85 90 b6 f4 42 53 a9 bf 9c d8 cb 00 aa 52 b2 bf
       -0.0494633601877306 -0.07157385367813379
0004d0 c1 4a 0c c7 2d 55 d8 bf b1 c1 e1 b7 74 62 c1 bf
       -0.38019890249522 -0.13581713656050234
0004e0 d0 50 f2 3d f3 18 b5 bf f6 a3 59 1b e6 48 d0 3f
       -0.0824119592892345 0.254449392995013
0004f0 e2 0a 47 65 0b c7 93 3f 3b 79 46 4a dd 45 c3 3f
       0.019313982063759456 0.15056959273074164
000500 ac f8 c1 ab 36 08 cd 3f 31 63 74 63 ca 97 bc bf
       0.22681315790754775 -0.11169114044276963
000510 63 43 17 9e 8e 2e d4 3f 6d 5f 7c 3b fb 07 ba bf
       0.31534161985933035 -0.10168428613940046
000520 64 00 50 14 c9 f4 b5 bf fa 22 49 20 a5 54 95 3f
       -0.08576637979422369 0.020830707641183978
000530 89 41 e7 8e aa 34 e4 bf 5c 0e a4 71 bd 51 c5 3f
       -0.6314289847451146 0.16655700730199186
000540 ec 15 c6 ff a3 e3 b8 bf 5c ec 4f c7 5f a7 bc 3f
       -0.09722352022625785 0.11192892662067905
000550 97 6c 32 23 0c a7 a8 bf 9d 16 1f 19 2b 42 d6 3f
       -0.04814947061205393 0.34778859570756443
000560 71 b6 a2 36 32 aa c0 bf 9e 99 0b 31 94 42 be 3f
       -0.13019397418740966 0.1182034129848035
000570 a3 8b 44 59 a2 f2 bb bf 89 53 61 e2 8a d1 85 3f
       -0.10917105368984763 0.010653576882910592
000580 04 3d 32 f1 b0 5a aa 3f 41 ea a5 1e b4 84 ad bf
       0.05147316879549105 -0.05765307306406387
000590 3d c1 e2 f9 bc 2a 85 bf df f9 3e c9 ce 03 c5 bf
       -0.01033542287436317 -0.164178703560494
0005a0 3e 87 f3 53 96 b8 9a bf cf 6e 6c 30 ca 4c c2 3f
       -0.026094769357661855 0.14296843876296925
0005b0 34 73 7f 7b 6b 1b 9b bf 33 b0 dc dd 76 ef 6a bf
       -0.026471785938940687 -0.003288013612197127
0005c0 db b3 1a b4 05 af ca 3f d1 6a a7 84 72 d7 da 3f
       0.20846625608592614 0.41939986185540784
0005d0 6c c2 e4 0f 0b c5 d8 bf 0c c3 42 cf ac 15 d5 bf
       -0.3870265631876808 -0.3294479393035068
0005e0 2a b0 dd c5 cc 72 c9 3f 05 9f 84 1e ab 04 bd 3f
       0.19881591473984034 0.11335248465604415
0005f0 fb b7 e5 67 8b 31 c0 3f 5a 3b d8 9e d2 f9 c2 3f
       0.12651197980034098 0.1482489848717375
000600 58 b2 45 42 ca 2c c0 bf 89 d6 58 a9 16 3d c8 3f
       -0.1263668845744117 0.1893642737283481
000610 1e 2c 21 15 e0 85 bb bf 58 fd e3 1a 2f 81 b8 3f
       -0.10751152530535577 0.09572119146831903
000620 ca a6 88 f1 73 91 cc 3f 27 08 be a8 33 48 c0 bf
       0.22318887036936125 -0.12720342387552927
000630 8b 9a 8b 09 38 9b 88 3f f1 fa 37 66 19 a1 b3 3f
       0.01201480654840494 0.07667692895482127
000640 4a 4b 27 f8 72 a7 c9 3f de 99 40 8b f4 9c bf 3f
       0.2004226409613586 0.12348869704928897
000650 95 c0 22 d6 2e 01 90 3f b3 4d 6b af d6 b6 98 3f
       0.01562951261502173 0.024134973961577887
000660 cd 43 1a 83 66 2c bb bf 4f 03 33 cd f8 24 ab 3f
       -0.10614624691721915 0.053016448067416115
000670 27 bb df a6 d2 e9 cc 3f 17 d8 26 42 cb 6e bf 3f
       0.2258857073606688 0.12278433194191539
000680 75 7d a1 e7 8f 50 cf 3f 48 b9 e7 fa db 3b d1 bf
       0.24464606103991185 -0.269278521561223
000690 ce cd 4e c3 d1 1b b1 bf f1 92 8f ae 6d 19 b3 3f
       -0.06683074014909282 0.0746067572759548
0006a0 b5 17 df fd 9a 63 b0 bf c3 17 78 78 4f 4a c5 3f
       -0.0640198583415373 0.16633027441292655
0006b0 89 2d 50 6a 15 c4 cd bf 2d 2e da b0 ab ae c5 bf
       -0.23254649821351972 -0.16939302573551754
0006c0 ac 0b 8d f2 07 ca c9 bf 21 99 6c 8a 88 70 d7 3f
       -0.20147799819286882 0.3662434913443509
0006d0 2c aa c2 5b 3b 44 d0 bf 1b 36 91 5d 3c d4 e1 3f
       -0.25416454277970746 0.5571576907620427
0006e0 d4 b1 88 1a e4 5f bf bf d1 92 e8 34 07 89 d0 bf
       -0.12255693099786608 -0.25836353461117506
0006f0 b1 cc 5e 70 c1 c7 c5 3f 5e de fa 66 e8 ab f2 3f
       0.1701585577662619 1.1669696829466356
000700 5e c4 59 3b b4 18 a2 3f bf 6b 09 b6 34 ac b7 bf
       0.035344726796105105 -0.09247140354402371
000710 00 0b d9 3a 6b 3d cf bf 11 5d 07 ce 05 e2 c1 3f
       -0.24406185506276046 0.13971016464231714
000720 08 c8 a8 20 9b 40 c9 bf d5 c2 f3 41 7e ca c0 bf
       -0.1972841176480531 -0.13117960186311586
000730 ba 07 0e 1c d5 03 d1 3f c1 e4 c4 5c c8 a9 a1 3f
       0.2658589147541722 0.034498463940005226
000740 d1 72 aa 3b df cf d2 bf 3a 86 66 fa 6f ed a6 bf
       -0.2939375002550096 -0.044780253712144405
000750 56 e5 c3 c1 c1 3a d2 bf e1 04 9a aa 84 d0 c2 bf
       -0.28483623430618843 -0.14698847131879858
000760 10 7e 60 a1 5a da 8a 3f d4 32 68 fd 2b 13 c3 bf
       0.013111789750893471 -0.14902257798566743
000770 d2 9e 99 87 cc ec bf 3f 25 59 c5 03 4e 4b c3 3f
       0.124707015138138 0.15073561843991815
000780 6e 9b 67 5b 64 9a d9 3f 16 2b ec 0b 12 be a9 bf
       0.40004834104768505 -0.05027824779070593
000790 5e 42 b6 ad 55 b9 db 3f 9b 50 b0 b3 81 70 da bf
       0.4331869312673343 -0.4131168608448747
0007a0 09 90 86 53 09 7a c6 3f 5e bb ab f7 a3 ec da 3f
       0.17559925630951081 0.4206933897648265
0007b0 cc af 69 9e 96 e7 d9 bf a5 af 3e 76 e5 02 d6 3f
       -0.404760031414068 0.3439267782912288
0007c0 a3 9e 26 01 93 5c d7 bf 46 1d 3c bb 2a 4e d1 bf
       -0.36502528297794806 -0.27039593014383845
0007d0 20 79 a8 9b 56 50 c0 bf 94 f1 74 17 28 72 d8 3f
       -0.12745173073285176 0.38196756640152185
0007e0 dc b9 cd b5 d0 17 cf bf 22 15 78 46 e6 ba d1 3f
       -0.242914284488008 0.27703244096513135
0007f0 66 98 e5 05 92 6a ce bf 61 73 a1 29 34 01 c4 3f
       -0.23762727058346228 0.15628673584697153
