weights/names_RNN__Why.npy (npy, 11648 bytes, 1 tensors)

array f8 [18, 80]
0	0x4003f0d90cb3434d	2.4926014892775243
1	0x3fd2b79a290fcedd	0.2924561882966666
2	0x401ac4c4f91270dd	6.6921576421266
3	0xc0257cf3d1ff7d44	-10.744047701299344
4	0x40224532c29f4d40	9.135152894922271
5	0x3fe928ca0437e50b	0.7862291414632251
6	0xc010e9c36e8cbfea	-4.228284575787237
7	0xc00a0c021048c835	-3.255863311024792
8	0x3feae6907e291efe	0.8406450714182652
9	0x3ffa4725665df027	1.6423696516712967
10	0xc022f6d130d9d96f	-9.482064749329508
11	0x402647f129b46c33	11.14051180198121
12	0x40073726febc0a26	2.9019298459181924
13	0xc00ebd9449e433e0	-3.8425679943816107
14	0xc019b5c38c59d8f7	-6.427503769859178
15	0xc00752860a6e6db3	-2.9152947249364956
16	0x400836535e03c3aa	3.0265261979006555
17	0xc02152f9ddf59c42	-8.66206258414434
18	0xc007873af8cc0e8a	-2.9410304486535255
19	0xc00f865991a96abf	-3.94060052679319
20	0xc01a2ba5507fde19	-6.542622812084596
21	0x402334cf19b9e2f7	9.603142551366075
22	0xc011a25bb32d926b	-4.408552932411662
23	0x4021a398fdc6c81f	8.819526606097552
24	0xc02cc02a72eb1073	-14.375323859400146
25	0x400d9c06b6327f7b	3.70118467656715
26	0xc0252009720540e4	-10.562572062627119
27	0xbfd1b8a9099a5752	-0.27689577043326097
28	0xc02d5f0582badcdc	-14.685588918028252
29	0x40126978037a8a1e	4.602996878008097
30	0xbfd1ed297d95f4d3	-0.280100224153853
31	0x40262b295869281d	11.084299815022002
32	0xc025bce080a28473	-10.868900317991779
33	0x4029471555bea29c	12.638834647675417
34	0x4023eec926ad73e9	9.966378410981592
35	0xc01cf1f4767bbcea	-7.23628411417233
36	0xc026c86ce91611e2	-11.39145592111976
37	0x4017bf852c725233	5.937031454541784
38	0x402c5a1fdb83e752	14.176024303294671
39	0x401577b4cc19186e	5.366900624305442
40	0xc00ed5700cd418eb	-3.854217624876687
41	0x3fe01a92c6c21d2c	0.5032438165662021
42	0xc0034dcc3b7b7cd2	-2.4129871985493105
43	0xc02a1d4178e43f6b	-13.05714013849475
44	0xc00641700e76b0ad	-2.781952012059341
45	0x40191131f9bf83f2	6.266792204202817
46	0x400d34f6fbccaece	3.650861708816456
47	0xbff94c2adc76420b	-1.5810955631060348
48	0xbfe2b2767a4f35a6	-0.5842850102287016
49	0x400429cfe730a76a	2.5204160749171267
50	0xc02a808d776920c5	-13.251079303343781
51	0xc011844d225c9ade	-4.379200493719251
52	0x3fca49e6919bfe8f	0.20538026914436044
53	0x400ce2596ed1c47f	3.6105221421972256
54	0xc01f7fe67f6e2dc3	-7.874902716731813
55	0xc00688e925b193cb	-2.8168509430711075
56	0xc0204e1a2014fe74	-8.152543070376147
57	0x40332da46c803788	19.178290158560714
58	0xc022cb67f1f09633	-9.397277413004394
59	0x402cb340b6db3513	14.350103105791765
60	0x3fe33a036553f396	0.6008316973744623
61	0xc01e954bdbc8c6e2	-7.645797189835976
62	0xc00531821a19aa2c	-2.649173931034303
63	0xc00ad989634a9e19	-3.3562190777918315
64	0x401a5acdc1a811d8	6.588675523646508
65	0x401182eda0cbf032	4.377859604308513
66	0xc002fb25bde9ef47	-2.372630580617542
67	0xc00e1257f0a9de53	-3.7589567949142206
68	0xc023664d2d948c0e	-9.69980757177657
69	0xc017287b798e6be4	-5.789533519094196
70	0x400a3f0b0b5ac0fa	3.280782784182631
71	0xc01bddf92aea3802	-6.966770811601238
72	0xc0301155fc28932f	-16.067718276887884
73	0x40250e701a4fd655	10.52819902634216
74	0xc02a7f3415bb4262	-13.248444251164248
75	0x4016aa28a8c54171	5.666170727767494
76	0x4002d28bf30e9279	2.3528059948751516
77	0xc016eee847256e36	-5.733307944926812
78	0x402a11b0a0045f71	13.034550667318145
79	0xc0212c11458f157a	-8.586069272724433
80	0x400cb0354980b0da	3.5860391371153186
81	0xbff01dc045490c0f	-1.0072634417017559
82	0x401aa5c76bb5f6c7	6.661893542271804
83	0xc025a5831fc2f6b6	-10.823266022252351
84	0x4024568dab284788	10.169049595515176
85	0x3ff20beab146825b	1.1279093670674658
86	0xc017b3df91281653	-5.92565752799199
87	0xc005fcfcdf0ea232	-2.748529188760835
88	0x3ffae415cb7ecfde	1.6806848477399323
89	0x400578b27cf0e6d3	2.6839341889397956
90	0xc021da67e376e35e	-8.926573856604303
91	0x4027a2b9a92f8b3e	11.817822730115605
92	0x40089df6ac2e5da6	3.0771306468629573
93	0xc0126a065484a5f4	-4.603539772602279
94	0xc0176692f0a2d9d0	-5.850169906558634
95	0xbffb000aa6ca6026	-1.687510158086306
96	0x400992791fbf3ed4	3.196520088218543
97	0xc02220edd0d1d059	-9.06431438981251
98	0xc00c8eeeb75510d0	-3.5697912524065956
99	0xc002c959f6c3ec0b	-2.348316123823229
100	0xc015e285f6e0014b	-5.471214158460792
101	0x4022cbcca4d55ef6	9.398045683904893
102	0xc00c76574d78c1af	-3.5577837040402396
103	0x4024e1253fd0c530	10.439737314448024
104	0xc028150422309f48	-12.041047161517454
105	0x4011eb42f97dac6f	4.479747675223833
106	0xc0246cdf352cef6f	-10.212640439734711
107	0x3fd87f51b296e6c4	0.3827709430730517
108	0xc02c92940cad0c31	-14.286285778163888
109	0x400fc19d6d3bdc2f	3.9695385488407946
110	0x3ff4e13aca672f0b	1.3049877077455132
111	0x4026320765ee85b8	11.097712693563935
112	0xc0261e8fafcd9320	-11.059689992756432
113	0x402a8ee906f98b7f	13.279121606790566
114	0x40223feb23091d83	9.124840826857286
115	0xc01a6567c441cb0f	-6.5990286507756215
116	0xc02781b0ccafcbc2	-11.753301998576607
117	0x4013c6309f366f4f	4.943544852921902
118	0x402bf2668263f2aa	13.973438334179566
119	0x40116073ce6bed57	4.344191766106937
120	0xc00a8ee89599eb39	-3.319779556998949
121	0x3ff558273687ac2d	1.3340217714383116
122	0xc007494f31eaf28f	-2.9107955837083135
123	0xc02a2e518c416864	-13.090465910896633
124	0xc00acab8bf65b17c	-3.348985190668996
125	0x401588845f2d2511	5.383317458277149
126	0x40074cbf2447c407	2.9124739488984264
127	0xc0098e5df5170c7a	-3.1945151469859043
128	0x3fade51ff3853fdf	0.05838870856916833
129	0x3fe8ce7961ee131b	0.775204364079943
130	0xc02afff7261589f1	-13.49993247044492
131	0xc00bf2fbd4e91cd7	-3.4936443933143937
132	0x3fe0f847b4624e90	0.530307628929636
133	0x4009bff5a0819d31	3.2187302150301993
134	0xc01f520a2734d6cf	-7.830116856193583
135	0xc009cd454d0a7fc6	-3.2252298373059345
136	0xc01e77840b3bc90f	-7.616714644931803
137	0x4033992038604bea	19.598147891530893
138	0xc026cd09e5bd372c	-11.400466136310193
139	0x402cede8e129e58c	14.464667354931201
140	0x3fe415cd8b1a43c4	0.6276614872787083
141	0xc01d78d03492654c	-7.367981740412983
142	0xc0070b6026e07035	-2.880554488872827
143	0xc0061de385fa35b4	-2.764594122598931
144	0x4016b1590af47295	5.673191233796975
145	0x40131e4f11f3ae77	4.779598503587855
146	0xbfec1002cd1665d1	-0.8769544606795369
147	0xc00f524b3a4454f2	-3.915182547769853
148	0xc02269526022e253	-9.205706600435553
149	0xc01a8c9df40ad22e	-6.6373212939839
150	0x40036e3e4c50c0ff	2.4288297617096073
151	0xc01d85053dd4e58a	-7.379902807349376
152	0xc02f1e4e53208609	-15.559191320152438
153	0x402569dd72433c39	10.706767626483371
154	0xc02ad72af2852615	-13.420249537232886
155	0x40145d6a215d991f	5.091225167596604
156	0x4005a05c524a43c9	2.7033010891832174
157	0xc0113654fa459119	-4.303058538909931
158	0x402a7dbeb8f4f863	13.245595722106549
159	0xc022ade63237adef	-9.339646882340245
160	0x3ffd182cfdce056d	1.8184022821663703
161	0x3ffd4bc5cdb45329	1.830999187023915
162	0x4020a3c12fcdeef8	8.319833272827495
163	0xc023fb78b7b6666d	-9.991155377402913
164	0x40215a22ff3f1b3d	8.676048256352823
165	0xbfc4d28b0362e5ef	-0.16267526307437616
166	0xc00c722d4f9eb5da	-3.555750486403423
167	0xc0113bdf0dda5fca	-4.30846807141638
168	0xbfe4f4afbde72c0a	-0.6548689564746166
169	0x4001ef79128ab945	2.2419301460824124
170	0xc021ce9bf3e769a2	-8.90353357505666
171	0x402554ddb4215301	10.665753964488887
172	0x4008c074f982169f	3.0939731114220446
173	0xc00f688b1525654c	-3.9260465290105113
174	0xc0192a2f9f195f02	-6.291197286532908
175	0xc010bf2caa363f1e	-4.186693820534655
176	0x3ff790dba570f3a7	1.4728657209918568
177	0xc020aeadd3af9ec0	-8.341169943988803
178	0xc001c4f6dfe94fc3	-2.2211740010334053
179	0xc0172dd7eeabcce3	-5.794769028888569
180	0xc01b896fa31d26c5	-6.884214924482596
181	0x402388a2442e78de	9.766862993882054
182	0xc018dc510fa1bc4c	-6.215152973410181
183	0x401a459b4f2b277a	6.5679752702798115
184	0xc030df295cb09557	-16.8717248850929
185	0x4009b59aed507596	3.213674406068729
186	0xc0279113d2b39f59	-11.7833543628946
187	0xbfef0b024a7eca1b	-0.9700938658700723
188	0xc02b603aba37046a	-13.687948054519627
189	0x40166faebdf34ab5	5.609065025305132
190	0xc0065eff25763281	-2.796385090512843
191	0x40258ab7782c2ab5	10.7709310106196
192	0xc0255009723215e1	-10.656322067846249
193	0x402908fa84a61373	12.517536301873156
194	0x4026ca74668cd0b5	11.395419315995563
195	0xc01b5e689f571c66	-6.842195977870778
196	0xc024f2bb669d382e	-10.47408600491698
197	0x401ea7db902a4968	7.663923504429796
198	0x402bece13a08b56b	13.962655843318052
199	0x4015eba552266b50	5.480122836680337
200	0xc00ca1139186535d	-3.5786506051176006
201	0x3fcd34a9a1520e7f	0.22816963555316147
202	0xbff850d5e0019e17	-1.5197352171179597
203	0xc02afde0c8114bb9	-13.495855571852973
204	0xc009f7853f0aff46	-3.245859615824801
205	0x4020ca9e30b2a3c7	8.395738145643817
206	0x40106d71ea74ac61	4.106879866954018
207	0xbfe7092cf887dfcb	-0.7198700765720728
208	0xbff570d999f8f993	-1.3400512709191374
209	0x401383023a869c3a	4.877938188997229
210	0xc0285895a3d20b7e	-12.173016662016149
211	0xc015be519f9f6fa7	-5.43585824404355
212	0xbfbdaa8bd4212fb1	-0.11588357857652799
213	0x401043892ae16c7d	4.065952939995552
214	0xc01e30a9b64d9bca	-7.54752240036664
215	0xc00b77ad9dd5c7b7	-3.433436616026451
216	0xc0231e461aa69953	-9.559128601872237
217	0x40337037712f06f4	19.43834597967266
218	0xc01a1f838305b00d	-6.530775115224981
219	0x402c7d876e65580e	14.245173883315172
220	0x3feeffce9e88ed9f	0.9687264534363073
221	0xc01dd529dad64b48	-7.458167476014587
222	0xbffea79f59210268	-1.9159234506224951
223	0xc0064e33a7b035f0	-2.7881844616556393
224	0x401e793f86096bd3	7.61840638573172
225	0x401139d94ae498eb	4.306492967798685
226	0xc00f6aaa1e51c066	-3.9270822876642795
227	0xc010c675b6130c41	-4.193808407700147
228	0xc0252a45d226f6c6	-10.58256394124636
229	0xc01eb2d8a46c16c6	-7.674654549691416
230	0x4010f8af1ac296b5	4.242855470778228
231	0xc01b72eb4cb95b8c	-6.862225722134905
232	0xc030643b10199ab2	-16.391526228190465
233	0x402469d02e4c1d08	10.206666418830096
234	0xc02d637aa256b832	-14.69429499920452
235	0x401e9f657efef2ab	7.655660614310061
236	0x4007bcc10dbeac2b	2.9671650956929816
237	0xc01d33451c4b8bb2	-7.300068323241179
238	0x4028959289bafb27	12.29213362128719
239	0xc02017396b443909	-8.045359947278955
240	0x3ffd3b6a9f19a832	1.8270059790470552
241	0x3ff9e6abbe9c95ba	1.618816132141872
242	0x401f8246b4f078df	7.87722285001493
243	0xc024a108adbb20e8	-10.314519337742652
244	0x4021538cc6b3e80e	8.663183412038077
245	0x3fbaf6e6e6ff23c7	0.10532992496076964
246	0xc00c22d75e8595e1	-3.5170123466984795
247	0xc00e99995ff1fc29	-3.8249995704386675
248	0xbfd57f67d4673758	-0.3359012197732816
249	0x400228b07e3ee815	2.2698678839633524
250	0xc022358db00d7dbc	-9.104596616408223
251	0x40259199b1af3779	10.784375717772251
252	0x40079ddf81938df4	2.9520864604144155
253	0xc00f788d6dfe1ad9	-3.933863505665937
254	0xc01b05e158d6731d	-6.755742443169564
255	0xc0102965c8d240d2	-4.040427339394414
