weights/names_rnn_Wxh.npy (npy, 56448 bytes, 1 tensors)

array f8 [80, 88]
000000 13 86 49 62 1d 69 d0 3f be 08 97 0f cb 9a e5 bf
       0.256415697082134 -0.6751456551067105
000010 75 00 ea 78 92 5e db bf 6e e0 20 97 e3 23 dd 3f
       -0.4276472264100513 0.4553154922355195
000020 c0 b9 7b e4 c3 68 f8 3f ea 57 7f 84 7c a8 fc 3f
       1.5255774426583315 1.7911343742066443
000030 63 30 6f 47 bc 47 c3 3f 4e 5d c9 3e 9e b3 7c bf
       0.15062669265751358 -0.007007234712168865
000040 05 6d 93 a7 41 59 c9 3f c2 2b 84 55 86 00 c9 bf
       0.19803639109054685 -0.19532851386642675
000050 c8 92 ad f7 10 4f c1 3f 69 92 fb 4b 6d cd bf bf
       0.1352254113545739 -0.12422831635519462
000060 bf 6f c0 bc b6 67 d0 bf ea de de 5c 24 72 01 40
       -0.25633018906387045 2.180733418990589
000070 d7 81 40 8a cc d0 f3 bf 45 e4 4c 0f c8 58 03 40
       -1.2384763145893112 2.418350333723114
000080 be 20 85 0c 46 8f ef bf 98 40 3a 9a 7d 14 c2 3f
       -0.986239456608949 0.14125032454149244
000090 61 ea 21 d6 73 67 e9 3f 20 bc 14 8a e1 90 02 40
       0.7938784773135233 2.320742682225969
0000a0 d4 4d db 13 1a 5d e3 bf 38 4a 7e ea 1f 2f eb 3f
       -0.6051149738145178 0.8495025234172493
0000b0 71 e8 f3 b0 50 bf fa 3f 22 f0 2d f6 3c db d9 3f
       1.6717078125207332 0.404006233605971
0000c0 d6 34 88 b4 38 65 b5 3f ab 22 9c 1f 0f 09 02 40
       0.08357576758881477 2.2544233769916295
0000d0 8a f1 b8 08 6f 69 f0 3f 8f 0d 76 c7 eb 7d dd bf
       1.0257406559677258 -0.4608106086600054
0000e0 b7 67 75 e3 f3 c2 6e 3f af 16 9f c9 65 0a 01 40
       0.0037550700614419025 2.130076956908702
0000f0 15 02 44 5d cb bf e0 bf 75 58 21 d3 c9 d4 cd 3f
       -0.5234124013514384 0.2330562859448865
000100 68 6f 27 a8 c0 40 f1 bf f5 97 97 ed 8b 86 f5 3f
       -1.0783087318913775 1.3453482895797582
000110 75 cf 79 10 9d b2 f1 3f e6 ed e2 2c 06 52 ea bf
       1.1061068194948949 -0.8225127102554637
000120 58 b8 86 d5 16 ae ee bf e0 06 46 eb ca 08 d5 3f
       -0.9587511225161149 0.32866166091853977
000130 75 10 bf 9f d5 e9 f1 3f d4 ae 90 85 80 05 02 c0
       1.1195884933559033 -2.2526865420130466
000140 54 1f 5f 2e 48 40 d5 bf 75 d5 03 0d ad f6 fb 3f
       -0.33204845932458693 1.7477236278913015
000150 68 a3 4f 24 a1 8b e5 bf 97 39 7d 43 3f a2 e7 3f
       -0.673294611854641 0.7385555570743233
000160 3d 2d c1 b9 b6 ae fd 3f bf 89 86 66 88 61 d9 bf
       1.8551547294653823 -0.3965779305673571
000170 2d 52 df 14 11 70 ea bf 9f c4 ef 6c 79 93 c3 3f
       -0.8261800201094666 0.15293805903596522
000180 78 11 ea 21 89 d7 fc 3f 4a f8 42 ca b2 30 eb 3f
       1.8026210140970687 0.8496946287557503
000190 bf 5c 8d f2 19 06 10 c0 6b 1c 33 1b d4 4c f8 bf
       -4.005958356741018 -1.5187569677816792
0001a0 3f 9e cf 28 99 a1 e3 3f a0 ea 15 ec c4 41 dd bf
       0.6134763524141319 -0.4571392350696133
0001b0 de 4b 26 1c 3b 2f f3 3f 09 5d 31 48 78 9f fa 3f
       1.1990309810250817 1.6639330692322025
0001c0 f6 11 12 a4 a5 89 ef 3f 1e b9 75 f3 c4 a9 cd 3f
       0.9855526165488857 0.23174344909370687
0001d0 5c a4 a9 be 7f 10 0a 40 ef 89 4e 96 30 31 f7 3f
       3.2580561538239134 1.4495092269286223
0001e0 3f 13 17 6f f8 ac 66 3f 71 cb cb 90 a8 35 ef bf
       0.002768025610495078 -0.9753001049087812
0001f0 6e da 08 1a 33 26 ed 3f 02 69 57 37 88 b9 f6 bf
       0.910913039063258 -1.4202959214949833
000200 c2 b5 d6 e5 aa 94 fd bf 8c 5b e5 87 f3 05 f7 bf
       -1.848795793349709 -1.4389529522356694
000210 2c 47 84 e9 1f 34 16 c0 56 fa e7 5c 1a 43 f5 3f
       -5.550902985285386 1.3288825635096564
000220 43 51 7d 18 9d c9 ea bf f6 b2 1b 07 b0 58 ae 3f
       -0.8371110418616258 0.059270382754993564
000230 b8 ca 84 f6 b8 94 16 c0 d0 fd 10 9b 9f 26 c5 bf
       -5.645236827712033 -0.16524119445419538
000240 91 60 10 ee 8f 6f f3 bf 8f 71 45 5f 84 f4 ec bf
       -1.214736871659657 -0.9048482762114406
000250 b4 d9 17 fc f1 05 b2 3f 7f 01 cd 53 9a 2e 01 40
       0.07040321735971738 2.147755293554098
000260 93 60 49 c2 4b 5f e0 bf 37 6b b1 ab 59 34 73 3f
       -0.5116328043614139 0.004688596988752284
000270 e0 c5 29 36 a7 f5 01 40 95 6e 4a c0 50 ac d0 3f
       2.2449478370187848 0.26051729944604435
000280 db f9 12 4a 68 f7 88 3f ba 48 e7 9a a4 99 e3 bf
       0.012190642128527543 -0.6125052476366115
000290 40 33 9e 51 91 2d ab 3f 2a 2a 25 30 6e 77 08 c0
       0.053082028592234654 -3.0583156358091133
0002a0 80 b4 18 04 41 fc f3 bf d7 d1 0a 31 f1 09 e0 3f
       -1.2490854415912338 0.5012136419159628
0002b0 be d3 31 75 11 20 79 3f 9b 28 26 ed b4 58 f0 bf
       0.006134098238466499 -1.0216569198260348
0002c0 5c 4c 63 9e 70 5a 08 40 b8 63 77 69 d5 df 12 40
       3.0441601156285696 4.7185875395888885
0002d0 2b 3a 88 c2 b5 3e 00 40 9c 2d 27 c5 26 13 df bf
       2.0306201169799087 -0.4855439114878324
0002e0 36 04 b6 e3 43 f3 f5 3f 78 e4 a1 bb d1 26 03 c0
       1.371890916343785 -2.39395472133452
0002f0 e0 7c 9b e4 dc 89 d5 bf 8d e4 51 d5 31 15 94 3f
       -0.33653948140086065 0.01961210121632866
000300 71 61 b0 38 1b 04 e4 3f cf f0 cf ec a8 5e f0 bf
       0.6255012614447378 -1.0231103182296015
000310 de ca f0 a4 7d 4e f2 3f 72 14 3a 2a c3 1d c6 3f
       1.144162792491151 0.17278327524050813
000320 5d 2f c6 41 1f a4 ec bf 12 b7 b4 30 7f f3 6a bf
       -0.8950344357158247 -0.0032899364647595098
000330 30 c0 6f 40 d2 96 c2 3f 70 eb 17 94 56 0f b6 bf
       0.14522770067515145 -0.08617154231607826
000340 42 4c ff 6c f5 3f ec bf 28 55 6b 24 5e 84 e1 3f
       -0.8828074578144725 0.5474081717790442
000350 ed 5f 97 ad e6 5d ea bf d8 8a b6 ba 98 e0 e8 3f
       -0.8239625349478935 0.7774165770282151
000360 ab 9a b6 3f 59 55 f8 bf ea 1b 71 f6 b8 84 e5 3f
       -1.5208370674896894 0.6724514783207927
000370 55 0f bb cb 9d ba ec bf 4b 4b 41 36 3d 83 d5 bf
       -0.897780321036843 -0.3361351995310328
000380 d3 ab ce 0a f0 c5 ec 3f 51 91 02 e1 f7 26 b2 3f
       0.899162312610651 0.0709071087208646
000390 57 f9 34 a5 b8 fd ea bf eb 94 f3 13 02 d4 ef bf
       -0.8434718348214955 -0.9946298970868644
0003a0 f8 00 a5 91 7d fb 8d 3f 97 3f 11 18 50 7f c8 3f
       0.014639836318224728 0.1913852803722846
0003b0 6a f9 a3 dc f6 a7 f1 bf 42 27 9f 4e 45 f8 e3 bf
       -1.1035069102068413 -0.6240564857082307
0003c0 72 7b 5d c0 a8 b9 f9 bf 18 41 ee 41 1c d1 e4 bf
       -1.6078269495262387 -0.6505261695583924
0003d0 4f 21 b7 48 5b 05 6f 3f dd d0 16 6e 55 46 0e c0
       0.0037867339030734147 -3.784342632361684
0003e0 59 1a fa db 3d ab d3 bf 19 28 23 1d 38 3a f9 bf
       -0.30732676012158816 -1.5767136705567337
0003f0 03 01 b3 eb f0 0d d7 bf 84 64 78 85 f4 4a 01 c0
       -0.360225897002252 -2.1615991999975126
000400 d7 d1 b8 e1 be d3 00 40 0e f1 51 db 64 eb a9 bf
       2.1033914217498295 -0.050624038479300734
000410 19 79 e4 24 98 ab db 3f 73 35 b3 c9 40 f7 11 c0
       0.4323482857015662 -4.491458083689724
000420 9a 4f 23 6d a7 de 1b c0 41 0d 27 83 83 f5 f8 bf
       -6.967435555725297 -1.5599398730417564
000430 fd e3 3f c7 14 bf f1 bf fd 21 c7 ed 9b 61 b6 3f
       -1.1091506751238278 0.08742689662097543
000440 22 d7 cf 88 57 41 c5 3f 39 8a f2 2d fb 6f fb bf
       0.1660565774943104 -1.714839152795902
000450 7c ea f7 7c 99 72 10 40 42 63 9a df 7d c0 f0 bf
       4.1119136358562365 -1.0469950422759244
000460 e9 0a 55 97 97 18 0d c0 f6 47 91 ab 47 62 08 c0
       -3.6370078871562908 -3.047988262530448
000470 04 5f 52 5d cd 00 f2 bf f4 1d 02 eb 31 68 f0 bf
       -1.125195850885519 -1.0254382305155305
000480 90 57 c9 4c 09 c1 07 c0 59 49 09 3b 3b c3 e6 3f
       -2.9692560194916453 0.7113319542934661
000490 1a c9 14 4a a6 93 03 c0 a1 02 53 c6 45 03 07 c0
       -2.4470945155709503 -2.876597928436539
0004a0 67 66 a6 45 56 9e 72 bf 13 0f 98 3e 6c ac d6 3f
       -0.004545533180498751 0.3542738543767296
0004b0 74 29 45 89 c4 9c 00 40 35 7f 14 fb 5e ef 0b c0
       2.07654673807445 -3.4918803802137526
0004c0 96 b9 b9 65 21 d3 08 40 cb 36 4b cb 50 83 0a 40
       3.1030910441688304 3.3141189462975027
0004d0 bf 0a f5 d7 b4 39 0b 40 ae 4c af 66 ed 0e 07 c0
       3.4031769630103947 -2.8822887441870852
0004e0 e8 78 09 92 de 5c 17 40 cf 2a df 4c 4c 88 f2 3f
       5.840692788913863 1.15827589061762
0004f0 e5 3f 1c f7 c6 94 14 40 db 8f 2c 39 11 0e f3 3f
       5.145290242289751 1.1909343942033874
000500 90 47 0d ae 70 10 ed 3f 56 ed 17 cb 82 0d 06 40
       0.9082568549585961 2.756597124736497
000510 96 b3 78 30 89 2e f3 3f 25 eb aa 55 ed 8b da 3f
       1.19886130270172 0.4147904717062139
000520 11 9f f1 0f 9b 9f e9 3f ba 8c 0a 15 7c 69 8a 3f
       0.8007331191447254 0.012896508590819134
000530 7a ae 0c b5 b3 5f 12 c0 6b 37 69 d4 79 19 c4 bf
       -4.593458966158886 -0.1570274626887412
000540 e7 77 a4 09 c1 ea 07 40 3c 49 35 66 aa a7 0b c0
       2.9896260026280177 -3.456867979527628
000550 6d 04 0f 24 a0 0c 54 bf f8 ee 29 d8 15 09 0f 40
       -0.0012237132907418028 3.8794361961171226
000560 f3 7d 1e bc e4 18 d0 3f d3 c2 f9 21 2c a1 d3 bf
       0.2515193783856084 -0.3067121822160008
000570 5c b2 9d cd 64 5e 3b 3f db f7 89 6e 8e 1c e5 bf
       0.00041761361136741725 -0.6597358855212819
000580 df cc 19 c5 a4 e4 d8 bf 46 5b 8a 2c 81 7a fa 3f
       -0.3889552998363807 1.6549083461629421
000590 e3 45 21 2b f7 c7 03 c0 2e d9 d2 3e 52 d8 a1 3f
       -2.472639405205642 0.03485352532281848
0005a0 6e e2 37 57 56 48 0f c0 a6 c4 3d bf ba 72 db 3f
       -3.9103209318093866 0.4288775317755359
0005b0 57 1f d2 80 18 94 05 40 a1 3c 48 d1 b5 c8 88 bf
       2.6973123611568712 -0.012101574372563486
0005c0 67 49 bc 08 fa fa c1 3f a6 00 fd 9e 23 13 e0 3f
       0.14047170092141956 0.5023363213768064
0005d0 99 a8 76 02 30 88 c6 3f 76 f5 5e 13 e8 a5 cd 3f
       0.17603111381805972 0.23162556596609435
0005e0 9f df fc 1d 05 a0 04 40 4d 4d 35 fc 74 f6 d7 bf
       2.5781347601695894 -0.37441753987987597
0005f0 8d b4 96 3b bf 1f d1 3f 83 7a 78 7a ed 3d e2 bf
       0.2675626832886529 -0.5700595275882993
000600 5b e9 af d5 49 cd e3 3f a6 d7 15 85 d7 b8 b4 bf
       0.6188096211983906 -0.08094546317246784
000610 68 43 44 81 d9 62 fe 3f 94 69 ed 4b eb 67 d7 bf
       1.8991332101324705 -0.3657177201727333
000620 2b f8 06 95 91 00 f6 3f 00 01 1d 8d 39 92 a4 bf
       1.3751388379455516 -0.040178106761688426
000630 4c 30 fe 91 55 30 f8 3f b3 b7 7b 5d 30 51 f0 3f
       1.5118003561829196 1.019821515244513
000640 6f 7e cc 4d 1d 8e eb bf c5 0a 78 ee 3a 4f f2 bf
       -0.8610979575641532 -1.1443433108512846
000650 02 80 eb d6 7b 3b d9 bf 49 6f 6d 8e e7 92 f5 bf
       -0.3942555998637546 -1.3483653606007968
000660 c5 ec 9f d3 b7 97 7c bf 67 89 32 af 66 7f e8 3f
       -0.0069806271294467525 0.7655518934082409
000670 7e 61 17 ea 24 6f f3 bf 76 f9 93 31 a8 a0 de bf
       -1.2146348137085563 -0.47855572549442316
000680 4a 80 9e 6e 97 03 f1 bf 13 d6 db f8 8c 17 ee bf
       -1.0633768387852052 -0.9403748379251645
000690 fa f7 16 f5 22 c4 f4 bf 51 4f 17 83 24 0a e1 bf
       -1.297884900457119 -0.5324881134388112
0006a0 b4 80 0b 91 74 e8 0b 40 05 ab f2 10 fd 52 d6 3f
       3.488503583110367 0.3488152184969951
0006b0 ae cf dd 05 ad c8 a8 bf 7a cd 8a d9 1c e1 f5 bf
       -0.04840603539096776 -1.3674591539136984
0006c0 07 26 32 73 ef 1d e8 3f 5f 68 bb 6b 47 f7 0f c0
       0.7536542177123814 -3.9957416931693355
0006d0 ba f2 75 f3 81 52 f7 3f a7 94 97 b3 43 e1 fc bf
       1.4576434621987304 -1.8049962058369518
0006e0 72 4b 7e 7a c4 7f cc bf 02 76 0f c1 36 aa ff 3f
       -0.22264915448303274 1.9790561238691002
0006f0 18 1d 14 69 85 b2 ff 3f 11 9e f8 6b 98 d0 fb bf
       1.9810842613822555 -1.7384266107200157
000700 48 a6 56 28 4a 75 d8 3f b1 2d 03 7d 4e 21 fb 3f
       0.3821587938242357 1.69563149292922
000710 85 fb 0c ff 5a e0 02 40 57 36 7e 60 7f ae 05 40
       2.3595485616528458 2.710203889705365
000720 0b b2 76 fd 78 70 09 c0 2d 75 56 ee 60 28 fa bf
       -3.1799182702873217 -1.6348580656115914
000730 97 60 8c da 54 b6 01 c0 b7 3a 70 29 e0 aa f2 3f
       -2.2140290330972436 1.1667176836669293
000740 01 6a 8a 34 d8 93 02 c0 26 b6 c8 07 da 3d cc bf
       -2.3221897225132584 -0.2206375635154682
000750 07 65 a7 85 ca 01 06 40 5a d4 10 e8 c4 b7 04 c0
       2.7508745614728727 -2.5897310381065326
000760 89 8b 2e 13 b2 3a 6a bf 30 e6 f8 18 c1 14 9a bf
       -0.003201816370578429 -0.025469796322999894
000770 fe 58 bd d9 f8 67 e3 bf 2b 32 91 e1 b5 76 f0 bf
       -0.6064419033744171 -1.0289820491044661
000780 b0 9a fc ad f0 22 e6 3f 7c 7f a6 bd 8b 5e e7 3f
       0.6917651556185174 0.7302912429913557
000790 87 ba 97 ae 79 d0 f4 bf eb 6d b4 35 69 5a f0 3f
       -1.3008972950007391 1.0220729921192013
0007a0 98 5d 16 a9 ac 85 f4 bf 0f 05 64 94 db 93 d7 3f
       -1.2826353650069446 0.36839951983718405
0007b0 8b fe b0 f0 4b cf f4 bf 2f cc 30 5c 2b a5 ab bf
       -1.3006095315940083 -0.053994517329919105
0007c0 55 ec 0d b2 f5 d7 bb 3f 7e 69 c4 cc 9c 4e e3 bf
       0.10876403424292509 -0.6033462523803761
0007d0 cf 73 10 37 14 af f9 bf 90 a9 8f d7 02 95 fd 3f
       -1.6052438879917081 1.8488796635016094
0007e0 36 da e9 90 59 aa 06 c0 d7 a4 fc ca b1 6d 89 3f
       -2.8331786462179265 0.012416256911438257
0007f0 4c 54 ed 7f da 43 de 3f 3c c3 30 33 1b a8 fc 3f
       0.47289144986036 1.791041564905938
