weights/names_RNN__Whh.npy (npy, 51328 bytes, 1 tensors)

array f8 [80, 80]
0	0xbfe1b0ba46b862c6	-0.5528231984381697
1	0xbfe75090ea47090d	-0.7285847259265964
2	0x3fcf3ed34176216f	0.2441047734867072
3	0xbfc4176027caaf93	-0.15696336691814547
4	0x3f6b2dcec597b8d4	0.0033177412521957304
5	0xbfb57c097cd19187	-0.0839239053471542
6	0xbfb836535deb2697	-0.09457894366200957
7	0x3fe544ed3663a17c	0.6646638929642417
8	0xbfa0b0ad64b2f9d4	-0.032597940962194066
9	0x3fee572e567d941a	0.9481422127979642
10	0xbfdaed4d7bb70d81	-0.4207338054804595
11	0x3fbf909fb1a65d6a	0.12330053412585121
12	0x3fc5b7096cfc2194	0.1696483404305239
13	0xbf770d916de12975	-0.005628173907164293
14	0x3fda9bc88c7132aa	0.41575826373154234
15	0x3fd3ead09ac1324c	0.3112069617534743
16	0xbfe2a14bab03fab4	-0.582189401640639
17	0xbfeaef23435b3d3f	-0.841691619449115
18	0xbfdec96d397c55e1	-0.4810441075690886
19	0xbff3b3e1a7bc6a1f	-1.2314163734614636
20	0x3fd89a4d0b168bd2	0.38441778261966164
21	0x3fc6719f639ac363	0.1753424869871437
22	0x3fdb0b063d7730a0	0.42254787447451214
23	0xbfe25b80ce9ce00c	-0.5736698184400679
24	0xbfd8ee07b06bab4c	-0.38952820042202485
25	0x3fe621964cce52bd	0.6915999889484606
26	0xbfc539fdfaf2f64c	-0.16583227876064865
27	0x3fe73375c4a6d869	0.7250317421774187
28	0xbfdf4525520739f5	-0.48859532366341735
29	0xbfa038789e013426	-0.031680840766604754
30	0x3ff24f99e94508bc	1.1444338905426283
31	0x3fb8cb12a6cc4a8e	0.0968486458989821
32	0x3fd91ffdda694581	0.39257761315555945
33	0x3fe38422395300c8	0.6098796004880791
34	0xbfc67aa8ce20bfc9	-0.1756182676776901
35	0xbfdcfc01c52a189a	-0.452881281417271
36	0x3fe55b097fc561f3	0.6673629279640053
37	0x3fb3635fd1a3be03	0.07573508136896838
38	0xbfe3ad2b7596f889	-0.6148888870882426
39	0x3fa67a7c68c45904	0.04390324381727065
40	0xbfdd2ab7f2fb6433	-0.45573233345709524
41	0x3fd93d025e50e7fd	0.3943487092070653
42	0x3fdc5d04ef67cf9e	0.443177446169324
43	0x3fd571a26470394b	0.3350606900065897
44	0x3ff66735c64b4e1a	1.4001977678170818
45	0x3fd8403c7b089701	0.3789206696986725
46	0xbfd266740023732c	-0.28750324262164173
47	0xbfc6f54b3d519c55	-0.17936077589112878
48	0x3fd067a15e3ac981	0.2563250942431737
49	0x3fd56be2ffe4db5e	0.33470988263746004
50	0xbfe0afa6ab5db0b1	-0.5214417788497682
51	0x3fdee8939e52ae36	0.48294535123088467
52	0xbfda43a88883d105	-0.4103795369294548
53	0xbfd4112808a2e8a9	-0.3135471424426535
54	0xbfe53c27c248f6ba	-0.6635931772832102
55	0x3fdffe563e7cf759	0.49989849188192675
56	0xbfe50ffa35227934	-0.658200362948071
57	0x3fd0af41c4d3c27b	0.2606968328609935
58	0xbfe4ebcec951b8a4	-0.6537851268783652
59	0xbfcedc83b36ece1c	-0.2411045671593549
60	0x3fe725e9778a1c08	0.7233779272800129
61	0x3faf2283e8d82f18	0.060810205624959035
62	0x3f95d6258f1b9634	0.02132471738777593
63	0x3fb1eca46f82e747	0.07001712534375058
64	0x3f7c81e6bb92a13c	0.006959821033128141
65	0xbfbc9ec7c6f97387	-0.11179779632352736
66	0xbfa23502a97e4a35	-0.0355606872464204
67	0xbfd025d46b406031	-0.2523089454057326
68	0xbfbc53bb447a827a	-0.11065264150466617
69	0xbff80b191143fee3	-1.5027094530523122
70	0xbfcdb58a71e4a3d8	-0.23210268555820224
71	0xbfd01fc3378e53d6	-0.2519386332072008
72	0x3fd4fff9ec53b852	0.3281235511666455
73	0x3fb697976776eccc	0.08825060153951653
74	0xbfd8ae775b041069	-0.3856485737635525
75	0xbfb60b72ba17d1d4	-0.08611218493735545
76	0xbf534ac960cb94b0	-0.0011774984915800361
77	0xbf9a6d2e8fd67e6e	-0.02580712082783381
78	0xbfc07a7c97db9f1a	-0.12873799719749784
79	0xbfc2830270d42470	-0.14462309369290294
80	0xbfb943e3e8936a24	-0.09869217327233365
81	0xbfecb11a8df56f69	-0.8966191074973554
82	0x3fd9583489d983ca	0.39600861989862024
83	0xbfdcae8f3498f8ef	-0.44815426002959574
84	0xbfda3fbde08d6e46	-0.410140485085979
85	0x3fe03e2ff4e74465	0.5075912268895421
86	0x3ff2f152b31f1d8b	1.1839167591986974
87	0xbfdf76ce6c7ba6d7	-0.4916263636974753
88	0xbfe00fbc07a68b73	-0.5019207143235306
89	0x3fdd57b5bb282af1	0.4584783866600182
90	0xbfe3cf7fd830b829	-0.6190795156924241
91	0x3fd0c12602949cfe	0.26178884746555287
92	0xbfdc8637f47e7f19	-0.4456920516622503
93	0x3fd04cd9f6756020	0.25469063823902793
94	0x3fe7abfa84ab64e3	0.7397434798432666
95	0x3fd8437fb14df052	0.37911979975593113
96	0xbfeda3ca624349a4	-0.9262439650722638
97	0xbff2eb743a15d22d	-1.1824838894800778
98	0x3fc4464be34ae5f0	0.15839527700681755
99	0x3ff04e84df879d5b	1.0191696864729554
100	0xbfee4bf408b25aa2	-0.9467716379029592
101	0xbfde0aa6d846b42b	-0.46940013046952583
102	0xbfdd4bc7967bf17c	-0.4577502221652805
103	0x3fe05bb66c4bb71f	0.5111953845168705
104	0xbfc83297ece1910f	-0.1890439898153393
105	0xbfe360c22d3f4f68	-0.6055613406883653
106	0x3fe2d4af519361ae	0.5884625046992846
107	0xbfe027a4a0ac4021	-0.5048392427579566
108	0x3fa9a390187692a9	0.05007601069090601
109	0x3fb2e456a57a6f16	0.0737966684341099
110	0x3fe7a52cb4e4f581	0.7389129193394838
111	0xbfcb4c6e92dfc49e	-0.21327001735293022
112	0x3f93ed3c56acedc5	0.01945966986680305
113	0x3fd00ba7084f5c80	0.2507112103607554
114	0xbfe9429c17a0dc68	-0.7893810712329357
115	0x3fda131553fb40d7	0.40741475297273894
116	0xbfe2692205096cf2	-0.5753336046576847
117	0x3fdf4bc2cf47b85e	0.48899908296778516
118	0x3fa0e576dc4d06d6	0.03300067366809649
119	0x3fe595f7bb758d31	0.674556604510519
120	0xbfe06784f94f5d61	-0.5126366490684796
121	0xbfbbf4e82a36a744	-0.10920573263743188
122	0xbfb6b9fefb05dcb5	-0.08877557400215859
123	0x3fa44f2b65b4e4af	0.03966651550803967
124	0x3f9c3e2bece57f26	0.027580915769589563
125	0x3fe7fa807234d559	0.7493288260072105
126	0xbff2c3261634badc	-1.1726437442227313
127	0x3fe19ad17b6913ad	0.5501487169609526
128	0x3fb30a6b527c3a09	0.07437773479271227
129	0xbfe341a0118fe6cf	-0.601760896969802
130	0xbfd5f20aa9566b90	-0.34289804970620086
131	0xbfd25d0bbf013b2a	-0.2869290700227106
132	0x3fe206a836d5231e	0.5633126326511932
133	0x3fbd23963d5dce07	0.11382426260188803
134	0x3fe0e9e4ba73d646	0.5285514489793932
135	0xbfd6cac8d75c1391	-0.35612698584764596
136	0xbfda3457e6f58160	-0.40944478563871733
137	0x3fd77f07de8ed2b6	0.36712834104700265
138	0xbfe738b963ef9983	-0.7256743385194543
139	0xbf8d7023d7727698	-0.014374046337532406
140	0x3fd29d93ef01a685	0.2908677896544776
141	0x3fd36071e5f0ef40	0.3027615304488229
142	0xbfc6abf91b670921	-0.17712320173274868
143	0xbfaaa927cd2e64db	-0.05207180385259288
144	0xbfcd88055fe165b9	-0.23071353131926545
145	0x3fca4b95cc5ddda3	0.20543167570916152
146	0xbfe2ee2c569d37bd	-0.5915738765413533
147	0x3faf017a9c8b9d3f	0.06055815850214196
148	0xbfc05542a0c9933e	-0.1276019368262044
149	0x3fe0608087399113	0.511780037032198
150	0xbfe7cebd615c332d	-0.7439867879453225
151	0x3fe8f6c6d9e55c9c	0.780124116495148
152	0x3fbafe1035e61b98	0.10543919864549733
153	0xbfef2e0bc2111175	-0.9743708410610866
154	0xbfd80ae29acbbaf6	-0.37566437832622
155	0x3fe0ca6435ae9137	0.5247059868311571
156	0xbfd0b14625501828	-0.26081994670710396
157	0x3fdfe7735ea6f110	0.4985016273819989
158	0xbfe5c41a9a7163e3	-0.6801884666884884
159	0xbfe489f9a4ede5a7	-0.6418426724696261
160	0xbfe5064295191df0	-0.6570141708443185
161	0xbfbb308c1d6983fc	-0.10620952337332307
162	0x3fd076de409eecec	0.25725513754487284
163	0xbfcab0066685917b	-0.2084968567461479
164	0x3fc3452689e074f9	0.15054780704750906
165	0xbfd2f1636b2e6896	-0.2959831759159298
166	0xbfe48233d4cd3ca9	-0.6408938556941354
167	0xbfcb9e7fe55e68be	-0.21577452373168698
168	0x3fde597868311d57	0.47421083617196785
169	0x3f86429ef7c742a6	0.01086925691279934
170	0x3fc6b7ca5916d098	0.17748383855871874
171	0xbfcaf95bbf77de6f	-0.21073481415782022
172	0xbfc52a7f0a6aacb3	-0.1653593827116758
173	0x3fdb369caf58c3ad	0.42520825504021326
174	0x3fca808cb5cf3730	0.20704802396215305
175	0xbfdb15b44d7cf102	-0.4231997257918608
176	0xbfe1d2d735e8b7e8	-0.5569873860274557
177	0xbfc0375af39a0e47	-0.1266893090688532
178	0x3fdd1a0a07ea4814	0.45471430561986037
179	0xbfd458915582cfba	-0.3179057440822778
180	0xbfd63900fdef742b	-0.34722924040198916
181	0x3fc2df971a98dd71	0.14744843290985046
182	0xbfe5fa86102fc05d	-0.6868315044539589
183	0x3fd13af115b9165c	0.26922251817118137
184	0xbfbcd78109163aec	-0.11266333076330753
185	0x3fd28afcad96e3eb	0.28973309471217473
186	0x3fd698bac0391d19	0.3530718686274255
187	0x3fdf7e0f1890ce39	0.49206902884472786
188	0xbfc634678e4c6119	-0.17347425888215964
189	0x3ff87429e4960ece	1.5283602646967895
190	0xbfb6b342f86949a9	-0.08867281498650094
191	0xbf7694ddd31c89b4	-0.00551306391006039
192	0x3f95778350c837f3	0.02096371822886307
193	0x3fd6efcfe16b1249	0.3583869649267269
194	0xbfd12ac8fd04d5e6	-0.2682363959205233
195	0xbfc5d11a84b4e259	-0.17044383506596963
196	0x3fc75f00c4692833	0.18258676138276683
197	0x3fbb8ab898f14103	0.1075854657549407
198	0xbfee69ec907aca63	-0.9504301854961564
199	0xbfdace17f5b0ea13	-0.4188289546324608
200	0xbfe060e750b677d9	-0.5118290497227874
201	0xbfd26371c52dc3a9	-0.2873196054052252
202	0xbfd05d58f6662230	-0.25569747984312396
203	0x3fba67e7ba3ede17	0.10314796731005803
204	0x3fc0d86768fd87ce	0.13160412432176688
205	0x3fe7356c0adb7b6c	0.72527124519898
206	0x3fdbb47a17c10b88	0.4328904373143634
207	0x3fd2016f0be0a4fa	0.2813375106803303
208	0x3fb3931fca2207fa	0.07646368679891671
209	0x3fc80082b6c76e8a	0.1875155823207602
210	0xbfd7d5153ce24fe2	-0.372380551774084
211	0xbff14d011a191ac4	-1.0812998790221835
212	0x3fc9d6766cf5b23d	0.20185737915325488
213	0x3fa1ca13e334d491	0.03474485538974038
214	0x3fe5c1d14c15d308	0.6799093709983888
215	0xbff2047254a5752f	-1.1260855967041825
216	0x3f77f2ad5ce4d3de	0.005846669386575491
217	0x3fbf269e82c835cd	0.12168303196832327
218	0xbff0ca15fe4821a0	-1.0493373806840296
219	0x3fb7a235e9d83530	0.09231888732047788
220	0xbfd455cdd654ed2a	-0.3177370637019573
221	0x3fe61f46fc6c039e	0.691318028461058
222	0x3ff05b3dc78412c7	1.0222757142629904
223	0x3fe2ee3e9901a292	0.5915825832754129
224	0x3ff0160150eccd9b	1.0053723488934796
225	0x3fdda36887d1eb0f	0.4630986524932021
226	0x3f6b614e3a0d53fa	0.0033422973505516903
227	0x3fe54025e180960f	0.6640805630055996
228	0xbfccc0372f670a5c	-0.2246159535844353
229	0x3fe406d3ee28a91b	0.625833478120771
230	0xbfc33c1db8712883	-0.1502720976444075
231	0xbfd8728e543454cd	-0.3819919416722087
232	0x3fef05f4f854194f	0.9694771623769983
233	0xbfdd666c2c0d6709	-0.4593763761709942
234	0x3fd07222f5776f6d	0.25696634265272317
235	0xbf9104384be6b27d	-0.0166176601721184
236	0x3fd560b9f8be7807	0.33402871409805396
237	0xbfc7ce8c45e16ef5	-0.18599084293497695
238	0x3fc0a269d85ac667	0.12995646537960967
239	0xbfd6aad7b61cc9b2	-0.3541774061624451
240	0xbfcafe03a6dffa76	-0.21087690017880661
241	0xbfe12730edc6982e	-0.5360340732629589
242	0xbfe22f997285676d	-0.568310474084894
243	0x3fae06e040f297fe	0.05864620964830179
244	0xbfdf93a5cb6ce2c4	-0.49338669648890865
245	0xbf904d047062add1	-0.015918797835792923
246	0x3fd7e76da34873d4	0.3735002607880322
247	0x3fe4f3998b7f14fa	0.6547363018550236
248	0x3fc77241e95cea31	0.1831743611781618
249	0xbfb8e97b3f8203a2	-0.09731264400944764
250	0x3fcfa07f57f9b6ec	0.24708549304653304
251	0x3fc2f2b67c8ac479	0.14803200799136443
252	0xbfb19e088f901c15	-0.06881764893488225
253	0x3fe6a84fe62ea55c	0.7080459113832762
254	0x3fdf4b7ef6d0ff18	0.48898290732539484
255	0xbfbc9e069f56dede	-0.11178628339882432
