weights/names_LSTM__Why.npy (npy, 11648 bytes, 1 tensors)

array f8 [18, 80]
0	0xbff6a9e93b7272ad	-1.4164821931982872
1	0xbfe6ec6e3b594a59	-0.7163611563831395
2	0xbf7e84fdd8df2413	-0.007451049414108918
3	0xbff247e05598faa1	-1.142547926297688
4	0x3fc6c4c2c8920230	0.1778796653125183
5	0xbfe63611ea906a99	-0.694100340016422
6	0x3ff27ad81737b7d1	1.1549912363948247
7	0x3ffe285e52ae52a3	1.8848555783962773
8	0x3ff8563f7f86797b	1.5210566503006635
9	0xbfe0c3cbb76524fc	-0.5239008504806004
10	0x3fff32c784b96718	1.9498973068752488
11	0x3ff451251ab72033	1.2698107760970856
12	0xbfd6e657f9f2d584	-0.357809061136628
13	0x3fd584624fea3473	0.33620508007226774
14	0xbfdd688d7a26d038	-0.4595063870322096
15	0xbfee43cad04a0fc7	-0.9457754200125174
16	0xbfe8d3eadb33ed05	-0.7758688241296176
17	0xbfeffc1c8ec58237	-0.9995253361231055
18	0xbff6a424266fb53a	-1.415073537961986
19	0xbff72dce3c960585	-1.4486830107346986
20	0xbff2392e98f963ba	-1.1389604545167757
21	0x3fed5dccb3bd2254	0.9177001486323868
22	0x3f6b2955ccd158a5	0.003315608576069345
23	0x3ffd6665f2ecadf0	1.8374995698203485
24	0x3feb77007c7607e9	0.8582765990142863
25	0xc006b50faa3bacec	-2.8384087848149786
26	0x3ff868066348d689	1.5253967169095708
27	0x3ff9eb9ce16401d5	1.6200226597139722
28	0x3fe0a84629772f9b	0.5205412683367173
29	0xbfc59a48420f49f1	-0.16877082086155284
30	0xbfacbab506467ea1	-0.056111962333713856
31	0x3fd6f86f1f935f4e	0.35891321261941733
32	0xbff4940c6119d9ab	-1.2861446183211267
33	0x3fe74fc55aa673b4	0.7284876604568269
34	0x3fe7939ef91967fa	0.7367701401919924
35	0x4000ce2dbb40add8	2.100673163329457
36	0xbfd0ea4fa329d15b	-0.26430121358796094
37	0xbfeeef0887edc0db	-0.966678872571744
38	0x3fe48012426a0787	0.640633706774893
39	0xc00031c3d268347e	-2.02429928188809
40	0xbff059bc85236dcd	-1.0219083023756526
41	0x3fece3a5e4b3f1bb	0.9027890650609643
42	0xbfd2ff907032c865	-0.2968484016120157
43	0x3ff9bcaf1071457e	1.6085653917583325
44	0x3ffed09c0361cc36	1.925930035792374
45	0xc0043d2241ef0157	-2.5298504973472222
46	0x3ff1cb8874fb91c6	1.1121906823765229
47	0xbfe0b398ca1ef2f9	-0.5219234416650514
48	0xbfd26ba3b8aacd53	-0.2878197959318715
49	0xbff5ec3dcf687df3	-1.3701761342889511
50	0x3fda29ccc4406fa2	0.4088012615700284
51	0xc0012eae67d79b35	-2.1477935898468794
52	0x3fe403149a6eae65	0.625376035333329
53	0xbff067b484954944	-1.0253186396626726
54	0xc0097b3a4d356979	-3.185169795219903
55	0x3fd42c0aa9c2408c	0.3151880891609913
56	0xbfff2e5c111fb161	-1.9488182705782366
57	0x3fe98032a3dfb679	0.7968991470967942
58	0x400fb993af462edf	3.9656137173932247
59	0xbfe2317e290ed2e8	-0.5685416032707424
60	0xbfd642c35fc50e7b	-0.347824901127957
61	0xbffa2eaa72a4ea9d	-1.6363930204667334
62	0x3fedaf3950790bbc	0.9276396342978539
63	0xbffd277b138667a0	-1.8221388590522807
64	0xbff26bb6212b625a	-1.1512967391664888
65	0xbfe0936830a363f2	-0.517994017597742
66	0xbffef14733189202	-1.9339057918488156
67	0xbf90a1e6923cdb27	-0.01624260203899577
68	0xbff5547e39a35af6	-1.333128190182547
69	0xbfd748c50e1a2a97	-0.36381651284379174
70	0x3ffa2d643485c331	1.6360818912182362
71	0x3ff2a06c66bc3bc8	1.1641658795449406
72	0xc005b590b8dc60b4	-2.7136549417737914
73	0x3fba6c0fe485c348	0.10321139649546496
74	0x3fbebaa6ea2ba5bc	0.12003558365872541
75	0x3fe13751c9438052	0.5380028658801257
76	0x3ffaf65c641eda2c	1.6851467047650983
77	0xbfedf51d2ebc0394	-0.9361711418897465
78	0xbfe5658fad4b8232	-0.6686476120631311
79	0x3fd6a597084539d7	0.3538568096891174
80	0xc0005fa894abba51	-2.0467082610041776
81	0xbff992b19fa1306f	-1.5983139262707728
82	0xbfea7bce43806a90	-0.8276130026236661
83	0x3fe0b21ae6cf5154	0.5217413433079323
84	0xbffa9dfa0f00de88	-1.6635685525961055
85	0x3ff0ef37746b9e4b	1.0584024951621298
86	0x3ff2191069ce44e6	1.1311191685711548
87	0x3ff6ba723c9912ba	1.4205191008669957
88	0x3fd0f3e30acad327	0.2648856740373042
89	0x3fc15401423e985c	0.13537612661929443
90	0x3ff1badf9b1c7fee	1.1081234034572804
91	0x3ffa1cdb86f6200f	1.6320452949457864
92	0xbff4179b06ac3cf0	-1.255763078752178
93	0xbfdce3ff6f6a84b5	-0.4514158809707383
94	0x4004b33ed2e28176	2.5875221705793434
95	0xbfabc1b1de6dad6b	-0.05421214904967083
96	0xbff65c8c616812c0	-1.3975948147719208
97	0x3fddd569158ac912	0.4661505422947282
98	0xc00dcee702c66283	-3.726026555709099
99	0x3fd50c937e2d06bb	0.328892586916577
100	0xbff55dbd5101711c	-1.3353856243402964
101	0x3ff05815e204ec22	1.0215052441478822
102	0x3fe72655bb9fbeee	0.723429552510394
103	0x3fd908e1e0d7a905	0.3911671348311219
104	0xbfd924b4a631111f	-0.39286533574728993
105	0xc005584dc656f0ca	-2.6681170935899887
106	0x3fe6dca643f5e968	0.7144347503047301
107	0x3ffa48bafbfe431f	1.6427564471707183
108	0x3ff7634aa65b2909	1.4617411134991605
109	0x3ff357c6c665320e	1.2089298009697163
110	0xbff11c4d556312ac	-1.0694096885137396
111	0xbfde60dc9d592f46	-0.47466197362949847
112	0xbff0205b7cf31367	-1.0078997498360083
113	0xbfc23e3f03150ea3	-0.14252460146427834
114	0x3ff823d260ec9b30	1.5087455545523873
115	0x3f7b70eec55e67af	0.006699497889622138
116	0x3fc8f91158e8d690	0.19510094491277075
117	0xbff138f12f3e6336	-1.0764018865067562
118	0x3ffa09e9f97e1ab1	1.6274204011730655
119	0xc009f3b8349989f1	-3.2440036877971967
120	0xbfd71245fa2215e6	-0.36049031664910414
121	0xbfe839c418cb576f	-0.7570515140784958
122	0x3fee2b068f291e15	0.9427521511178748
123	0x3ff8752b8c8cb1f8	1.5286059847086317
124	0x3ff22c96113f2b56	1.13588530289663
125	0xbff64cd9396488b9	-1.3937618486311705
126	0x4010f2d2c5e9d87e	4.237132160566146
127	0xbfc052d494719436	-0.1275277829001042
128	0xbfedc911254d5adb	-0.930794308524891
129	0x3fd89fedb36d3f58	0.3847612621511778
130	0x3fec99330ec373b7	0.893701104006701
131	0xbfe26cffbce90bf7	-0.575805539098268
132	0x3fe228206a9172c0	0.5673982697877236
133	0xbff75ad31922e65a	-1.4596739751708783
134	0xbfd158081fe78d40	-0.270998030812013
135	0x3fc0455ff76ae228	0.1271171529858901
136	0xc00100f20a83296f	-2.125461656692259
137	0x3fdc4bb23f61d569	0.44212013425506896
138	0x3ff532ff5b3d88e0	1.324950558097548
139	0xbfe3f91c21ca80bf	-0.6241589221936222
140	0x3fe5de40354e2446	0.6833802262418736
141	0xbffa1bdb021d32e4	-1.631800659425772
142	0x3fe31916e3451054	0.5968126715529345
143	0xc00c46861792b4fe	-3.5344354478498863
144	0xc003a85947da08d6	-2.4572015393651823
145	0x3fa73e80e8d801cd	0.045398739264786415
146	0xbff3d3e85bfe6ddb	-1.2392352670202544
147	0xbfe3fc5112a50b05	-0.6245503772882733
148	0xbff062c59c548931	-1.024114237465778
149	0x3fc0d7aac47ff2b0	0.131581636378447
150	0x3fda407c40b4c358	0.41018587416606556
151	0xbfe504c66512c6e3	-0.6568328832711042
152	0xc003752e4055760e	-2.4322171236115144
153	0x3fd7cb7672345eb5	0.37179337647237826
154	0x3ffb7d3a7121facb	1.7180733126876244
155	0xbfe08e73ec130255	-0.517389260370758
156	0x3fe45d8c17a25850	0.636419340286702
157	0xbfe676a7cfae1276	-0.7019843155145071
158	0xbfba16fa63be8bfa	-0.10191311774410386
159	0x3fd0dbe45b04bed3	0.26342114342240314
160	0xbfe1999782500a0a	-0.54999900294962
161	0x3ff9b944f6925067	1.607731784029079
162	0xbfd5be176d851488	-0.3397272653131229
163	0x3fd9e5a16a5bcf0a	0.40464053522667653
164	0x3fd3cf5c073b1e5f	0.3095312185873577
165	0x3fe49e6da121cb3d	0.6443393847569961
166	0x3fda22f89e478136	0.40838447052921667
167	0x3ff7dc69654639d0	1.4913114505794631
168	0xbfdf2c096d7df0ac	-0.48706279461454005
169	0x3f923424015fc9d2	0.01777702577960289
170	0xbfa209a13d1469f8	-0.035229719835303486
171	0xbfe0301bb4b9547e	-0.5058725862278519
172	0x3ff469e312a12b0c	1.2758513190953549
173	0x3ff0caecfe748a2f	1.0495424213082847
174	0xbfde18bc4c1608ca	-0.4702597373035472
175	0xbfde5e0597f9f955	-0.4744886383195042
176	0xbfd68d9496815b03	-0.35239138314993584
177	0xbfe2883a55ec8791	-0.5791293791009925
178	0xbfe6f7935b98c37b	-0.7177216328619659
179	0xbff60a1b3ee7e4b9	-1.3774673897990353
180	0x3fe66731e67a7672	0.7000970365076695
181	0x3fbdd304077d99fc	0.11650109465481501
182	0x3fe42eea1dc541cd	0.6307268697219627
183	0xbfe69cef8c4c24db	-0.7066571941551517
184	0xbfb3341f182b523e	-0.07501406040257394
185	0xbfc9516332e050ff	-0.19779624923888403
186	0x3fe467cb887b2488	0.6376702943463366
187	0xbfe11cfcb3bcc60d	-0.5347884665008579
188	0xbfccf73566225e2a	-0.2262942074491872
189	0x3fe502b940688241	0.6565824754689588
190	0x3fca9a5ffe75617b	0.2078361504052387
191	0xbfeb863e7e3369a2	-0.8601372208461735
192	0x3ff1de34091da87f	1.1167488437736492
193	0x3fdbf754649b52cd	0.4369708044517154
194	0x3fe0c7177452b4c0	0.5243031761107417
195	0xbfca914dbce54efa	-0.20755931590485216
196	0xbfce1f1322bbb4e5	-0.23532332607229658
197	0xbfde879b785bbf62	-0.4770268130659955
198	0x3fdecaca60f0ef60	0.4811273523989623
199	0xbff35d944e4d202f	-1.2103465136187983
200	0x3fbd84aacfaa9d48	0.11530559129697793
201	0xbfe2e57b3047eea6	-0.5905128424633019
202	0x3fd3fa3d067f826b	0.3121483386476373
203	0x3fec47903725b0d0	0.8837357594580002
204	0xbfe3a961042b6a0d	-0.6144261437833066
205	0xc000385afa64c20b	-2.0275172769545455
206	0x3fddd5d0a8ca45ed	0.4661752365437611
207	0x3fedd18605a255ca	0.9318266019860684
208	0xbff2232862ff038d	-1.1335834376370457
209	0x3fe213b87286b805	0.5649072872963649
210	0x3fc1987d5fa6c8ec	0.13746611757739602
211	0xbfdaa5678fa167fb	-0.41634549166121787
212	0xbfeaced1c1f32b95	-0.8377465046008746
213	0x3fe00e8ffd70e0b0	0.5017776441591391
214	0xbfefb1aa73636db4	-0.9904377225570244
215	0xbfea3db750c0d38b	-0.8200337006770594
216	0xbfd0f8e3e38ce4a9	-0.265191051690247
217	0x3fe825d24cf8dd9c	0.75461688073749
218	0x3fd9f2275b274b01	0.4054048910303863
219	0x3fc4c80a6d471260	0.16235475860425463
220	0x3fcebf4063738c32	0.24021153312705362
221	0xbfe7a3751261de16	-0.7387032851247024
222	0xbfe26acaecb14edc	-0.5755362151052981
223	0xbfeac3158fc533a9	-0.8363139923109105
224	0xbfdffc00225e2d07	-0.4997558913825774
225	0xbfc829e9cc27a9ed	-0.18877909153464092
226	0xbfebb79269522823	-0.8661586815881076
227	0xbfd30861c896d88e	-0.297386594665462
228	0xbff1befb387879f6	-1.1091263013728372
229	0x3fd2f1bb258980ba	0.29600409188970966
230	0x3fec4dc144aa4bf4	0.8844915715329749
231	0xbff16fef441c9e9a	-1.0898277912728305
232	0xbff0281a1bf53048	-1.0097905246830283
233	0xbfe8dabba5f6371a	-0.7767008058014853
234	0xbfd488ad165a7562	-0.3208420484823674
235	0xbfa116c4a45d93c4	-0.033376832069542256
236	0x3fcf6447c8f1b5ae	0.24524781524398293
237	0x3fd352ca279d76bc	0.3019280802599089
238	0x3fc983bc02fd7ae7	0.19933271547321071
239	0xbfdb1ebd60793a61	-0.4237512056469424
240	0xbffd700e2c8b40ad	-1.8398572673795954
241	0xbffef100e555ea8f	-1.9338387449667243
242	0xc000d633f92b30a2	-2.1045913187318357
243	0xbfe2e66433027bd7	-0.5906239506037946
244	0xbfed4ea2b65341a1	-0.9158490716018158
245	0x3fefd150f4752ecf	0.9943012976231901
246	0x3fd0234ff01cfcda	0.2521552891593736
247	0x3ff3620e8e82df4e	1.2114396635860945
248	0xbfdd17d3f59046e1	-0.4545793436128474
249	0x3fddaa7c7483a32f	0.46353064897862145
250	0xbff5d497cf20f270	-1.3644025889363114
251	0xbfcb1cd973f0876e	-0.2118179145919003
252	0xbfb8a03d6796b8bf	-0.09619506625196815
253	0x3ffa863e2107bf3e	1.6577740946049313
254	0xbfca93b07c3ae3f2	-0.2076321226684566
255	0x3fe15b1d0e580af8	0.542372253432716
