weights/names_RNN__Whh.npy (npy, 51328 bytes, 1 tensors)

array f8 [80, 80]
00000000: 0d66 93a7 9561 bc3f 03ef 1a64 cb95 b23f
00000010: 5ffb d55f 0af1 a63f 163e 3c5a 48de bd3f
00000020: 8292 f070 c8c7 7f3f d4de a2ea 9cc4 bcbf
00000030: a504 105c 6bdd dc3f 4d89 e2bb ea0e bf3f
00000040: 32de a43f 3a1b c73f a65a 5de4 e9dc 933f
00000050: e50c 1bad c60d c0bf 8adb 3d2e 4714 bcbf
00000060: 63af 949f cc13 e53f 4683 14d8 f24d ce3f
00000070: 335b f255 4192 a93f 0b64 e0ce 063c ce3f
00000080: 3e52 b9f6 ad32 743f f1ea 74c5 8163 e03f
00000090: 1bef cd04 bc6e 9cbf 5441 d59d 82ef bfbf
000000a0: 08ee 7962 6278 aa3f 7234 47a3 19ee b63f
000000b0: 6f5a 163f a8b0 a6bf 8fa9 1511 4d1f bdbf
000000c0: 93b5 1cb4 dde5 abbf 7949 0c40 8fd0 b33f
000000d0: 99ee 4a31 729b c53f c214 36d7 b500 d03f
000000e0: 2823 3d26 15e4 aabf 466e 8229 7227 c53f
000000f0: ac0a bb76 43a4 c83f 83d5 20bd 3112 d33f
00000100: d618 2fbe c5be d63f 0aa4 8179 d2b5 b9bf
00000110: 8cf2 5b3d 2350 a63f a615 58d6 4345 e03f
00000120: 938b 640b 0df2 c63f 4e15 7e1a f940 eb3f
00000130: c11c bc1a c5a2 9dbf 356a e118 3908 d63f
00000140: fd72 491b 9441 d33f 90c6 d062 a050 e13f
00000150: 0aff 6537 389c d7bf c39d 9c24 efac d93f
00000160: 0d92 65d6 543c b43f aac9 8b07 053c d1bf
00000170: 7470 6b14 b9ec 79bf 4cd4 88d2 60e4 c83f
00000180: 2189 aee7 6139 bd3f 773c db2c 248c ce3f
00000190: 5061 02c0 dc20 b7bf c362 5325 04c0 d33f
000001a0: 8884 a323 9bc3 d0bf 2a1c 7af4 29cb a13f
000001b0: 13f5 21dc 1ac3 7d3f f69f 4cea 0c92 ecbf
000001c0: 2b51 ec6b 2c02 aebf 87de 7024 c3e9 d3bf
000001d0: fe19 80f2 54b1 d4bf ba42 a0b5 716f a63f
000001e0: eaf3 15c3 68dd e0bf e361 9c1d 0938 bb3f
000001f0: a3ee b7e1 f5db c3bf 8e62 e804 a655 96bf
00000200: b996 4b2c d544 b9bf 3b20 d2ad 4ef6 e13f
00000210: 6603 6c9d dd5e dcbf 3499 d458 01ff b83f
00000220: ecca 303a f05d cabf 1cc2 9f00 466a c7bf
00000230: dc6b 76b9 4b6b d83f 998b 3901 5a71 e23f
00000240: b21b 178c f22c a03f d0ac 54f8 f145 c1bf
00000250: d215 a752 2d9b d03f 0b7d 466f af85 913f
00000260: c281 f4b6 3a58 d83f 1fff 9feb 15c6 cabf
00000270: 4fba 1fb3 b7a3 b53f ebb5 3160 501f d43f
00000280: 1978 ccf3 4230 d13f db46 80c5 1b72 f53f
00000290: 9892 d8ba 856e bd3f 679c 818f a059 d8bf
000002a0: ab34 84df fc14 afbf 2d84 63b2 7b3d e1bf
000002b0: 3f24 884e 5e48 c33f 4a11 efdb c6e0 d1bf
000002c0: dc4b 3537 4811 e13f f463 7783 429d e33f
000002d0: 3d0a 6bea c279 b1bf f2d2 80b3 2631 c63f
000002e0: 5669 7935 361f d13f 0ed6 79e0 83fd df3f
000002f0: 60b0 d526 d6aa e43f 421c cbcf f38c d83f
00000300: 2b42 88d5 b8bd d43f 86a2 0038 f5bf c6bf
00000310: 4d18 5fa0 adb4 a8bf 11eb 1499 9b55 adbf
00000320: de35 244e 6d4c a0bf 4d88 5bec 91f3 b5bf
00000330: e96b ccde be99 d5bf b18b e2ec 00bb c1bf
00000340: 29df d59a 16a8 de3f 79fe 2427 5c00 af3f
00000350: 4f72 189a 3c05 96bf ab82 63af 12c9 cd3f
00000360: 050c 4224 5b96 e03f b8ff e78b 42e3 bfbf
00000370: 0cec 230e 59d6 e43f 496c b061 e19e a73f
00000380: 805c 8009 7cf6 d93f 0476 c9f6 0502 ddbf
00000390: d840 edac 7381 c2bf 997f 8d26 99b3 d2bf
000003a0: 4f89 5c38 92c6 b9bf 46e7 5109 c898 abbf
000003b0: 5c89 572f 96b4 c93f d8ce edfd c717 d53f
000003c0: 85b2 ba2c 7213 a63f 84a1 79f0 916c d8bf
000003d0: c19d 2a09 57b1 c1bf 1185 3f1a 081f dfbf
000003e0: c227 65de 4e0c cb3f 3b6b d484 2d35 b33f
000003f0: 40ab 4479 3390 cdbf 3a0b 048c f521 d23f
00000400: 45bd c5c8 9b2b bebf 00a8 20b2 88fe e73f
00000410: 82da 3cd8 87c8 e2bf 6807 553b 9648 cbbf
00000420: 2de4 e1a6 8ad1 d6bf f7f2 54b4 08e9 e1bf
00000430: 83d9 d2dc 5233 c9bf cdbe 5dc8 26fd a43f
00000440: a4f2 ec6e c593 ccbf dd48 ff88 dcba cdbf
00000450: 7416 272c f3fb cf3f 2260 a95a 5c62 b6bf
00000460: e410 a2ad fdda b0bf e50b 80d9 2bea bc3f
00000470: 5c3e 7183 23e8 a23f 8240 735e 0028 b43f
00000480: 5abe 2394 43ba cfbf bd63 67df bb09 d7bf
00000490: ea0d e6d7 23f1 d1bf 5b05 9d72 33bd 753f
000004a0: 1383 dab5 f65c c63f 90c1 86e7 61b5 9abf
000004b0: c621 14f1 3086 62bf 336c 6f87 6514 cbbf
000004c0: 7c2c aa05 5146 ab3f a029 7859 2acd d43f
000004d0: 916b 1ecd e6ad a73f f6f9 dee1 125e d4bf
000004e0: 4346 393d 3a92 d3bf 709e 8a84 d1ec b33f
000004f0: 48e0 1c9d a5c0 d33f 33e5 0c2c 5b7d dcbf
00000500: a034 b5cc 0aa1 e2bf f430 3515 a592 cebf
00000510: 18cb 6ee9 835f e23f c83b 8049 5bf7 c2bf
00000520: 2c6a 90d2 d0e0 e03f 1f14 0e44 b417 c1bf
00000530: 03ec c87e dec7 b23f 0be3 937a 3345 cf3f
00000540: d450 73e2 b79b e4bf 48e2 3a3a cdc4 c7bf
00000550: 63c3 4202 6046 c7bf b093 3627 7b79 a63f
00000560: 231f bb13 d6ce a9bf f1f0 6f0d b9bf cf3f
00000570: 24e8 da90 749d c9bf 0f7d 8b88 254b c7bf
00000580: bcbd e293 222a 873f b422 c1a2 9aca c5bf
00000590: 22fc fb02 8bee d33f 9f3c 9a0a 499c df3f
000005a0: 86eb a2c8 64a8 e1bf f933 39c5 0839 e8bf
000005b0: e36e bc34 22ac b7bf 3a26 911a 95a5 d43f
000005c0: 9d24 a4e6 6d9d a7bf 131f 93a8 624f eabf
000005d0: d43d dafd 7294 db3f 1087 6664 6e16 ddbf
000005e0: 8b46 9110 8a9a cd3f a823 55c1 1b25 e23f
000005f0: 9f0b 041a ecc4 e9bf 88f8 1c5d 91df e0bf
00000600: 97e0 45c4 1661 e03f 7526 788f 0525 ec3f
00000610: 4d17 fa15 9e8d d33f d540 0e99 a3f8 c23f
00000620: a94c f11f 769d d9bf 6adc b181 f551 cb3f
00000630: 2966 2e15 93c5 ee3f b618 73db e63e d4bf
00000640: 417c 5732 cfeb c33f 7dab 3794 6d40 cebf
00000650: d559 eac9 3085 e43f d501 04a2 6112 cf3f
00000660: 9b7e 8ee4 7022 f1bf 1c44 3b62 44cb cc3f
00000670: b591 e06c 8e01 cdbf cc99 c223 2e98 cfbf
00000680: d723 3791 12d9 d53f 02e8 c68f cd3e c4bf
00000690: ee8d 644b 8bac e0bf 2ffa 740e 6701 d0bf
000006a0: b75d 53f1 1676 b1bf 3022 c114 51a5 d03f
000006b0: 9a88 997b 7c77 d4bf c999 5af7 fbbd cb3f
000006c0: b30c 4a58 96f9 b2bf eaba 4b15 4aa2 d03f
000006d0: 7d2c 5d99 1b65 d7bf f5d3 c4e4 8a65 c73f
000006e0: bec5 29da 1396 e0bf 5891 e360 d1af b43f
000006f0: 92ee 0e24 5069 d83f 9b5a 0b4f 0d5c e23f
00000700: ad65 2990 4561 b6bf 301f 23a5 c512 9abf
00000710: 7b45 49b7 5136 ac3f a9bf 8a26 1a36 ba3f
00000720: 2ff7 bdb6 c752 9e3f 7859 42ae 3dab efbf
00000730: c556 09ef 372f e5bf f2b8 68b6 b4f1 e3bf
00000740: 7042 af57 ca54 dbbf ea6b e5c5 eab8 e33f
00000750: 61ed 674e b015 dfbf a2d3 2654 5bc4 ebbf
00000760: 5622 b717 5434 cfbf b9fb d728 5b9d d33f
00000770: 272f 428e 4dc7 c2bf f811 afb7 d749 c0bf
00000780: 2d6a 4d6e 4ca3 d03f 08c5 cd78 e34f c03f
00000790: 28d1 e5cc 8e82 633f 72ab 259b 55c3 eabf
000007a0: a1e9 f0a5 547a e03f 4d5f 3d0c 04dc a23f
000007b0: 6828 b5dd b94a d23f e634 e2f2 cf11 d6bf
000007c0: 289c aaf9 ab2f b33f 8be6 8b59 d99c d13f
000007d0: 9b5d e182 0026 783f ab01 dd1a 216c aa3f
000007e0: f2d3 1799 6f8f babf 6aaf 1375 151a d5bf
000007f0: ef93 3a57 8b5b e03f 0adc 5ba7 cfb5 d63f
0.1108640226479098 0.07259818262076227 0.04480774326201841 0.11667301371584701 0.0077588872655139935 -0.11237507561133536 0.4510143660591644 0.1213213642791164
0.1805184183847231 0.01939740616156862 -0.1254204125635631 -0.1096844184774978 0.6586669079601787 0.2367538027838469 0.04994396375803092 0.23620686627762696
0.0049311442813473865 0.5121468407226911 -0.02776616839717781 -0.12474838593812382 0.05169970943549279 0.08957061992914975 -0.04431653757199149 -0.11375886599640793
-0.054488113628717326 0.07740111650153904 0.16880633742208742 0.25004335419391677 -0.05252138225347941 0.16526629473524873 0.19251292512315865 0.2979854914622921
0.35539382527021013 -0.10043063608613081 0.04358015178693106 0.5084551988990611 0.179261808932179 0.8516812817985426 -0.02894123054195741 0.3442518942808051
0.3008775965188731 0.5410921030035798 -0.3689098874092315 0.4011800630127846 0.07904558405204672 -0.2692883084956984 -0.0063292722395226104 0.19446954994205823
0.11415683656972365 0.23865177335980878 -0.09034518897749888 0.3085947384366074 -0.2619388435396748 0.03475314244592938 0.007266144677598579 -0.8928284240873825
-0.05861033265515155 -0.3111427169674034 -0.32332347566298825 0.04381900159944992 -0.5270274935024848 0.10632378552362058 -0.15515016099367526 -0.021811098146005174
-0.09870655375888306 0.5613168139398178 -0.44329014180407567 0.09764107149803608 -0.2059917720922252 -0.1829307082221171 0.3815488158376732 0.5763368629380806
0.031592921830046264 -0.134947057967429 0.25947125503111323 0.017111531416614627 0.38038509241780727 -0.20917009358526514 0.08452938197272285 0.31441125291789146
0.2685706501814607 1.3403585162054046 0.11496768771810151 -0.3804704095295563 -0.060706999096603674 -0.538755272307872 0.1506460078674383 -0.2793442867080286
0.5333596304211556 0.6129467551901358 -0.06826418135737185 0.17337497486882786 0.2675300142488103 0.49984833642460635 0.645854068612163 0.3836030511124059
0.3240797124172185 -0.17773308977600183 -0.04825346548709373 -0.05729376071618309 -0.03183309153437695 -0.08574783344696009 -0.33750888593357203 -0.13851939741752298
0.4790092956604775 0.06054962137068016 -0.02150435152553803 0.2326987606420706 0.5183540065921767 -0.12456146159820392 0.6511655117204795 0.046134036230988835
0.40566922119018756 -0.4532484922436597 -0.144575557171726 -0.29221180691637866 -0.10068620563518958 -0.053900004518210795 0.2008235675012412 0.329576490380743
0.04311711116802023 -0.38162659152887835 -0.13822448680478597 -0.4862690216378534 0.21131311282289117 0.07503017895616619 -0.23096316739369094 0.2833227031080018
-0.11785291339559929 0.7498210410169577 -0.5869788382904775 -0.2131526746471153 -0.3565394048415012 -0.5596965334039784 -0.19687877447513466 0.04099389263035178
-0.22325961986816367 -0.23226505936924627 0.2498764005269326 -0.0874383660642484 -0.06584153641785268 0.1129481702810576 0.03692732791443795 0.07873537355340157
-0.24787182553653758 -0.3599691087416053 -0.28034301837780495 0.005307389228449945 0.17471202735489352 -0.02608254409432359 -0.0022612529652443506 -0.21155995476769504
0.05327084726476358 0.3250223039364304 0.04624863866702989 -0.31824180658068657 -0.3058000181091282 0.07783231244922617 0.3086332353882466 -0.4451511316470544
-0.5821584699821365 -0.23885024581466718 0.574159580157672 -0.1481737240687535 0.5274433243351431 -0.1335358936595705 0.07336226077397616 0.24429934964407382
-0.6440085814342873 -0.18569341033232178 -0.18183517561331106 0.04389557698895119 -0.050406160267412646 0.24803841739765844 -0.2001176554966274 -0.18198079268675157
0.011310835016358982 -0.1702454848002809 0.31143451014935597 0.4939138988056104 -0.5518058699302493 -0.7569621898670668 -0.09247030055524479 0.32260634989197323
-0.04612296524471413 -0.8221905987238379 0.43093561926158697 -0.4544940929864518 0.2312786656280433 0.5670298362757551 -0.8052883632775439 -0.5272909945122288
0.511851676316854 0.8795192529807553 0.30551864763434794 0.14821286176130025 -0.4002356826724261 0.21343869049789826 0.9616179860779016 -0.3163392203390559
0.15563383062451133 -0.23634118783169447 0.641258615842896 0.24274845515175394 -1.0709084442131942 0.22495322033367493 -0.22660999599714918 -0.24683167215444113
0.3413740556830453 -0.1581665946994804 -0.5210625145450061 -0.25008560573397437 -0.06820815459956618 0.26009013201522446 -0.31979286260878725 0.21673535898044197
-0.07412089972972317 0.2599053581206322 -0.3655461309142039 0.18278633280138448 -0.5183200131415828 0.08080776801540901 0.3814277984745128 0.5737368148646341
-0.0874217488248152 -0.025462234691786267 0.055101922630124776 0.1023880333038948 0.02961265614384628 -0.9896534350871624 -0.6620139759713416 -0.6232551157643498
-0.42705019534063293 0.6163228860053753 -0.48569877297241787 -0.8677193301760904 -0.2437844386861509 0.30647925366059386 -0.14670724340646155 -0.12725349873484482
0.25996695300787814 0.12743800543425032 0.002381590754504743 -0.8363445310800286 0.5149329415356086 0.03683483743105729 0.28581091548097115 -0.344837176505122
0.07494616361019324 0.27519830460332945 0.005895616528582971 0.05160621121331429 -0.1037511585962674 -0.32971702988901674 0.5111748412788283 0.354846871792177
