weights/names_LSTM__Whh.npy (npy, 204928 bytes, 1 tensors)

array f8 [80, 320]
00000000: a94c 1ecc 7498 ebbf cabc 78c1 a5f2 e43f
00000010: 06f0 0adc 684a dabf 7b25 5d6d 329c ab3f
00000020: 714a c212 4311 d0bf f413 c00d 1e17 cdbf
00000030: 8cf3 aa09 09da e2bf ca15 244e e6d6 d2bf
00000040: d59a e92d 6ac7 c63f 370f a836 bbc1 b03f
00000050: d0c7 596b 75f6 c13f b344 fc0d 3946 e1bf
00000060: 0a03 9f06 cc59 eb3f dea9 2e95 30f1 dabf
00000070: c8de 4211 a0f6 cb3f fded 3f66 acc8 c33f
00000080: c873 30ca 79f5 c23f d951 4ad8 ece5 d33f
00000090: 15d1 d6c8 2c10 d0bf be89 72c7 2798 e1bf
000000a0: 92a9 827b 54b3 e0bf 97a6 aba6 944a d5bf
000000b0: b87f a23c 4d40 d7bf 9204 1807 7060 b0bf
000000c0: dba0 2449 436f a93f 1e0d f0f0 ac4f d8bf
000000d0: ed0c ee90 f5a1 adbf 142a 7eca 61be c83f
000000e0: 2ad7 955e 2946 d13f 6ab0 b493 7113 f1bf
000000f0: 45b5 4717 cdca d63f a818 b146 87b5 d7bf
00000100: f5e4 025f aedb bfbf 3edd 1f0a 4dbb e0bf
00000110: 08d9 3083 edef edbf 0d0a 9356 967b 00c0
00000120: ab09 aa1c 4528 b23f a713 1331 e622 d93f
00000130: 49b0 ba6f f4a9 db3f 9b66 6f2e 5e92 99bf
00000140: 543d 7e53 1c14 c53f b35e 9c05 142b afbf
00000150: ce67 07ea a15b e1bf d22a a632 a0bb 95bf
00000160: 8235 9c47 898e c1bf c5fb 1f7e fbd7 d23f
00000170: 51eb 18f8 8f36 d0bf b52a 8e98 4c97 e1bf
00000180: 9ee5 3634 7360 7dbf 02fb de6e c3de e13f
00000190: d3d7 98c9 c09e d73f f544 9be9 1e2d dcbf
000001a0: c77e 0589 ccf1 bdbf c3c7 3115 54d4 dabf
000001b0: bdc1 6fd4 c7c2 d2bf 405f 6b94 1271 e03f
000001c0: 19b8 8bbc 282f a63f ba69 4d53 60fd 533f
000001d0: d7b4 d720 7a21 e1bf 4bf6 029b c7c9 debf
000001e0: 3236 e7d4 8ae0 c5bf 465c 80b5 3fc0 cd3f
000001f0: 701a 0211 66a2 b6bf 29fa b220 65bb e6bf
00000200: b285 1d83 43a8 b2bf 43a2 920c 3644 d2bf
00000210: bb0e a666 40c3 d6bf 45f4 041e 0c5c c2bf
00000220: fbd3 1eb0 ad13 dbbf 3942 f3ef 08aa a1bf
00000230: e3ed b8b3 1463 d8bf 1268 657a 109b d93f
00000240: 3c10 2754 8e30 c6bf 8df6 a062 def9 cfbf
00000250: 5d72 31c3 c66d e1bf d4c2 05b6 649a c6bf
00000260: ea21 433a dcd0 b9bf e030 6dcc 923c d13f
00000270: 782b 2be3 208c c53f 4f6b 79e0 33cc d5bf
00000280: 1333 759c 8ede ee3f 00ae 6491 e9d9 d43f
00000290: e0cf ac20 f880 f1bf ccab 4406 ba89 eb3f
000002a0: 9dc0 8be4 8cc5 cc3f 4f15 aba6 ca78 e73f
000002b0: ac43 f936 af3e dc3f 467b c14f 428e e63f
000002c0: 27a3 b131 1808 0040 6b80 3cca 0839 ed3f
000002d0: f618 8002 94de e33f 6552 1674 e255 f23f
000002e0: 2710 3ba7 5978 e43f 2895 1185 f970 f73f
000002f0: 1a0d 08d2 369d c0bf e772 3f52 29ad cfbf
00000300: 5ad3 b6f1 09e3 f03f a481 14af 5ba4 d8bf
00000310: 0ea3 afba 823d e63f f48d 66f2 6144 ed3f
00000320: fe5d 2c72 53e1 f03f 7c45 e365 3f19 f2bf
00000330: 92f9 9318 102c f23f c314 3335 3d84 e63f
00000340: e84c 9b86 4183 ee3f 6edb 17fc 6801 d93f
00000350: 11ad bcc4 d92c eabf 18a8 c515 0568 e03f
00000360: f9b4 fd7a 81f6 d33f 09f4 fb2a 648e c3bf
00000370: 3ecf ce25 45d3 dabf 9845 e60e 4fd8 ce3f
00000380: 53fe 7052 cbd0 cb3f 709c 75b2 71ba bd3f
00000390: 59bf e3bb 054a e63f 52d1 ea09 0977 c0bf
000003a0: d8c7 ef0e 9b15 b7bf b194 11a2 90db dcbf
000003b0: 9db4 ad82 7370 ebbf 4ae0 570a 04b2 d53f
000003c0: 8468 9b00 471d f6bf 4671 25a1 3744 d73f
000003d0: 4767 39c8 708b f13f 0ae0 8167 ef2e ea3f
000003e0: 421f dc1d c4ca a0bf ed74 c219 17e6 d0bf
000003f0: 2e46 c79b 450c e5bf 19fd 22a7 8c34 f3bf
00000400: 76d7 6b5c 361f bbbf 17f0 6755 ad5b e5bf
00000410: 11c4 c6f8 60a7 bb3f 5d18 78ad 0aaa e73f
00000420: c7e6 3593 58e2 ecbf 05b6 7275 cc4d ef3f
00000430: 5459 144b bc7a e3bf e1c8 74f7 509d ebbf
00000440: 5f9b fcc4 91c3 b53f a08d 137f b231 da3f
00000450: cf2a 5341 aeff eb3f a0c2 195a 03cb ed3f
00000460: 8d37 db4d 7863 f73f 1a82 d69d 04d0 d6bf
00000470: d47a 0219 34e1 f03f ee6a 728e eeb1 a83f
00000480: 2aa7 a575 f87f e93f 7eec 8c05 8ece fcbf
00000490: 5577 1c7a 143c bebf f7b5 0f83 d47e d23f
000004a0: 9ce0 ecfc 3e5a c5bf cea1 4dd7 b8c2 eabf
000004b0: bda1 a205 fd7c d6bf 3429 c87d 074d e53f
000004c0: 71d4 1203 016f d7bf 4aaa fdb7 aca3 dd3f
000004d0: a6c7 76a3 5356 e3bf a5d4 f4b3 2732 ecbf
000004e0: 17cb 88ba 821b d2bf 9294 07a2 8575 dfbf
000004f0: d248 489d ed21 ea3f e383 2064 9f84 e93f
00000500: 75ef 9665 7390 e73f 9d17 dce3 2df9 f63f
00000510: b557 7201 af09 f03f 65dc de0c d6e1 a6bf
00000520: 67ec 6af9 bcca e5bf 70a9 510c a983 cabf
00000530: 858a 1f1a af39 d3bf cb09 efee c099 f13f
00000540: 3b9d f0b8 413e b3bf 33dc 0cb5 c703 ba3f
00000550: ba3f c2bc 4f72 e33f 0f9b dd10 3d1f f0bf
00000560: e7bd b074 5d52 cd3f bf9a f1c1 35ed e43f
00000570: e347 a046 1e10 d43f 679e d7e5 f6cc e13f
00000580: f0db 3ecf 0675 e63f c9f3 538d 8fc0 a8bf
00000590: adff 77b5 8a59 e53f 8596 bb2d b4d4 ef3f
000005a0: 0565 bc98 7404 c1bf c9a5 bac4 871e 873f
000005b0: b826 3ead d4e4 d63f 2076 3716 1eaf b9bf
000005c0: 60b1 da28 cc3b d73f 2d03 5cfc 9f8f e93f
000005d0: 52e4 4b6d b014 e2bf 18ae 0504 e64a d83f
000005e0: 4096 04b8 46ee d33f d45e 6d30 06c5 f03f
000005f0: daef 2d84 9b6b ee3f 2b91 5e66 0e60 d5bf
00000600: adba 66e9 7461 d93f 3933 b5c9 9372 d3bf
00000610: 0a89 d5b3 539b e0bf 9acb c0f4 7f9d e7bf
00000620: dded dee5 2e8d e43f 3dab 6388 eb26 d3bf
00000630: 9d9c ef6b b9c6 c43f 9403 63d0 790a c13f
00000640: 0da2 8206 7796 67bf d52f 61a9 2d35 df3f
00000650: 3296 5591 eb66 f13f 7988 9018 52de d33f
00000660: 60f3 01d4 c5e0 b53f 15b8 a7b0 da5c e23f
00000670: d362 02d8 9944 d93f bc0f 80b2 0ed5 b6bf
00000680: 6991 0f1c 05f0 cbbf 8681 e770 14f3 c43f
00000690: 02ab caf9 b2a8 e83f c34e 8460 a6a4 d23f
000006a0: 37f6 3265 143d a43f c67d 06fe cdef c93f
000006b0: 788e 6af4 0aef d13f d145 820a eef0 f33f
000006c0: 1564 84f4 de0a d8bf a999 cfc7 1d38 b63f
000006d0: 042d 0467 478b a2bf 5d1f 7776 aa2b ed3f
000006e0: b713 0889 97f3 d03f 00f0 40b0 7e91 bfbf
000006f0: 4ce8 9606 cd81 e13f b54b ceec a0c9 d8bf
00000700: ced5 cb8c 7329 d63f bab9 17eb c215 bdbf
00000710: a7a1 c145 c1bf f93f 2dd0 8371 ebcd ad3f
00000720: f159 dbcc 9cd3 ce3f 4db8 4379 61c8 d4bf
00000730: 8e85 e9c4 dab3 ef3f 0fcd 903a 179e e73f
00000740: e982 c30d fc53 acbf c662 1ab1 6a23 dd3f
00000750: 6c9f 10d5 40cd d43f cc35 4f64 98f1 ebbf
00000760: 9fa0 e487 0211 b13f 3435 740e 3fa9 b33f
00000770: 0b4d 2be7 1ccb c4bf ea11 cf20 a87f d5bf
00000780: b6dd 3469 085a e9bf 1da4 138a 1032 da3f
00000790: 1b1c 4f78 2e86 c23f 5878 7c72 4672 c13f
000007a0: d3d0 bc1f 0c5b debf 1dbc 4252 f69f bf3f
000007b0: 77a8 b14d 3533 d0bf cf90 7f98 25a1 b6bf
000007c0: fa08 adac dc88 f03f 160f b6b6 3f15 d33f
000007d0: c2ec 9136 3850 d7bf b3b9 dcbc 2afe e3bf
000007e0: 3d74 1691 dc98 c53f d7e2 e2eb 829e cc3f
000007f0: a81b 9d96 4882 de3f d2a2 ac1c ce45 eb3f
-0.8623603808104195 0.6546200541250979 -0.4107916020254837 0.053926063394622546 -0.2510535891716819 -0.227267986978546 -0.589115637667065 -0.29436643248513106
0.17796065561125 0.06545610508333942 0.140333821694695 -0.5398221276428984 0.854711544925608 -0.4209710556848715 0.21846390574295627 0.15456156723654138
0.14811632511637485 0.31090851900196764 -0.2509872399634941 -0.5498236556489287 -0.5218908703148364 -0.3326770427362162 -0.36329966470111286 -0.06397152112187346
0.04967699306354386 -0.3798630097300747 -0.05787627596057541 0.1933099974379081 0.2699073241886817 -1.0672469873198005 0.3561279990525075 -0.37045461562628157
-0.12444581813442197 -0.5228638837569759 -0.935538059455923 -2.060345341074259 0.07092697095689597 0.3927550772899004 0.4322482195955258 -0.024972411712815484
0.1646762283021227 -0.06087553566447692 -0.5424356051328176 -0.021223548022628 -0.1371623611125124 0.2944325191201041 -0.25333022335296557 -0.5497191409679859
-0.007172060027579445 0.5584427991342127 0.3690645188065648 -0.4402539521516496 -0.11697080941439274 -0.41920950002451834 -0.29313846345669586 0.5138028048340644
0.043328545585481666 0.0012200775792822042 -0.5353365556199162 -0.48106565606926627 -0.17091498752272255 0.232429469703421 -0.08841550746192595 -0.7103753698973537
-0.0728800006013646 -0.28541327693759316 -0.3556672098568289 -0.14343406167782483 -0.4230760784078595 -0.03450038842277476 -0.38104741621984156 0.4000893779062845
-0.17335681065572028 -0.24981288734300158 -0.5446504413954006 -0.17658671272103865 -0.10084320471208455 0.2693221088745883 0.16833888141840325 -0.3405885402805113
0.9646676116768468 0.32580031584322455 -1.093986632954504 0.8605623361994446 0.22477875861614374 0.7334950690498462 0.4413259541370802 0.7048656041841717
2.003952396615563 0.9132121992042931 0.6209201859317364 1.1459679159790082 0.6396911874985606 1.465081710624256 -0.12979779487077608 -0.2474719668961349
1.055429405399272 -0.3850316247717507 0.695008625622991 0.914597485960654 1.0550112209219829 -1.1311639766684882 1.1357575378493476 0.7036424674085072
0.9535224560771924 0.39071106546855716 -0.8179749338645782 0.5126977372394803 0.3119205189785386 -0.15278293703877946 -0.419144904062012 0.2409762213469946
0.21730939412553826 0.11612616164130585 0.6965359372825147 -0.12863266929856337 -0.09017342676796092 -0.4509011824323564 -0.8574769546809368 0.33899022111973365
-1.3821477912629527 0.363538653726 1.096543104291827 0.818229391253227 -0.032796982426644763 -0.2640435935553132 -0.6577480356738243 -1.2003294495369288
-0.10594501263025599 -0.6674410503469542 0.10802274774211208 0.7395070446080002 -0.9026301264959437 0.9782469076068884 -0.6087323633571864 -0.8629536469582285
0.08501540240523074 0.40928327951243126 0.8749610210300832 0.9310318717744686 1.4617846528303489 -0.35644641317233694 1.0549813248577964 0.048232512367766364
0.7968714044375009 -1.8004284111800923 -0.11810424786787384 0.28899109648668236 -0.166816590784724 -0.836269779695664 -0.3513786845237766 0.6656529862096137
-0.3661501436247994 0.4631149098192152 -0.6042879288345275 -0.881122447469029 -0.2829291173576833 -0.49154797385410476 0.8166416236802212 0.7974392848592483
0.7363831504985529 1.4358347798128996 1.0023641640195653 -0.04469174296485149 -0.6809983130873548 -0.2071429548407866 -0.30039575148672554 1.1000375111913054
-0.07516871228346116 0.10162017984554055 0.6077040373511331 -1.0076265963377329 0.22907608220837902 0.6539562976803025 0.31348378083305145 0.5562700738054901
0.7017854736103555 -0.0483441219348389 0.6671803993522097 0.9947148221223904 -0.13294846971329136 0.011288700762935104 0.35771672170867985 -0.1003283313979968
0.36302474965738973 0.7987823418517103 -0.5650255331703511 0.3795714415816476 0.31141822786807793 1.0481016055763819 0.9506356794004163 -0.333987808199043
0.3965732840833123 -0.3038682431986675 -0.5189608108887864 -0.7379760532697788 0.6422342767395396 -0.29925049132605236 0.1623145844489259 0.13313219714293878
-0.0028793644633717864 0.48762074986438836 1.0876269986268992 0.31044437788853646 0.08546101022689134 0.5738347482963514 0.394812069841959 -0.08918849809566515
-0.21826232786328184 0.16366820824533707 0.7705931547874061 0.2912994329974305 0.03952850089397624 0.2026307573660075 0.2802150141598996 1.2463207636359253
-0.3756635082114042 0.08679376724430789 -0.03621886379741038 0.9115803064132525 0.26486767179477105 -0.1233138256365578 0.5470948342037985 -0.38730643392153336
0.34627999066955517 -0.1136133026081784 1.6093151783808055 0.05821166763954042 0.24083290102744528 -0.32473027078856803 0.9907049032155315 0.7380481857166233
-0.05532825153364291 0.4552866677782216 0.3250276642524941 -0.8732416114013914 0.06666580026342438 0.07680124380950276 -0.16244851386600376 -0.33591654972067764
-0.7922403387846575 0.4093057011037347 0.14471989511932368 0.1362999018683151 -0.4743070897996066 0.12353457935635999 -0.2531255015115969 -0.08839640591719732
1.0334135766175323 0.2981719288147685 -0.3642712147627202 -0.6247762383189212 0.16872746548043152 0.22358738439449752 0.4767018767201372 0.8522711334272464
