weights/shakespeare_LSTM__Wxh.npy (npy, 496128 bytes, 1 tensors)

array f8 [62, 1000]
000000 e1 b6 6f 2d 3f 06 b5 3f 09 a9 8e 04 36 6e b0 3f
       0.08212656840597844 0.06418168650876423
000010 b4 38 f6 b9 87 0f 94 bf 47 96 ee 26 57 f1 c5 bf
       -0.0195904929401471 -0.1714276256654321
000020 3c 59 b2 5f 8d 16 8a 3f d9 82 f5 55 c5 e9 c1 bf
       0.01273832748692582 -0.13994661996095806
000030 b5 60 3e 4f 5f 86 ab 3f 1b 8f d1 d3 eb 44 c8 3f
       0.05375955431299088 0.18960330813126167
000040 0f 42 38 33 cd ff c6 3f f3 d8 af ed 7b b3 a0 bf
       0.17968144417729134 -0.032619354977144875
000050 b8 9d 0a fa 43 4d b9 3f 49 bc 7f 48 c6 14 ca 3f
       0.09883522848632864 0.20375898876179324
000060 78 3d 24 0e d1 ad db bf 52 ae 77 0b 8f 0b da bf
       -0.43248392468463903 -0.40695549125550656
000070 00 4c 7b 21 e2 12 b7 bf 4b ef e3 2b a4 66 b9 bf
       -0.09013188664839333 -0.09922243186514128
000080 ea 42 38 b6 fd d0 cb bf 25 63 26 71 a4 84 a7 bf
       -0.2173154010529495 -0.045933855831384464
000090 14 0a 1f 69 75 0f 9b bf d4 3a fe 0f ff 35 d1 3f
       -0.026426157513705986 0.26892067491364213
0000a0 0e e1 08 1e 51 65 9e 3f e4 92 10 ac 4c 16 c8 3f
       0.029683368166133532 0.18818052674864483
0000b0 59 c6 ee 18 db 13 96 bf de 76 48 50 32 3e 7a 3f
       -0.021560119053623292 0.006406971490404449
0000c0 93 17 1a 05 38 e8 94 3f f4 68 91 1e e0 31 c0 bf
       0.020417094527622814 -0.1265220784433222
0000d0 60 cb 28 b5 da 8a 9e bf e0 a1 b7 60 61 9c ae bf
       -0.029826562220658714 -0.059786837631523815
0000e0 ad 84 74 71 c1 e4 c7 bf 8e 5c 26 39 12 03 ba 3f
       -0.18666856803705426 0.10160936255702976
0000f0 e5 82 a8 ea b7 a9 a5 bf 27 8a 57 89 d7 20 d2 bf
       -0.042310473818593576 -0.283254512904167
000100 88 ac b7 91 0c 63 ca 3f 60 c4 f3 40 ec 8a b3 3f
       0.20614773860083724 0.07633854470965806
000110 82 d6 47 3d a5 1e 85 3f 32 3f 19 1a b7 8c b0 bf
       0.010312357838283551 -0.06464714419530251
000120 bb 3b 61 58 bc 07 d6 3f 6b 52 c3 39 ee c8 c1 3f
       0.3442221510967404 0.138944414333895
000130 d5 cc b2 69 f1 dc a3 3f e3 48 95 38 1e 05 a1 bf
       0.03879503646148811 -0.03324217262947273
000140 a7 03 33 3c df 57 a0 3f c6 04 25 11 db 8f b4 3f
       0.03192041025022912 0.08032006424493252
000150 da 08 4b 10 b4 ed 9d bf d3 c2 04 0e 7c 55 c7 bf
       -0.02922707890935148 -0.1822962826204476
000160 a3 34 69 bc 6a ed c9 3f fc aa fb 71 ef 7b b2 bf
       0.2025578899360073 -0.07220360310354218
000170 af 26 e0 ce 1a 08 c5 bf 38 0b 6b b7 2a b8 c0 bf
       -0.164309836400482 -0.1306203265758883
000180 e8 5b f5 c4 68 45 d0 bf b5 2e 77 ec dd b4 c6 3f
       -0.25423640474531206 0.17739461942834614
000190 55 fe c7 cf 1f 82 d3 bf 9f 30 cd a9 86 a5 d3 3f
       -0.30481715479979715 0.3069779070108413
0001a0 b5 76 4c 47 19 91 b4 bf 04 80 77 c1 0b 84 c5 bf
       -0.08033903113070091 -0.16809222170468285
0001b0 f9 06 06 54 5e 56 c4 bf 36 eb bc e6 98 30 c0 bf
       -0.1588857565184794 -0.12648307100774908
0001c0 da 4f d6 c7 9b 0b c4 3f 6e 2b b7 c0 58 f2 d0 bf
       0.15660426385568266 -0.26479166812776256
0001d0 78 86 36 20 45 44 de bf c3 f9 22 84 59 a5 bc bf
       -0.47291687150764217 -0.11189803577415262
0001e0 a1 4e 71 0f 04 0d bd bf 5d 1c 22 7e 60 07 a7 3f
       -0.1134798562719035 0.04497815646851031
0001f0 b9 30 4d d5 b2 c2 c1 bf 01 68 30 13 c4 c8 b6 3f
       -0.13875422873605261 0.08900094479068345
000200 e2 92 b3 6f 83 52 c5 3f 92 b5 36 8b a9 37 c0 bf
       0.1665806098382268 -0.12669867799324358
000210 ab b8 d0 6b 64 a2 cf bf e4 fe bc 74 d7 3b b1 bf
       -0.24714331879062476 -0.06731936073355943
000220 02 14 b4 26 84 fd d5 bf 82 bf 3b 89 ef bf 88 bf
       -0.34359840182906976 -0.012084838271647195
000230 bd 18 1d 3d 00 7f d0 3f b2 64 20 09 8d c8 a3 bf
       0.25775152176028 -0.03863945709617535
000240 2b a6 ec 71 2f 4b cd bf 5f 60 04 66 21 e0 c7 bf
       -0.22885697424617155 -0.1865274189119672
000250 ae 96 a5 e5 f6 47 c0 3f e1 97 58 74 0b a9 41 bf
       0.12719618046974318 -0.0005389505319655063
000260 3c fa af 38 79 5a b1 bf f7 e3 a9 d5 f1 05 c3 3f
       -0.06778676637620945 0.14861891682428993
000270 1a 12 ef 4c 3f a4 b8 3f eb 1e 03 a6 cc b7 ba 3f
       0.09625621441143331 0.10436705639869685
000280 53 ce c9 5d cf 1e cf bf 03 1f 64 42 3d 8c c9 3f
       -0.24312774734026962 0.19959226361992685
000290 d9 40 46 fd 33 ab d3 bf 07 ce 1b 1f e2 5b 9f 3f
       -0.3073244069464756 0.03062394442436125
0002a0 af 28 76 6d 04 cf d2 bf 90 4c de 2a 59 35 c0 bf
       -0.2938853329620867 -0.12662806122952874
0002b0 7e 45 11 ef 42 82 a6 3f 19 40 d5 d7 8b 25 a3 bf
       0.04396256607345615 -0.03739583024673738
0002c0 69 31 c2 ff b6 6d b4 bf 0e 17 4c df 8d 06 b5 bf
       -0.07979911560159327 -0.08213125897972537
0002d0 60 7b a5 c3 5d 40 9b 3f 1c 93 93 30 32 e1 c3 bf
       0.02661272532111114 -0.15530993816278105
0002e0 7e b8 6f 2e 2c 3e c9 bf 9c d1 3f 74 27 ff dc 3f
       -0.19720985667612817 0.453073371433925
0002f0 c2 36 3e a3 e6 2f d0 3f df 58 e9 38 7a 9c c0 bf
       0.25292364064885586 -0.12977531222231328
000300 ec 9a 64 a4 71 cd d6 3f b8 d8 92 3e 7b 5b c3 bf
       0.35628930143359017 -0.1512292914901019
000310 38 b4 e2 ef d0 43 d7 bf 43 12 94 da fb eb ca bf
       -0.36351416994404273 -0.21032665417455307
000320 e8 d9 76 b8 b6 f3 c3 bf c3 d1 22 d6 4d ee c7 3f
       -0.15587505347293917 0.18695996242389698
000330 8b 59 9d 17 64 05 9f 3f 6d f9 1f 14 96 c2 c5 bf
       0.030294002477000908 -0.1700008009210693
000340 5e 0e 17 56 3d 85 be bf 0b 32 c9 e5 db 01 b5 bf
       -0.11922057487304857 -0.08205961570747193
000350 b5 e5 e0 7e fa 02 a2 3f e9 94 d4 19 cc c9 b8 bf
       0.03517897414026142 -0.09682918196320468
000360 c2 27 cf 9e ff ce c2 bf 9c 9f d8 b7 c6 ab b5 bf
       -0.14694209341388215 -0.08465234745437872
000370 24 a6 ee ed 06 fd c4 bf 27 9e d9 a4 cf 22 a3 3f
       -0.16397177331718737 0.03737496268587064
000380 7d b3 e7 cc 0b b3 c1 bf ad 60 17 ae 1d 68 b1 3f
       -0.13827655320292456 0.06799493313099232
000390 36 b0 2e cf 47 58 c2 3f ae 9d 86 7f 3f c9 c7 3f
       0.14331910721137014 0.18582910277221515
0003a0 da cf 95 dc ab e7 b3 bf 80 11 fb 04 fb f6 d4 bf
       -0.07775377402668884 -0.32757449613952616
0003b0 43 55 32 ca 4a 10 c7 3f 6d df 0c 72 bc 1f 65 bf
       0.18018469689256209 -0.002578609521517386
0003c0 99 ba dc 1f 7c ae d6 3f 69 4b c5 ba d0 d6 8d bf
       0.35439971076531546 -0.014569884013928296
0003d0 11 1f 11 2f 93 d6 aa 3f c8 4f 20 41 cb 95 c8 3f
       0.05241832685038451 0.19207134895316202
0003e0 19 a2 19 a9 9c c9 ce bf 0e 01 0a 05 97 a3 cc bf
       -0.24052770859567899 -0.223742368183601
0003f0 93 7f 52 bb 72 c6 ac bf 39 2c 94 bc 1e 9b cd bf
       -0.05620153938912078 -0.2312963887019082
000400 cd be b0 0d ad a4 bc bf b4 ea 13 30 01 62 c5 3f
       -0.11188775619734344 0.1670533642535098
000410 4d c2 4c f3 f9 a2 d1 bf 69 b5 83 1b b6 7d d5 bf
       -0.2755722881293295 -0.3357978123375092
000420 d9 c4 01 d2 38 6c ce bf da c4 a7 ee 14 b8 c0 bf
       -0.23767767194980285 -0.13061772969334734
000430 27 e4 b2 6a 02 c2 cd 3f f5 a3 3c 23 7a 1a b5 bf
       0.2324831982603268 -0.0824352584865123
000440 b9 3f 51 8e 4c 36 af bf d7 0e 4d 59 21 91 e3 bf
       -0.060961143849112394 -0.6114660972748095
000450 59 32 bc fc 6c b6 b8 3f 98 e7 dd fb 56 58 c5 bf
       0.09653359575549682 -0.1667584161585267
000460 59 cb d6 15 b3 ee b2 3f 6a 09 b5 84 0a 4d c1 bf
       0.07395476611308761 -0.1351636074051144
000470 b5 e7 cf 9e e3 40 92 bf 0c 4a 5f 6a 34 9c c0 bf
       -0.017825657432673576 -0.12976699060398322
000480 2b 63 4f 8d a5 bf b3 bf 6e e9 d2 82 c7 8b 87 3f
       -0.07714304637864859 0.011497076682975584
000490 dc 72 b2 df 04 74 a0 3f bc ca 84 47 af e5 bb bf
       0.03213515501668038 -0.10897346015989745
0004a0 7e 59 09 31 e5 6f b5 3f 4c 22 88 06 f8 5e ce bf
       0.083738636466796 -0.23727321928915257
0004b0 77 f1 90 ff 6f 5a d8 bf 6b dd 16 48 f1 bd cf bf
       -0.38051986653933717 -0.24798408527361046
0004c0 aa 84 f0 74 89 73 c7 bf 51 c7 7a 87 8b 17 c2 bf
       -0.18321340761125288 -0.14134353747572928
0004d0 25 eb 5b d7 bb 5c cf bf e9 d6 0b 81 cd cc ac 3f
       -0.2450175096090216 0.05625002098342497
0004e0 f4 13 96 b2 4b d0 99 3f a6 fb 60 d3 aa 2b 7c bf
       0.025208647513426954 -0.006877581870923166
0004f0 92 0b 34 f9 50 e7 ce bf c0 e8 5f 76 1a 20 c0 3f
       -0.24143421333436926 0.125979717064018
000500 14 97 f2 7d 0e 05 cd bf 22 f6 a2 13 82 86 c3 3f
       -0.22671681546960853 0.15254236182038122
000510 62 42 7f e8 1a 31 ca bf 1e 30 cf 13 67 a1 a9 3f
       -0.2046235690345553 0.05005952946484647
000520 b6 f0 bc 2b 6f 5c b4 3f 6f 8f 99 07 72 7a be 3f
       0.07953543489287793 0.11905586896460617
000530 8d 8f e0 1b 90 ca b8 bf 4c de 27 78 b9 05 c2 bf
       -0.09684086495013684 -0.14079969756106647
000540 29 b5 c2 67 cf c0 c8 bf a3 81 86 3b ac 9e cf bf
       -0.19338409964022077 -0.2470298090602344
000550 fb fc 0d 44 c1 c3 c8 3f 82 15 3d 0c c4 99 b4 bf
       0.19347396681767023 -0.08047128008646179
000560 38 7e ff 5c 0a f0 94 bf a6 22 aa 7c 8c 5e ca bf
       -0.020446931768559135 -0.20601039969576113
000570 42 a0 74 71 76 ad d0 3f a2 77 6a 1b f2 e0 c7 bf
       0.26058732108731786 -0.18655229891458897
000580 c1 92 83 3b aa 72 c2 bf cb 07 96 26 ac 44 c5 bf
       -0.14412429719881995 -0.16615821727833543
000590 3d f8 9c ec 0c b2 a4 bf 3c c8 a3 cc 58 2f c0 3f
       -0.04042091739982865 0.1264449118821761
0005a0 44 2e ae 29 80 77 d2 bf e5 f6 8c ec 2a 11 d2 bf
       -0.28854373998976635 -0.2822978315415255
0005b0 0d 7e 1e 8e e5 80 c5 bf 99 36 81 aa c8 04 a8 bf
       -0.16799611510667525 -0.04691149789196664
0005c0 03 71 71 ba 18 17 b0 3f 63 31 df 84 aa ad cc bf
       0.06285242606958623 -0.2240498684681241
0005d0 d8 ee 20 e8 56 fd a4 bf 09 4e 65 ec a4 70 d2 bf
       -0.04099532683946244 -0.28812525830764507
0005e0 1f c4 a8 a7 ae 5b c1 bf bd 84 14 d7 62 b8 d4 3f
       -0.13561042009817556 0.3237540340797514
0005f0 df 9d 6c fc 39 d8 b0 bf 9d 5e de 12 5e 97 ba bf
       -0.0657993546743607 -0.10387218437824193
000600 53 44 e1 fb c8 98 c0 bf 25 74 9f 2a e1 1d a3 3f
       -0.12966263102365136 0.03733733792589814
000610 8f 13 4e 2e 9a 3a c8 bf 48 85 78 56 ba 57 bf bf
       -0.18928839932428018 -0.12243237124541395
000620 70 66 64 5a aa 79 b9 3f 32 4a 87 63 24 53 c8 bf
       0.09951271731224565 -0.19003729686535703
000630 de a2 84 d5 ec 40 aa bf ef 79 b9 4b 0e e8 d6 bf
       -0.051276589454863006 -0.3579135646340594
000640 3d 14 9b 43 8c 81 d6 bf 8a 58 c3 0d 09 92 c2 bf
       -0.35165697672011104 -0.14508164569878473
000650 47 00 fe 73 26 1a 90 3f 25 1d e0 fa a9 a7 c9 3f
       0.01572475512466578 0.20042919873979162
000660 fa da 37 e6 36 62 64 bf 21 37 b3 e6 f6 95 d3 3f
       -0.0024882385493997213 0.3060281041078828
000670 52 08 1f 8c 3c c2 d3 bf fa 7c 26 b9 e9 fc d0 bf
       -0.3087302559253021 -0.2654365833386262
000680 69 27 8d 8c ea cc d2 bf f8 5b d7 e1 aa 91 d5 3f
       -0.2937570927211853 0.33701583914574895
000690 00 24 dc 56 66 76 c2 3f c2 d2 1b d3 e4 81 b2 3f
       0.14423827401358835 0.07229452280064222
0006a0 f7 1c b6 3a 59 ee b5 3f 3c 0d 02 89 23 d7 d1 bf
       0.08566816028006828 -0.2787560308426753
0006b0 91 e8 e5 2b b1 13 c8 3f 56 62 17 c7 c2 dc 87 bf
       0.1881009544702619 -0.011651536656175281
0006c0 54 7d 92 e1 e5 7f c3 bf d4 0e 3a 45 c6 82 c3 bf
       -0.15234063638943474 -0.15242842083181662
0006d0 71 d0 98 86 0b cc 99 3f a2 82 06 01 f3 13 c5 3f
       0.025192432489533127 0.16467130231923927
0006e0 ef 91 2f 9d 1b d5 c0 3f d1 7f 4c da 04 74 b1 bf
       0.1315035359867944 -0.06817655877648511
0006f0 fb 00 a1 f4 a7 f6 83 3f 85 60 8c dd cb cf a2 3f
       0.009747802880270209 0.03674161033103566
000700 b4 58 c7 35 e8 b4 d3 bf 26 af 1d fa d4 20 b0 bf
       -0.30791669132066635 -0.0630009756693509
000710 3c ed ae 51 87 e4 98 3f 83 81 c8 e7 99 b8 d6 bf
       0.02430926738791793 -0.3550171626575535
000720 25 65 0a 97 7e d6 b7 bf 8a 5f 9b 01 07 e6 b7 bf
       -0.09311667621149818 -0.09335368909103017
000730 bc e0 ee 10 8b a1 7b 3f f9 cd 8a 8b ab 6a a6 bf
       0.006745856501702171 -0.043782578262291545
000740 9f 27 28 09 e8 2f 85 3f e9 38 5e 94 b5 5e c4 3f
       0.010345280436940217 0.1591402983144186
000750 2d 49 51 0f 4b 6b b3 bf 93 cc 28 82 b7 4e aa 3f
       -0.07585591434443435 0.05138181175097958
000760 4e 4a c6 bf e0 44 bd 3f 11 5c 0c ba e8 1c 98 bf
       0.11433224374767656 -0.023547779422269658
000770 38 50 ca b2 25 4e b7 3f c5 29 fa e4 67 35 d4 bf
       0.09103618254658918 -0.31575963364653276
000780 ef 7f cd 5a 21 a5 d0 bf ac bc 11 7a 39 01 bd bf
       -0.26007875316099577 -0.11329993467528493
000790 21 2b e0 1d 92 17 aa bf b8 d8 a6 2c ff 29 91 3f
       -0.050961080691271705 0.01676176748306865
0007a0 55 d6 0b 4c 98 b7 d2 3f 9a 1a 5b 56 07 4f c7 bf
       0.2924557440413527 -0.18209926334948962
0007b0 42 6f 29 63 b1 3b 83 3f 88 3a 2d 71 bf 4e d1 3f
       0.009391198958091377 0.27043138554010016
0007c0 0d 78 c6 50 eb 8a cd bf 6c a5 68 02 f3 84 c7 3f
       -0.23080197757821033 0.1837447892915337
0007d0 27 42 70 1e 43 4f d2 bf c0 32 b8 54 3d 26 e9 bf
       -0.28608777973662075 -0.7859179167440615
0007e0 ef 36 85 12 83 74 ca bf c3 e6 6c 6d ff fc d2 bf
       -0.20668066410365024 -0.29669175802301256
0007f0 0c fc 31 81 25 a2 a9 3f 8a 7b aa cc 79 25 bf bf
       0.050065204640297706 -0.12166558500983463
