weights/shakespeare_RNN__bh.npy (npy, 2128 bytes, 1 tensors)

array f8 [250, 1]
-0.16999177861499046 -0.20374485806769918 -0.2936720851485436 -0.01186081808388069 -0.018981746375217868 -0.33445767204386195 -0.15217317457701054 -0.05586882745681891
0.08350391747150089 0.12865904812725523 -0.0962357878690026 0.1656514353392996 0.010472052185767832 -0.13299985458811367 -0.01089575134428115 0.2618599507619429
0.10156077476233731 -0.057361448210103326 -0.2013644594496884 -0.1471285802849452 0.18615453865255382 0.2227207581308425 -0.1542804712668615 0.14005903763003522
-0.14718479450942487 0.19226856438086287 -0.2903056982480916 0.1455083348891058 -0.14811249824089168 -0.17973069847443396 -0.030281282686401415 -0.047769036393650134
0.310171499876242 0.01907114172631922 -0.23091769780288685 0.11625039467269727 0.2601064741127068 -0.08614803636414071 0.31484504826222964 -0.09212300556802794
0.18280681778427546 -0.07742525166114718 -0.05151094754089116 0.20686799346478488 0.11825398337447238 -0.2886105417797497 -0.11981323096990971 -0.0482893312003713
0.280277903304236 0.12381947471285946 0.09569798126287005 -0.2871643066144522 -0.25127772375708973 -0.16805390022114328 -0.16448476646849064 0.04643606487950271
0.04764257332443547 0.04451286612431702 -0.00045598059367209925 -0.09110942311858479 -0.11291835999782218 0.01487143920493508 0.10416484434405669 0.14745510922873684
-0.26077998271792824 0.12314962184379201 -0.20970934614644365 0.33482216499954454 0.19492164097388606 -0.16600369963811437 -0.08776771463774294 -0.13060966773610044
0.0348753338198925 -0.3828350174271523 0.3304472559601614 -0.20237312112516725 -0.22823744610559324 0.33565503622981846 -0.09916908862099677 -0.042047439070327444
-0.21258985218723458 0.28997772195208227 -0.17277909173741915 -0.1921418451649014 -0.23565408407560678 0.21829467484337262 0.28567731461202 -0.1983934096182041
0.11425135829115261 -0.3310330847803517 -0.17885058908081217 0.16001258107641417 0.029970000986453343 0.2361365120090881 -0.002146803626806602 -0.30663603178761284
0.10879597941910883 0.23371951602050484 -0.021515622068735876 0.06056557962149178 -0.1519943444842463 -0.1517177171719245 -0.3316255507927025 -0.17883840457405378
-0.08382973392901777 0.0417790932135332 -0.16323354835922474 0.2703624840911306 -0.2242454495392394 -0.08703452022667403 -0.14368812446226895 0.2556694401366373
-0.04771794591595504 0.17280293030114457 -0.16394502945818235 -0.22783045204411648 0.1262508027661231 0.12377254475788801 0.08569621429917927 -0.2951895966532384
-0.2596028147374273 0.04204182710108662 0.042007492067258366 0.10658586630823752 -0.1893765833690347 -0.15238648280849323 0.20098566079923874 -0.12441634301209152
0.13633883035404104 -0.22143116455445566 0.0099445440456847 0.10514692991621363 -0.07830536033286974 0.1703241685777617 0.17546491380417825 0.1737490916644021
0.25587267874229136 -0.012198794045594749 -0.24575732301181025 0.007853615634463932 0.2701230194010983 0.09414838047444643 -0.25409898393099534 0.3122952436280207
-0.14674519137495295 0.29100259681094043 -0.2357838187207885 0.19030393843847684 -0.004607649297872428 0.15952081787562825 0.04280940485599199 -0.11031579832382168
-0.27441315439577896 0.07076537675209958 -0.060863120783600816 -0.009182042774124245 0.09009397126498023 -0.1924970576921987 0.20101942296702216 0.08265835113216582
0.04281635535108195 -0.004250149038906032 -0.023839395941715556 -0.14445671483014497 0.20268380133021363 0.11358981064212595 0.3901292204611264 0.18836307558444254
-0.12523740091702745 0.22641008004419608 0.07414891239522325 0.11728218824284557 -0.1362326774681016 -0.09052056958809247 -0.008806062247539855 0.03503908425471324
0.1676444987791703 -0.2477790094395664 -0.16178535855627446 -0.22811129295127058 -0.10361020275332289 -0.1011337234185242 0.017865286870174982 0.17603833978937558
0.02943023093265832 0.15601285986397004 -0.03405929657612476 0.08568942621977713 -0.05734757155561262 0.3408210164771919 -0.23409631586779953 0.11178438998145687
0.1644818495142202 0.16765415257344304 -0.09120294694474862 0.22679518183895994 0.24721849176859892 0.3167267556236035 0.07543258541739262 -0.29477246035744276
0.3036951359289167 -0.269198066245267 0.1824796054364411 0.2422449792627404 0.06876141669273798 -0.056009609790929026 0.1200025677015 -0.27473958568376833
-0.07586139289783128 0.10179346418703884 -0.16222966008612624 0.10568171434353651 0.004704346657912857 0.20792428309587035 -0.13779204712009427 -0.25902602165448674
-0.17338775723993777 -0.30928232114577175 0.09578076660643849 -0.2048970223036479 -0.1513456618514843 0.0020092240026726967 0.05994621128176046 0.07017853102418317
0.11046815950996261 0.09907130075317194 0.3170457094001092 -0.09369380687852638 0.22877612720197124 0.21935207101202006 -0.08218061450482989 0.13745428479058827
-0.20918555090946322 0.06537380921079676 -0.016405078455326988 -0.12100374125649713 0.1600383716242109 0.09775911052539511 0.21871298395757527 0.09282555599339798
-0.1897267655185398 -0.13985944885733054 -0.25675393267722774 -0.26151812693218374 -0.04947082013746427 0.10672527672772233 0.052728041395107735 0.07376243202630231
-0.0051631053028278135 -0.15620249459021746
00000000: b7c0 de64 4ac2 c5bf c580 10bf 4f14 cabf
00000010: 0683 5d00 86cb d2bf 284d 310e 7c4a 88bf
00000020: 1d30 9c6f f36f 93bf 91c7 d426 c167 d5bf
00000030: 5181 111c 697a c3bf 86f7 95c5 d69a acbf
00000040: 41c3 a042 8360 b53f 2b41 0552 e677 c03f
00000050: 2327 9a99 e8a2 b8bf 0cac a8f4 1034 c53f
00000060: 336e 470d 5f72 853f f712 eaa4 2306 c1bf
00000070: 1625 83fd 8250 86bf dae6 293d 50c2 d03f
00000080: 1321 290e e3ff b93f ab28 3ad0 7a5e adbf
00000090: 70e1 f483 4fc6 c9bf 6abc 50fc 1bd5 c2bf
000000a0: 40e1 c173 e9d3 c73f 45f9 2722 1d82 cc3f
000000b0: 7056 4065 76bf c3bf 87ab 105d 74ed c13f
000000c0: 8777 718b f3d6 c2bf 5247 089e 419c c83f
000000d0: 145a f459 5e94 d2bf b272 d261 04a0 c23f
000000e0: 0868 09b0 59f5 c2bf 9e78 0460 6a01 c7bf
000000f0: 84ae 467b 0e02 9fbf 4df2 24e2 2e75 a8bf
00000100: 9da9 0790 d9d9 d33f 4a35 0ca8 6287 933f
00000110: f0c4 100c b68e cdbf 082e 44fb 95c2 bd3f
00000120: 40af f29f 95a5 d03f 4171 cc36 cc0d b6bf
00000130: 1d01 66d8 6b26 d43f 4cb8 1f90 5f95 b7bf
00000140: 0945 efbb 3666 c73f 15ea c42b 24d2 b3bf
00000150: 53f0 2596 a45f aabf 3b9c 4281 a67a ca3f
00000160: ea0f 379f e445 be3f 3764 8e59 9878 d2bf
00000170: c9d3 a474 14ac bebf 55ab 8014 61b9 a8bf
00000180: d5eb 1ebb 12f0 d13f c7e7 7f12 a2b2 bf3f
00000190: 2437 d1b3 a97f b83f a734 5f66 e660 d2bf
000001a0: 5f00 7029 ef14 d0bf 9b20 b54a ca82 c5bf
000001b0: 0c10 563a d60d c5bf 1359 06c8 77c6 a73f
000001c0: 64c6 a67c 9b64 a83f 5da5 82f0 63ca a63f
000001d0: 805d c8bc 15e2 3dbf f5d8 a678 f252 b7bf
000001e0: 7800 4fb7 37e8 bcbf 4eb8 3cc8 ea74 8e3f
000001f0: 77c4 d917 8caa ba3f f8fc e11b cfdf c23f
00000200: 8865 4e86 9eb0 d0bf 7377 55ce bb86 bf3f
00000210: 90a8 ae7f c1d7 cabf 8e88 29f2 b96d d53f
00000220: b7fb a13c 31f3 c83f 7df8 7af6 9b3f c5bf
00000230: 3286 03e8 f177 b6bf b2e6 bb4d d1b7 c0bf
00000240: 3115 6304 2edb a13f d23e e771 5e80 d8bf
00000250: a7b7 593f 0c26 d53f 9c38 69c8 5ce7 c9bf
00000260: bb7f 5f77 e236 cdbf a310 d642 5f7b d53f
00000270: 0cbc 6638 2563 b9bf 4a0e 60ef 3d87 a5bf
00000280: d485 4def 2436 cbbf dc93 16b8 fe8e d23f
00000290: 2def 3812 a01d c6bf 8c92 969e 1a98 c8bf
000002a0: 3204 23bc e929 cebf 44ef ab74 14f1 cb3f
000002b0: 45ef dd80 8948 d23f d1ab 068b f464 c9bf
000002c0: ff52 62b7 933f bd3f 87a3 4164 a52f d5bf
000002d0: 5b78 7c7b 93e4 c6bf d1fb 55d1 4a7b c43f
000002e0: 2b41 64b8 74b0 9e3f cf3a 3ca2 b839 ce3f
000002f0: af37 c76b 2c96 61bf 9364 13bc ec9f d3bf
00000300: ab96 8aa5 0dda bb3f b25c df66 85ea cd3f
00000310: d4a2 8df4 3008 96bf 90a5 799f 7302 af3f
00000320: 544f 5ef9 8c74 c3bf ac14 bd74 7c6b c3bf
00000330: 9a0c cb5f 5a39 d5bf 550a 7545 2de4 c6bf
00000340: c452 a88d dd75 b5bf 2b6f 04be 1164 a53f
00000350: 430d e83f d6e4 c4bf 8626 cf72 9e4d d13f
00000360: ff1f 062c 13b4 ccbf 3122 fff1 e447 b6bf
00000370: 7fcb b159 5f64 c2bf 9c4d fe5a e35c d03f
00000380: 935b 4892 7c6e a8bf e4ef 250b 681e c63f
00000390: d8ac ee95 26fc c4bf f5fb 475a 8c29 cdbf
000003a0: 10b4 7c7e fc28 c03f 28b9 e0b7 8eaf bf3f
000003b0: df54 cee5 2ff0 b53f 8eaf efe7 62e4 d2bf
000003c0: 86cb cf1f 559d d0bf 912f eda0 8186 a53f
000003d0: 3b51 3b89 0182 a53f 407c 021a 3649 bb3f
000003e0: 535f 19ec 7d3d c8bf b5e9 0178 6681 c3bf
000003f0: c480 0cec e5b9 c93f 7329 53dc bfd9 bfbf
00000400: e4d2 c500 8d73 c13f 6ccd 093d db57 ccbf
00000410: 8d49 991b ce5d 843f 36d3 43c1 e8ea ba3f
00000420: 092e bbf1 d10b b4bf a943 e1ae 2ecd c53f
00000430: 2b34 3161 a275 c63f 9c43 3405 693d c63f
00000440: e8d5 c8cc 3760 d03f f8ce cf6b aefb 88bf
00000450: 3a4b 8bd8 f974 cfbf 6f69 7172 8e15 803f
00000460: 0e5e 8e0f b249 d13f caee 1bb7 1b1a b83f
00000470: 918c 7b62 2843 d0bf 7109 8530 a5fc d33f
00000480: d27c e6e2 8bc8 c2bf f8a8 165b c99f d23f
00000490: bd77 2a07 2a2e cebf 3156 f223 e15b c83f
000004a0: 3298 bb70 78df 72bf a14b e79b 2d6b c43f
000004b0: c7aa a243 1deb a53f 226f 08fa a73d bcbf
000004c0: 6236 ee30 fc8f d1bf 07e2 d602 ae1d b23f
000004d0: c49b 9872 7329 afbf f416 67eb 08ce 82bf
000004e0: d25c 2604 6610 b73f b79e ae5b bea3 c8bf
000004f0: 0988 c023 01bb c93f 9a9b da02 1929 b53f
00000500: ed01 ef7b 06ec a53f 47ee 00b2 9a68 71bf
00000510: f949 b4c7 5a69 98bf 7708 f1c0 8e7d c2bf
00000520: 8e34 12f5 8af1 c93f 3ae4 ddc9 3814 bd3f
00000530: 7c0c c68c e0f7 d83f 405f b400 481c c83f
00000540: b25b 9676 c707 c0bf ed24 a368 01fb cc3f
00000550: f07d c551 6cfb b23f bb05 e89a 3406 be3f
00000560: 1b9e 2f87 1270 c1bf a503 ff25 5b2c b7bf
00000570: f1b6 e0aa e908 82bf 3f5c e991 a4f0 a13f
00000580: 4730 cefb 5f75 c53f afcf 16fb 38b7 cfbf
00000590: 3e44 fcf3 61b5 c4bf 4278 8937 c032 cdbf
000005a0: e881 5bc0 3286 babf 06f3 9a52 e6e3 b9bf
000005b0: c43e 5d1b 474b 923f 8566 1ea0 6c88 c63f
000005c0: ea5c 7a5d f522 9e3f e782 6fb9 3af8 c33f
000005d0: 16a4 d659 3870 a1bf 3e19 3a03 beef b53f
000005e0: 7b39 ac30 a95c adbf ecc6 e3f3 02d0 d53f
000005f0: 9f15 623a def6 cdbf 7675 2cdb e69d bc3f
00000600: 617e 39c2 bd0d c53f 53b7 2bf7 b075 c53f
00000610: 5030 6d8a 1359 b7bf 1fc1 71e0 9f07 cd3f
00000620: f168 8e04 dba4 cf3f dbfa 4a4c 4045 d43f
00000630: 28a1 6bc7 8c4f b33f 7ec9 3f4f 8ddd d2bf
00000640: d636 31b9 bd6f d33f 0adf aa86 8a3a d1bf
00000650: faab c4e0 7d5b c73f 9ade c62b e201 cf3f
00000660: 2304 ec23 599a b13f 5ba5 a0a4 4aad acbf
00000670: a2c6 b6ff 7cb8 be3f 7e6a db57 5595 d1bf
00000680: fc72 86f9 a66b b3bf c13f a1ef 220f ba3f
00000690: 036c 4106 f1c3 c4bf 2405 e4f2 f40d bb3f
000006a0: fb6d b770 dd44 733f fa72 f84d 439d ca3f
000006b0: 13cd 0378 2ba3 c1bf a26a f4e0 e193 d0bf
000006c0: 2ea8 6fed 9131 c6bf ef54 a313 48cb d3bf
000006d0: 0d14 299c 1685 b83f 07c5 ebcc 103a cabf
000006e0: ae94 056e 4b5f c3bf 3ad9 37ec a575 603f
000006f0: 2ed3 f211 45b1 ae3f 0254 a15f 38f7 b13f
00000700: c237 582c a447 bc3f 7801 b59c bc5c b93f
00000710: 497a 4d16 7a4a d43f ea89 613c 51fc b7bf
00000720: 7710 3840 8948 cd3f 413b a789 ba13 cc3f
00000730: 64d6 a9eb c909 b5bf 5b71 ef1c 1a98 c13f
00000740: 74d7 f995 97c6 cabf e347 9384 56bc b03f
00000750: 98d6 d02d 7ecc 90bf c6ea 63e7 19fa bebf
00000760: 0994 1d2a 237c c43f 09b6 97b6 bd06 b93f
00000770: 4a78 a77c c9fe cb3f 6483 3967 6ac3 b73f
00000780: 8bfb 8976 f748 c8bf 267d 7017 eae6 c1bf
00000790: 01f5 fd0b a86e d0bf b308 9f86 b6bc d0bf
000007a0: 9d83 3145 3d54 a9bf f6bd 3305 5952 bb3f
000007b0: e98c bf7a 2bff aa3f caf4 3941 18e2 b23f
000007c0: f941 be86 e825 75bf eac7 e87e 71fe c3bf
