weights/shakespeare_RNN__Whh.npy (npy, 500128 bytes, 1 tensors)

array f8 [250, 250]
00000000: d029 7605 b7a7 d7bf 3c3e f5fb c63b dcbf
00000010: bdab 158d 07ef b9bf 5698 c660 2443 9cbf
00000020: feed 3561 035e 993f 6126 7b7c 4c65 c3bf
00000030: 74eb 1d09 2cd8 a8bf 1aca fffc 75d5 d23f
00000040: 951a 1b92 36ab d13f 9673 4b3a 82ac 9b3f
00000050: 3305 e72f 81d8 89bf b753 2c8b cf41 5ebf
00000060: 758b 3ede 6ddf 9cbf 6375 757a 1e6b b0bf
00000070: 9ba0 fd06 9fcb d63f 88ee f0d8 6034 d53f
00000080: 2ddb 497e 0ce3 78bf 3471 2a62 8b50 b03f
00000090: 1eff f29c 0f58 abbf aa8c f64e 0330 d3bf
000000a0: 5c8f 241b 3b22 c53f 9085 10c4 84fb b1bf
000000b0: b92b dace d53d d4bf 3b60 8440 caf5 52bf
000000c0: dcc5 37d2 c66f d0bf 5260 0e56 b436 b33f
000000d0: d667 620d 79f5 cabf bfd4 dd56 78cd c8bf
000000e0: 98de e1d0 a584 d0bf 12e4 8ab4 d98a d73f
000000f0: 3dc3 17c1 e6f1 9f3f 2375 7ef7 e589 c93f
00000100: 4de2 2368 e31e d43f 9356 f020 1ab7 d63f
00000110: e02b 1682 8624 ccbf d115 3071 f8a1 c43f
00000120: 956f a5b5 f95b d93f c013 bc4c 10e8 843f
00000130: a3a0 74e4 edf3 babf 9def da90 8310 bcbf
00000140: d5d5 28a3 6eae be3f d0b5 ca17 3676 c0bf
00000150: 255e 9a24 5243 d0bf d958 3ff1 9f15 ba3f
00000160: 4b39 b64a 58f9 c13f 3584 6a10 737e 6abf
00000170: 7727 d01b 7f75 ad3f 3d83 c92f 2837 b0bf
00000180: c01a 4903 f96b c93f 3068 6f4d 70ca cdbf
00000190: 7078 9904 2234 a1bf 0067 a33e 3ee1 d1bf
000001a0: c638 0bdb f515 d3bf b383 f94f 4b59 be3f
000001b0: d172 88a8 9d2b d3bf e0c8 659e bf36 80bf
000001c0: a4fe acf1 0fc0 aebf 6061 6eda b074 bdbf
000001d0: 9a52 862b e0df cbbf 14a8 c9ed 1726 bbbf
000001e0: 2eeb 7021 aa82 d2bf 21f8 82f1 42f0 c8bf
000001f0: 1991 9e3b cd47 c13f f852 fb83 4fdd abbf
00000200: 1e47 9f4b 627c b93f fd62 8f7b 234a c9bf
00000210: 36dd 5b6d 5b29 bd3f d5cf 46e8 5282 d13f
00000220: 0501 814b 7110 c33f db90 a9a7 1bf6 d83f
00000230: 355a 75e2 fe5d b73f 2e2e 11c4 eea1 b5bf
00000240: ca06 9047 eec2 c93f 8857 aee1 6063 a3bf
00000250: 450e 427e 356f d0bf d46b 11a8 218a b9bf
00000260: ccf9 aaf1 0028 d5bf bf96 eb7c af97 8fbf
00000270: 4235 0e75 14bf b03f e902 0195 5446 b4bf
00000280: ffbd 07d1 e89d c2bf 5233 6395 81af b13f
00000290: e81f d42b 3646 be3f 5f9d 232c f197 bf3f
000002a0: 2477 9ff4 1555 c5bf 95c2 b7d2 8d3d c0bf
000002b0: 14f2 e876 46f3 823f d5f3 e8e7 af7f c43f
000002c0: 4934 dc2d 9cc3 d33f 6872 870b 5edc babf
000002d0: 5f6c 5ec4 5f3e d7bf 74cd 53f1 fa7d bcbf
000002e0: b524 48ba 70ab bfbf 4b9a a01d bdcf d23f
000002f0: 8ba3 53d1 be52 9a3f 8fc5 2382 b89d cdbf
00000300: 03cd d855 de58 be3f ca10 0517 f69b b8bf
00000310: 4283 2641 c15b 383f f420 b198 5e84 c0bf
00000320: ec5b d848 bfe0 c23f 3be2 608d 293d c3bf
00000330: 6477 0bd9 a2d0 b3bf 824c d411 4d87 d0bf
00000340: 2780 d548 aaa9 ba3f f85a de13 728f b73f
00000350: 42bd 41c0 90fb 973f 7db0 be0b 43a0 a5bf
00000360: 3950 1e2f dad4 c4bf ecfe 8c2d bfdc b63f
00000370: 6f5e ab98 691c d03f f883 4395 688c a43f
00000380: c1ff 408b 1012 a7bf 6526 8915 ba6b c5bf
00000390: d50d fb3e dd18 b2bf 71f9 7dec 25c1 b2bf
000003a0: 8050 4737 7880 c03f 0e3d 8784 c639 9e3f
000003b0: 461a e95b 12c5 96bf 93cc 7803 a2cf c5bf
000003c0: 566b 7e43 0997 cfbf 4a3f d597 c723 c53f
000003d0: 3b6c 6c1e 1663 bcbf 36db 31a9 f9aa cfbf
000003e0: 0410 225e f2b2 b6bf 1238 c4cf 7553 c1bf
000003f0: 9677 a8c9 fda1 a63f b668 fdbe 76fa aebf
00000400: 7400 8bb8 322a a2bf 0244 c568 2725 c7bf
00000410: 8b83 e349 da60 afbf 3946 ddcf 622c ca3f
00000420: 5511 2ccb 091c d5bf ba0f 692e 1614 b13f
00000430: 1420 7c69 9c69 cabf a6ae 3966 28e1 c73f
00000440: 0d16 0fb6 e62e c13f 8560 8a59 f2ea ac3f
00000450: 9a44 439a 5810 c03f 58bb 7e65 2a3a d23f
00000460: c3c6 9849 7696 d63f 313a 1c27 9d29 cbbf
00000470: 4be6 f606 395a cbbf eda5 ed60 304f c03f
00000480: 1f66 867e 83b2 a0bf fec3 ca24 285b a83f
00000490: b84e 42ab a318 d7bf 926c 2ecd 4b7a b8bf
000004a0: 99f8 6554 43b0 a13f 3c5c 3d2b 6672 b7bf
000004b0: f1db 27ef 0fbc 7f3f 7d7a 7401 6d1d d0bf
000004c0: 20a6 e24d f922 cfbf 04e1 e70c e214 d1bf
000004d0: d4fe d1f7 61a4 d1bf 38f0 56b9 b501 c23f
000004e0: c197 c452 bb34 c5bf 4393 f03d 9370 babf
000004f0: e3fb 7251 cb74 c3bf f2ee ffcf 6f26 9e3f
00000500: 2257 4821 224b cdbf a961 bad1 4238 d9bf
00000510: 0c77 c6de 9985 ce3f b545 5bfd c03d ccbf
00000520: 4a9e a44b ca06 c0bf 421d f728 060d d13f
00000530: a87d 1196 4da4 c5bf 6db9 e8d2 5d76 b2bf
00000540: 8739 9d23 8505 c0bf 52e5 9b00 427b c1bf
00000550: f6b5 6dd8 7a02 d1bf 92cd 63ce 1028 88bf
00000560: fc3d 5e1e 63f2 babf 3893 85ce 5b35 96bf
00000570: afda 4646 746d d63f 80fa ced1 aca9 b5bf
00000580: 9856 ad88 b7cd aa3f 2080 457d 6498 b83f
00000590: eee6 1939 c1de b2bf bb11 4b9c 0bc0 c43f
000005a0: 90dd 4f67 f7d4 cebf a82e 1deb 45fc bd3f
000005b0: 2444 e69a 4eca de3f 3307 d527 5497 823f
000005c0: f655 edb7 8afe c9bf a0fd 3114 bbea bfbf
000005d0: bb64 67cc 0b9f b4bf 0a3e d9d2 d568 b93f
000005e0: 2527 3ad4 c28e d6bf 77f2 e202 04d8 9cbf
000005f0: b314 5532 4114 74bf a365 0cbf 28df adbf
00000600: a3fc 89cb dc03 b03f 60fb 6714 8f99 cd3f
00000610: 545b 2012 6575 893f dd44 93bd 336f d33f
00000620: f197 f49e e484 c03f 98fb 3745 791a bbbf
00000630: bdc5 e7de aa0b bd3f a684 6c89 88f3 abbf
00000640: 0ccd 78b1 5ffc c93f 8efb 95c6 ae74 b3bf
00000650: 66e2 5aab 8837 ba3f 31d1 e793 dca2 b93f
00000660: 35ca da9d 3df9 d23f 850b e54b 0fa3 d5bf
00000670: d907 1757 3f99 9f3f bc06 9f54 8492 bbbf
00000680: d377 aa38 886f 6fbf 88c2 1acd b192 a23f
00000690: b66e 12fb 2b16 ccbf c64d 2eff 7a3e d13f
000006a0: 2815 5732 f83e b13f 1ff2 50b0 fef8 c0bf
000006b0: 14f6 9d69 ae0b c3bf edea d877 2ad4 df3f
000006c0: 36ab 2a2d 7cfb c0bf 6f7d dc36 bb0e d1bf
000006d0: bb1c 4aba 9c8a ba3f 0d91 4bbf 4920 c0bf
000006e0: d6b4 52a6 7c6a c3bf 32f2 2e2f 340e b43f
000006f0: ff07 8f60 4ddd 963f f34b 46bd 3f55 bf3f
00000700: 282b 70d1 3729 9d3f 6713 a2b5 04f7 c43f
00000710: 1b06 cfbe 7bfc b23f 397c 68f2 fcf8 a93f
00000720: 8345 eb13 2061 b83f 7aaa 04fb f02a bf3f
00000730: e7d9 e5e4 5368 85bf 323f 87e3 ac2e a33f
00000740: 01f3 362c 6612 b5bf 6c31 e088 92a9 d33f
00000750: f7a7 8789 a546 aebf cfba 3bec 817c a2bf
00000760: b472 721d 01d7 cc3f d0d9 68fe 47ce bd3f
00000770: db84 d528 68cf bd3f a1da 3051 498e 983f
00000780: aea6 8da7 646f a13f 98de b545 e9c4 cb3f
00000790: c880 ec80 b6f4 be3f afc8 78d9 5133 d6bf
000007a0: 8eba 5056 f849 ad3f 664a 1ec8 63ee b53f
000007b0: 7cdc 739a fe95 b73f 50de c109 21a2 c6bf
000007c0: b95a a0be 3677 ae3f ebe5 0765 53da b6bf
000007d0: 9976 fa9a 1be4 d1bf 90ea 03fe cd93 d7bf
000007e0: 8fd6 1f09 ee46 c03f a035 59bd 47bb 94bf
000007f0: 6235 d48a 925b b13f 759a 4a48 ebb7 c83f
-0.36961150678021415 -0.44114851575156755 -0.10130355066728121 -0.02759987679169059 0.024772694404857624 -0.15152889326263888 -0.04852426158227888 0.2942786188788503
0.27607502239372056 0.02702525597384272 -0.012619981073728503 -0.0018467451852235259 -0.028196064653126258 -0.06413450708119721 0.3561780517834536 0.3313219183507745
-0.0060759056110473554 0.06372901102662781 -0.05340622702487806 -0.29980547629583987 0.1651071436436905 -0.07024411951763043 -0.3162741203347497 -0.0011572337262517735
-0.25682230500305336 0.07505347348194505 -0.21061623719725614 -0.1937704490807501 -0.25809617422735576 0.3678497565375106 0.031196218047571767 0.19952082237879507
0.314385272693049 0.35492566315347424 -0.21986466743359667 0.16119294668912557 0.3962387346161845 0.010208251325375062 -0.1052845652344581 -0.10962698256019938
0.11984912379633468 -0.12860752259932307 -0.2541089398814356 0.10189246787863072 0.1404219021610039 -0.0032341239305684563 0.05753705229297073 -0.06334162871054345
0.1986075655024333 -0.23274043828024693 -0.033600867330037754 -0.2793727504446082 -0.2982153548335983 0.11855002119547357 -0.29953710039425824 -0.007916924497042677
-0.06005906891959725 -0.11506181080620115 -0.21776964307050123 -0.10605001025547295 -0.28922513261538796 -0.19483219902571228 0.13500371371368017 -0.054422840939571004
0.09955419870609858 -0.19757503064354145 0.11391230983632714 0.2735793369604356 0.14893928705897266 0.39002124188688264 0.09127800968904227 -0.08450214659495067
0.2012613152910972 -0.037867572354271906 -0.25678765611539617 -0.09976396897529521 -0.3305666313207467 -0.015426035880817477 0.06541564805794045 -0.07919815671722187
-0.14544401365809276 0.06908426186710173 0.11825884408983678 0.1234122021447681 -0.16665911144712553 -0.12687847889857964 0.009253073219150067 0.16014670203904183
0.30881409147770406 -0.1049250391146842 -0.3631820123352493 -0.11129730598240944 -0.12370972202201609 0.2939293660478241 0.025706273580826482 -0.23137575487593806
0.11854352565642405 -0.09612978040701417 0.00037167995574276605 -0.12903959708842871 0.14748374039547174 -0.15030402568096854 -0.07740228461213189 -0.25825812092916334
0.10415138509915832 0.09203255639145513 0.023420583471702068 -0.04223832624788402 -0.16274573612884227 0.08930582868651599 0.25173416051027336 0.04013373205248877
-0.04505969715000858 -0.16735006381559284 -0.07069189822782758 -0.07325970672352412 0.12892058085583713 0.02951727088821792 -0.02223614393212816 -0.1703989521934984
-0.24679675860974254 0.16515440858574443 -0.11088693850290181 -0.24740525018179377 -0.08866801069422087 -0.13535950322005924 0.044204645983185006 -0.06050463754100248
-0.03547819617006179 -0.1808213483405155 -0.06128580238306033 0.20447955274225807 -0.32983631936101193 0.06671274788919748 -0.2063479914725127 0.18655877105208168
0.1342438115081425 0.05648000090622055 0.12549884350167845 0.28480014716744995 0.3529334753721793 -0.21220745477371986 -0.21369088020382984 0.12741665585353648
-0.03261195106024339 0.04757047127839796 -0.3608788654757791 -0.09561609038648758 0.03454790501835809 -0.09158934169441663 0.007747709506012322 -0.25179600851144085
-0.24325481703753926 -0.2668995977433186 -0.2756581230278077 0.1406771807650118 -0.16567174474147175 -0.10328026067925315 -0.15200177647599764 0.02944349963216459
-0.22885538697362856 -0.3940588997006907 0.23845218064973783 -0.22063457842754777 -0.12520722096927478 0.26641992569462414 -0.16907663180880417 -0.07211862944743581
-0.1251684593102704 -0.13657403020605813 -0.265776358943952 -0.011795169161337413 -0.10526103488358979 -0.02168792198189637 0.3504305540367722 -0.08462028620031425
0.05235074561521208 0.09607532556901832 -0.07371146816322113 0.16211075908189607 -0.2408742193654061 0.11713063230598186 0.4810978424730499 0.00907769915159271
-0.20308050137343486 -0.12467545741127717 -0.08055185070351716 0.09925590894385308 -0.35246344304379057 -0.0281677843820369 -0.004902128862629573 -0.05834319431432824
0.06255893677915707 0.23124874588389854 0.012430944076226837 0.3036622382470123 0.129055574049914 -0.10587270679387328 0.11345928136849799 -0.05459238698518591
0.20301433721179085 -0.07599918697631677 0.10240987952682587 0.10014132128691668 0.2964624444531723 -0.33807737742989047 0.0308580300240989 -0.107704420718643
-0.0038373623440994624 0.036275440489935085 -0.21942662963271226 0.26943850440985917 0.06736708859451268 -0.132598720638172 -0.14879398495752183 0.49732457832185056
-0.1326747150936513 -0.2665241275553489 0.10367755458911436 -0.12598535385689794 -0.15168722268337004 0.07834173347414078 0.022328576105572037 0.12239454623185946
0.0284775468426616 0.16378840321354035 0.07416509064116676 0.05072775324901397 0.09523201452545575 0.12174898270010628 -0.010452895567806443 0.03746547963566939
-0.08231199817141645 0.30722487799427856 -0.05913274101096982 -0.036106166922640896 0.2253114122185217 0.11642885171099882 0.11644602772641426 0.023980279522414553
0.034052987530981724 0.21694675353841286 0.12092152259401978 -0.34688230741006526 0.05720497182516225 0.08566878925038565 0.09213248511137978 -0.17682278610640134
0.059503279466459565 -0.08926888672421966 -0.2795475972614923 -0.36839628034764704 0.12716460652852787 -0.020245667392648437 0.06780353440645606 0.19311276464323482
