weights/shakespeare_by.npy (npy, 632 bytes, 1 tensors)

array f8 [63]
000000 5b 44 13 4c 3b 5b ea 3f 78 4e ec a3 6d cb 06 40
       0.8236366735310513 2.8493302160730387
000010 5e 2a fb 73 f9 60 e2 bf 11 23 4f 14 7e a5 02 c0
       -0.5743376984840542 -2.3308068834925355
000020 5d 0d 95 71 7e 53 e6 3f af 7b d9 95 57 ae f4 3f
       0.697692128982833 1.292563996648578
000030 7d a5 70 7a 18 33 c2 bf 3e 11 1a d4 df a1 e5 bf
       -0.14218431452290395 -0.6760100500692159
000040 7e c0 e4 33 52 44 b5 3f ad cc 39 9e 1b 62 b3 bf
       0.08307374731953307 -0.07571575749334399
000050 a2 ab e3 47 9c 48 de bf 02 db 70 6c aa 93 e1 bf
       -0.4731817915005029 -0.5492756002412025
000060 97 df 80 bb d8 5b e6 bf 96 61 6e a0 11 61 e6 bf
       -0.6987117445159922 -0.6993492253705422
000070 d4 33 53 8c 75 c8 f1 bf 28 c7 70 4e 08 d9 e9 bf
       -1.1114402276464164 -0.8077432186166549
000080 35 4b 62 3e 21 05 e9 bf 1d 28 99 7c bb 11 f1 bf
       -0.7818762033879013 -1.0668291918868882
000090 92 9e f2 67 b0 f5 f0 bf 98 b3 a1 d7 94 49 e1 bf
       -1.0599826870401654 -0.5402321063571547
0000a0 c3 2c 9e eb 07 37 fe bf b8 61 98 40 49 f0 f6 bf
       -1.888435287840182 -1.4336636088611225
0000b0 95 a4 c5 fd b7 32 e7 bf ae 42 70 d3 a2 73 ef bf
       -0.7249412495122153 -0.9828657273920578
0000c0 c1 d7 92 63 f1 11 f2 bf 8e 5a cb 2b 04 46 cc bf
       -1.1293805970758373 -0.22088672769924184
0000d0 4b 70 6c 1c a2 6c ce bf c4 7f ea e9 26 80 f9 bf
       -0.23769022357817202 -1.5937871110290738
0000e0 9f ed 0b 05 7a c5 ef bf e9 5f 2b 98 9a e4 e1 bf
       -0.9928560350958157 -0.5591557476100181
0000f0 12 a3 f1 ec c0 13 bd 3f 56 c5 04 9c 48 69 f6 bf
       0.11358266625178384 -1.4007040113904927
000100 96 86 d0 b0 1d 03 f7 bf e0 7f 6e dd 7e 2e f7 bf
       -1.438260737115717 -1.4488514566110027
000110 29 de 7e e4 8a 90 f8 bf 71 21 35 0e be ba fd bf
       -1.5352887082680218 -1.8580914072973338
000120 69 9b 2d c4 f5 46 f5 bf f7 00 eb f0 29 0b 04 40
       -1.3298242247780883 2.5054510900227984
000130 05 a1 72 c2 01 c7 dc 3f 30 60 c9 2b a3 cf e2 3f
       0.4496464156059264 0.5878463607032298
000140 de fd e9 23 a9 9b eb 3f b2 6a 0e 85 5a 9f 04 40
       0.86275155081233 2.577809371473756
000150 b9 ad a9 45 7b 96 e7 3f ee 71 ee b2 79 00 ea 3f
       0.7371193276025486 0.8125580305818951
000160 d7 09 49 b8 f2 43 e3 3f e1 9f f8 db 1e 55 04 40
       0.6020444487879172 2.541562765622061
000170 66 de 43 43 88 b3 e1 bf 13 04 11 85 55 0f cd bf
       -0.5531655610820507 -0.2270304584253898
000180 47 50 d5 f5 71 43 fe 3f 3b 31 a1 b7 e2 ad f5 3f
       1.8914661028729982 1.3549525425942892
000190 9b 35 d7 cb 3c e4 f9 3f 57 2a 46 57 f4 10 03 40
       1.6182220423246239 2.383278543309
0001a0 db 3e 74 42 9c 03 e6 3f fd 61 3f df d6 b4 de bf
       0.6879407213145571 -0.47978755761644704
0001b0 84 56 83 4d 3d 78 ff 3f 65 35 07 ca b8 c9 03 40
       1.9668553378918725 2.473496988625515
0001c0 4f 54 54 8b 90 e7 fc 3f 91 7e 8e 59 9d 13 f4 3f
       1.8065343325190673 1.2547887323670788
0001d0 86 80 49 89 2b 0a a7 bf 21 a6 93 45 09 ed f0 3f
       -0.04499946642749912 1.0578701703874531
0001e0 d7 4c 70 d0 40 e3 f5 bf 31 fb 55 36 e2 14 e6 3f
       -1.3679817335258144 0.6900492726561877
0001f0 98 ba a3 32 21 fd fa bf
       -1.6867992380245251
