weights/shakespeare_LSTM__by.npy (npy, 624 bytes, 1 tensors)

array f8 [62]
000000 b5 fe 23 ca d1 41 a8 bf a2 30 7e 86 0d 16 ad 3f
       -0.047377162862173895 0.05680887476691622
000010 fa bd 35 70 1d 84 b9 bf 4f d1 51 13 47 d9 3b bf
       -0.09967216481685873 -0.00042493806115053307
000020 4f 42 07 53 e8 62 cd bf c2 33 2c 5e 95 f1 cb bf
       -0.2295809178745167 -0.21831004236483237
000030 c9 5d 14 d5 33 65 98 bf 58 59 85 eb 4b 0f bd bf
       -0.023823556785911557 -0.11351465702077712
000040 6c 01 05 dd e1 04 c3 bf 14 7e 31 c6 a3 33 c5 bf
       -0.14858649532289847 -0.16563841988953298
000050 24 49 c3 ea d7 90 bd bf d1 0c 40 fe ad 75 c4 bf
       -0.11549138528360864 -0.15984129824219065
000060 3c 75 9e 91 f1 c9 bf bf 8b dd 21 fa 56 b6 c5 bf
       -0.12417516522551336 -0.169627067694574
000070 42 90 3b b4 cb 27 c0 bf ce 8f fd 6e a4 2a c3 bf
       -0.1262144689600309 -0.14973884028870404
000080 14 c4 19 92 9a 10 c0 bf 14 75 3a 66 bd 29 b9 bf
       -0.12550670751400672 -0.09829314943131734
000090 3f 47 27 46 42 01 c6 bf 74 52 bd 00 46 6f c5 bf
       -0.17191341805897228 -0.16745829616651842
0000a0 6a c3 57 f5 57 ba a8 bf 2c ba df 9c 20 10 c9 bf
       -0.04829668874652422 -0.1958046689973839
0000b0 20 4f a9 97 ec c7 c7 bf 3c c1 05 07 60 6c b9 bf
       -0.1857887020620348 -0.09930992289969692
0000c0 aa 96 11 3d ff 75 c0 bf 77 e1 43 0d be a6 c1 bf
       -0.12860098344679233 -0.1379010739108357
0000d0 22 97 39 c1 0f 70 bb bf c9 87 6f c3 94 c0 c4 bf
       -0.10717867343336399 -0.16212710898167718
0000e0 95 d7 0a 16 ab 9c c3 bf 92 7d 48 d2 24 9f c2 bf
       -0.1532186372402832 -0.14548168437702863
0000f0 b4 5b 54 db 33 f3 a2 bf 6f 3a d7 64 4d 06 c7 bf
       -0.03701173832285268 -0.17987983154167206
000100 ed 10 56 e2 38 d1 be bf ae 45 4e 6c 59 fc b8 bf
       -0.12037997747217206 -0.09760054487403266
000110 a3 96 9e cd a2 75 b2 bf db f5 96 3d 18 93 c4 bf
       -0.0721074821472834 -0.16073897368725806
000120 02 93 34 b7 f5 47 b1 3f 0e 4f c1 c0 53 3d b2 bf
       0.06750426981723126 -0.07124827819762578
000130 fe 3d cc 39 44 c5 93 bf d5 6e 81 53 6e cc 95 bf
       -0.01930719950456527 -0.021287654730584322
000140 c6 14 2f c2 82 b8 b3 3f 7a 7d cf c3 84 f0 6c bf
       0.07703416100328572 -0.003532656961837408
000150 8f 3f 12 68 d5 70 a7 bf f1 e5 20 f7 68 fd 73 bf
       -0.045782727197660404 -0.004880342503434929
000160 8a b4 58 ab 36 60 b1 3f df 2d 4c e4 3c aa c5 bf
       0.06787435229553487 -0.16925774714796568
000170 a1 f0 d6 c4 92 e6 b8 bf 37 87 0b be 7e 24 a9 3f
       -0.09726826959280511 0.04910656041989941
000180 db 9e 82 a6 2d 13 75 3f c7 b8 db 2a 2e ce 98 3f
       0.005145242998117995 0.024224015584814376
000190 0c a1 51 27 98 76 ba 3f 13 6f c3 3d 5f bf a3 bf
       0.10337210617001719 -0.03856942776630325
0001a0 7f c5 9f 07 9c da c0 bf b5 e1 0b 0f e4 a1 a4 3f
       -0.13167143223067154 0.04029762920066863
0001b0 ff 09 e2 2d 59 c8 b2 3f 5e 62 ee f6 66 3d b5 3f
       0.07336957330884529 0.08296817329972714
0001c0 7d 45 37 df 81 92 6d bf 90 b2 bb 60 8d f3 b2 bf
       -0.0036098991929313638 -0.07402881251955251
0001d0 b3 91 af 4c c9 0a 91 bf 7a 15 49 38 98 83 c7 bf
       -0.016642709069758243 -0.18370344875635763
0001e0 77 55 06 fd a3 e0 8c 3f b5 d0 ca 22 dc f0 c5 bf
       0.01410034290237648 -0.17141296099510375
