weights/shakespeare_RNN__Whh.npy (npy, 500128 bytes, 1 tensors)

array f8 [250, 250]
00000000: c8f8 809b e4a5 d7bf a77e 01af 0f3f dcbf
00000010: 7c95 7c3a bbe3 b9bf f2f6 37d8 dd1f 9cbf
00000020: 5fdf 38c6 4e81 993f 5429 41fe ba69 c3bf
00000030: b2c2 cafb 7bc6 a8bf 475d da10 a5d2 d23f
00000040: 2b8f 641f 6cad d13f 6f69 c2ea 2789 9b3f
00000050: e077 aa96 1c1f 8abf 04d8 c4b2 ab3b 60bf
00000060: 285d 8783 15bc 9cbf 87ef 8cb0 4662 b0bf
00000070: b182 ceb9 24c9 d63f cce9 0cce 9636 d53f
00000080: 48ab 3321 9c59 79bf 1023 a175 be47 b03f
00000090: 0bed 79eb bf69 abbf cf7f 69c1 af2d d3bf
000000a0: d36b 3624 b11f c53f 3c08 78f4 f413 b2bf
000000b0: b384 3666 0d40 d4bf 8e27 1424 d22b 55bf
000000c0: 44de 9953 916d d0bf e1e8 4794 883f b33f
000000d0: 16a3 a93a 7af9 cabf 6385 b8fc e3d1 c8bf
000000e0: 3d02 3d7a db86 d0bf 38e9 b773 3b88 d73f
000000f0: 8a67 9568 eb0b a03f 80e4 dc20 7a85 c93f
00000100: 9ad8 5337 1921 d43f 5380 4e04 aab9 d63f
00000110: 845c 8cb9 2320 ccbf 8c2e c23d 309e c43f
00000120: 4410 36e0 955f d93f 9dee 74a6 c62e 853f
00000130: 4e6c f618 a7ea babf 411b a6b3 ab07 bcbf
00000140: bf4b 4e3e 79bb be3f 6787 ffd0 cc71 c0bf
00000150: f503 cd2a 8845 d0bf 8050 b959 a023 ba3f
00000160: e012 e554 ecf4 c13f 0735 bd92 2f99 6bbf
00000170: 2c31 e1ae 2487 ad3f 0ade 221c f440 b0bf
00000180: 7923 db82 1970 c93f 0b3b 796a 04c6 cdbf
00000190: 14d2 6c09 d045 a1bf 2cfa c7ef 72e3 d1bf
000001a0: c3bd 0a1a b316 d3bf 1330 4d07 2362 be3f
000001b0: e2f6 c9b1 8029 d3bf 052e b218 0fe0 7fbf
000001c0: 0244 845f 61ae aebf c2f1 2e45 887d bdbf
000001d0: 6e21 a740 76db cbbf 5866 56d1 3f1d bbbf
000001e0: 432d 9f78 3680 d2bf 3c03 e3e5 aef4 c8bf
000001f0: 0a38 e4f8 c94d c13f 816b 2790 ffee abbf
00000200: ed91 3752 3a85 b93f be1a f4eb b745 c9bf
00000210: b654 964a 3332 bd3f 42cc 49e4 8884 d13f
00000220: 1805 6212 e70c c33f 7ce5 d4a0 51f8 d83f
00000230: b498 3e7b 2855 b73f be15 9928 1999 b5bf
00000240: 8339 f945 86be c93f 341a 239b fe74 a3bf
00000250: 92ea 2f34 016d d0bf a0e4 5b2b 5c8c b9bf
00000260: 46df a8ef 362a d5bf 6dd0 c787 84dc 8fbf
00000270: 447f c127 46b6 b03f d928 9856 7a3d b4bf
00000280: 91bf 2dbb 8199 c2bf e41a a949 5db8 b13f
00000290: fdbb b4b6 0d4f be3f 95b3 4406 c8a0 bf3f
000002a0: e3b8 8512 8c63 c5bf 468a 599c f941 c0bf
000002b0: a069 8bfe 87ac 823f b063 dc8a 8684 c43f
000002c0: 0a8e 5375 66c1 d33f 4bdb 5cba 1ae5 babf
000002d0: 2afd 5bc7 9b40 d7bf 90aa 08f1 d086 bcbf
000002e0: 73c9 370c 64a2 bfbf 4bc3 9c25 f3d1 d23f
000002f0: c668 a4a2 b22f 9a3f 55b3 c0d7 0699 cdbf
00000300: 4e69 8e22 ee50 be3f efe5 4c0f cea4 b8bf
00000310: 8a58 b41b ae99 403f d146 3ff5 6b85 c0bf
00000320: 49b6 139a 3ddd c23f d80b 3d41 9541 c3bf
00000330: 977b d665 70d9 b3bf 7e68 9ef1 8089 d0bf
00000340: 5230 b7e2 d2a0 ba3f ed33 e1a9 5287 b73f
00000350: 9669 c73a ff21 983f 7c0c 9ec8 968e a5bf
00000360: 516a 6ba4 44d9 c4bf 6c9b c49c b5ce b63f
00000370: 634e 06d0 331a d03f 30ee 8dcf d49d a43f
00000380: 6c3c 64f0 6000 a7bf 1b69 83d7 4f67 c5bf
00000390: 1bcf 4ab2 2110 b2bf ab80 2a2e fac9 b2bf
000003a0: 497e 0972 2d87 c03f ea9c a56b 1a5d 9e3f
000003b0: ec76 8fd2 bca1 96bf 48e7 0868 b2ca c5bf
000003c0: 83b7 2345 2392 cfbf 3e77 0c2e 5f1f c53f
000003d0: 1d96 ff41 ee6b bcbf aa40 8b5b 8fa6 cfbf
000003e0: 461b 403e 1aaa b6bf 7af3 0594 634f c1bf
000003f0: 2306 5225 3ebd a63f 6bb9 8272 c7e8 aebf
00000400: 58a0 1e67 9818 a2bf 93fd c9fd 9029 c7bf
00000410: 69ca 3389 2e4f afbf f3eb 81a0 d730 ca3f
00000420: af55 7f2c d419 d5bf 1bfc a46e 941d b13f
00000430: 658d 1c7f 046e cabf 7334 6a76 94e5 c73f
00000440: dca1 a27b 5133 c13f fa52 e92c 56d9 ac3f
00000450: 4383 c69d c414 c03f 1fdd a1d8 5f3c d23f
00000460: 9383 e729 a998 d63f 0e1a 4418 3325 cbbf
00000470: 2ef6 c855 0363 cbbf b264 805c ae53 c03f
00000480: df3c 5aa5 d3a0 a0bf 19d0 2cf0 d76c a83f
00000490: 8389 3171 d91a d7bf f2fc 9720 2083 b8bf
000004a0: a959 be5e edc1 a13f 9840 274a 3c7b b7bf
000004b0: 72fc e947 bb2e 7f3f 806b ae10 a31f d0bf
000004c0: 8cfc 431e 6227 cfbf aea0 0a90 ac12 d1bf
000004d0: 56f4 e7a6 99a6 d1bf 33b5 79ca 2106 c23f
000004e0: 2501 08cb 4f30 c5bf 0c5e 9558 6b79 babf
000004f0: e11b 74ab cc70 c3bf 6e2f 816c 1403 9e3f
00000500: 4b25 b588 8d4f cdbf ab36 39f8 783a d9bf
00000510: 6374 3e17 3081 ce3f af61 6161 2a42 ccbf
00000520: 7893 ea64 350b c0bf fa64 ea16 d20a d13f
00000530: 1ad8 5744 e69f c5bf 4f9d 02d3 357f b2bf
00000540: e438 80ac 2401 c0bf bc94 d204 ae7f c1bf
00000550: 9c25 9e7f 7804 d1bf 5f41 b3b9 cc6e 88bf
00000560: 8ee1 6297 c5ff babf f459 7820 0112 96bf
00000570: dc91 961b 576b d63f 7a45 8d59 c9a0 b5bf
00000580: ab98 a70a 09bc aa3f ee42 3e5b 3ca1 b83f
00000590: fb59 ee73 f0d5 b2bf 7c4c b2a1 9fbb c43f
000005a0: 3ac8 e51a 63d9 cebf 435b e1fd 1c05 be3f
000005b0: 3084 5af7 0cc8 de3f 7b6c 7de1 4aee 823f
000005c0: 7416 24c5 1efa c9bf 7b87 18f4 91f3 bfbf
000005d0: a5fa 7734 6a99 b4bf 2161 5a4a 1760 b93f
000005e0: f2a3 3c33 b490 d6bf 9310 c766 c0b4 9cbf
000005f0: ba08 1102 0c6b 75bf fe18 5abd 82cd adbf
00000600: 4561 e710 0af6 af3f b755 9b75 db94 cd3f
00000610: 6c36 6bb2 d12e 893f d680 d723 6871 d33f
00000620: 4764 e0ce 4089 c03f b430 fad3 110e bbbf
00000630: 94bf 432f a101 bd3f 6afe c408 2f05 acbf
00000640: b510 eb65 ca00 ca3f 9fc2 d0fd 016a b3bf
00000650: 1ea0 2a8b b02e ba3f 3367 f85c edb4 b93f
00000660: 6c9d 87b8 07f7 d23f 780d 2df4 32a1 d5bf
00000670: c2ed 6d2a df75 9f3f b047 7c22 6a9b bbbf
00000680: 86c3 3374 f253 6ebf aaa6 b598 0281 a23f
00000690: 2c77 47bd a01a ccbf 15e9 e3f5 af40 d13f
000006a0: 57a2 ce2d 2036 b13f 3a9c 9003 6afd c0bf
000006b0: 3d44 77c8 4207 c3bf bf81 3d05 0be4 df3f
000006c0: 62cc 4847 14f7 c0bf d939 943c d110 d1bf
000006d0: 4706 6408 c581 ba3f ce35 1ea0 561a c0bf
000006e0: b012 16c9 1066 c3bf a7b6 db92 2e1b b43f
000006f0: 609c aa74 f2b9 963f 8d46 34b9 175e bf3f
00000700: daaf 7c23 dc05 9d3f d8b3 1ef3 6ffb c43f
00000710: cfaf 7d3e 5906 b33f 9a38 5b0e 56e7 a93f
00000720: d171 010e f569 b83f 968d 6203 d340 bf3f
00000730: 5e8c 8dd4 4422 85bf 2d74 26c7 dd11 a33f
00000740: aa3e 8688 ce0f b5bf 1087 b2fa c7ab d33f
00000750: 7985 1f0e 28b5 aebf 43e0 1571 d26a a2bf
00000760: 8f36 31ea 8bda cc3f 5aa3 5ce7 76c5 bd3f
00000770: 7ea6 d9b3 25da bd3f b213 c887 4f63 983f
00000780: bed8 59b4 1381 a13f 3591 62d1 7dc0 cb3f
00000790: a954 109c 8efd be3f 236f 957e 613a d6bf
000007a0: ec35 5a91 4a38 ad3f a786 49c5 bff6 b53f
000007b0: 3079 ca66 d29e b73f 10f3 9c6b b59d c6bf
000007c0: 8ee7 03d6 e273 ae3f cf29 fef9 63cd b6bf
000007d0: 5006 5a16 6bd9 d1bf 3ed7 7128 7a99 d7bf
000007e0: d01a 1901 8755 c03f 57c7 766f 7055 94bf
000007f0: 98f8 406a 0875 b13f 39dc 57c6 6cac c83f
-0.3695003050414809 -0.4413489541093249 -0.10113115480324625 -0.027465311357437856 0.024907332275886925 -0.1516641370274764 -0.04838931511529178 0.2941067375736179
0.2762098604746252 0.026890395835473976 -0.012754653308828467 -0.001981578205369596 -0.028061233666304336 -0.06399957475963279 0.35602682252105483 0.3314568531237938
-0.006188974267596965 0.06359472629368335 -0.05354118108240343 -0.2996634854116537 0.1650296618289234 -0.07061701744535837 -0.31640944463476756 -0.0012921859891456863
-0.25668748058476276 0.07518819446696369 -0.21073844780337286 -0.19390535201913925 -0.25823103844962586 0.36768995571732743 0.031340939060739606 0.19938589672691265
0.3145201721484995 0.3550820390755735 -0.2197308212277883 0.16107752814820164 0.39645907302497485 0.01034312434659706 -0.10514301642835841 -0.10949204574545225
0.12004812022341492 -0.1284729023455455 -0.25424389056939783 0.10210611525082136 0.1402869619870648 -0.003368943134694494 0.057671686503996206 -0.06349111258429488
0.19873350991681685 -0.2326055068865219 -0.033735753202936675 -0.27950738350037585 -0.2982604746166226 0.11868494919070853 -0.29940812456321286 -0.007782038660603789
-0.059924166593312136 -0.11519672097251202 -0.21763494641187314 -0.10591505871561802 -0.2890754869410623 -0.1949671385282502 0.13518643048195172 -0.05455778727237882
0.0996891451573629 -0.19744013806503874 0.11404724665620133 0.27371427816177996 0.14883125684358656 0.39015618044103184 0.09114315995120387 -0.08436734429513756
0.20112684647251564 -0.03800197261584906 -0.25665311905292143 -0.09979797419136327 -0.33070157436622016 -0.015557322877590896 0.065281281190889 -0.07906307806129877
-0.14530965461335346 0.06921942756990124 0.11839376173587364 0.12354707863842258 -0.16710043816005457 -0.1270133984972565 0.009118139701446648 0.16029435901944344
0.3086792131200303 -0.10505835580702898 -0.36331839054760684 -0.11143213162055532 -0.12357163713730816 0.2940643184002069 0.025572577645200288 -0.23123250517655927
0.11842239707622079 -0.09626472352547187 0.0005066013467594094 -0.12907170748672184 0.14737672827998186 -0.15043893514129425 -0.0775366066577433 -0.25839255900940106
0.1040164760117375 0.09190861365750864 0.02356718822725553 -0.04210349272673228 -0.16288049724865286 0.08909163548797289 0.2515992671480715 0.04026665719626654
-0.04492476400820852 -0.16721532843696071 -0.07055864909017055 -0.07339442851162185 0.12912529056755975 0.029652035541769907 -0.02210135493429892 -0.1702483184797592
-0.24664727092698166 0.16501989124747668 -0.11102189170159034 -0.2472705075256319 -0.08853305835519362 -0.135235259320236 0.04441255765506138 -0.060369713524198364
-0.035343897426458326 -0.18095600502054462 -0.06115098404724934 0.20461554848938554 -0.32970146508645376 0.06685760213166285 -0.20648246962182806 0.18669372350669597
0.13437861000899332 0.05634564684138428 0.12563379005316663 0.2849349608945477 0.3530676755163366 -0.2120727413641394 -0.21395913780900017 0.1275537444751414
-0.032477010664587296 0.04770541006874413 -0.3610137563138311 -0.09575081630463325 0.03468267232453865 -0.09172417459854143 0.007612926069327052 -0.25193096760784073
-0.24338938215075634 -0.2667647749572194 -0.27579346942349525 0.14081213366027043 -0.16553685582767588 -0.10341521179849894 -0.15187986728434935 0.02930862343082146
-0.2289902608411388 -0.39419388046813236 0.23831750044783737 -0.22076921229269206 -0.12534205844454127 0.26628544080593 -0.1689422448832268 -0.07225357438675427
-0.12503488943952512 -0.13670897708394658 -0.2658978697077943 -0.011930083672638757 -0.10546526857331726 -0.02155305634195233 0.35030152982861096 -0.08448465763401272
0.05221584563314371 0.09621026256196405 -0.07357695417736203 0.1619758166822044 -0.24100912869795527 0.11726552198647959 0.48096012263892174 0.00924356938019443
-0.20294556261085328 -0.12481033524866618 -0.0804659250352225 0.09912248196849706 -0.3525820255622981 -0.028033262513205214 -0.0052290410104111566 -0.05820854722428413
0.06242400604577595 0.23110526316183463 0.012296331651124613 0.303796801568763 0.12918863393204758 -0.1056834356806487 0.11330611614152836 -0.05472704870271346
0.2031491277358605 -0.07583630034128895 0.10227492711658256 0.10041697997840231 0.2963275243805217 -0.33796380849181373 0.030723082508741013 -0.1078401884263076
-0.003702138464739271 0.03614051927691027 -0.21956261865755644 0.26957320225450704 0.06723214262331943 -0.13273358511034578 -0.14865908420918741 0.4982936431097435
-0.13254025917703688 -0.26665144840162963 0.10354262785770017 -0.12580378359090932 -0.1515522939554521 0.07853976331144939 0.022193706866030616 0.12252949019991828
0.028342666307409427 0.1639232575520555 0.07431562209757135 0.05059307980774115 0.09536677925047533 0.12208288986817303 -0.010319268929100452 0.03724568420441474
-0.08227244217982368 0.30735969049611445 -0.059975864147200526 -0.035971237472893346 0.22541951117675693 0.11629431866152853 0.11660991326211875 0.02381634012455764
0.03418790413427207 0.21681187366369561 0.1210564738288037 -0.34731328355495544 0.0570700933868514 0.0857963425310354 0.09226717958015196 -0.17668788675828084
0.059477890610607806 -0.08907151082363572 -0.2788951605108183 -0.36874250363995376 0.1276100879060409 -0.01985717468568934 0.06819202989660977 0.19276199040152323
