weights/shakespeare_RNN__bh.npy (npy, 2128 bytes, 1 tensors)

array f8 [250, 1]
0	0xbfc5beaf93e326ea	-0.16988177033481772
1	0xbfca083516aef4d2	-0.20337546928013822
2	0xbfd2c8db94bc278e	-0.2935093834390664
3	0xbf884a7522812db5	-0.0118607665209741
4	0xbf936ff36f8b0fb5	-0.018981746371323733
5	0xbfd5529f355cb09a	-0.3331678410638773
6	0xbfc37a6925585b3d	-0.15217317889683982
7	0xbfac42d739b19266	-0.055197454254799536
8	0x3fb56083429744f7	0.08350391746286677
9	0x3fc077e61e3bdab7	0.12865902401218474
10	0xbfb8a2e8998fa9c9	-0.09623578785946231
11	0x3fc53410b95d5e05	0.16565140772830503
12	0x3f85725ea4e0ad9b	0.010472049147287879
13	0xbfc10623a4ea0a17	-0.1329998545880506
14	0xbf8640052ee61160	-0.010864296430334874
15	0x3fd0c1fef9f76013	0.26184057627460894
16	0x3fb9fcdff990fb63	0.10151481478622552
17	0xbfad5e7ad03a22a5	-0.057361448210092626
18	0xbfc9c64f60ff70a5	-0.20136444317075078
19	0xbfc2d7f4d65d86a7	-0.14721546618516365
20	0x3fc7c74e4e433861	0.18576983281531326
21	0x3fcc54546c0164aa	0.22132354043677555
22	0xbfc3bf769a86b4f5	-0.1542804960749106
23	0x3fc1ed745cce3aeb	0.14005903750918178
24	0xbfc2d6f37278eb46	-0.14718478288144804
25	0x3fc89c419dd1c290	0.19226856428169414
26	0xbfd295a5d21a2a2a	-0.29038377301972906
27	0x3fc29e0936700d76	0.14544787557688793
28	0xbfc2f55bca4ee12b	-0.14811274889303525
29	0xbfc709c162e495a8	-0.1799852116466074
30	0xbfa05a693239e754	-0.03193978059876082
31	0xbfa8752ee224d5dd	-0.04776903639359962
32	0x3fd3d9d9900844fe	0.31017149987845005
33	0x3f938a0809955d66	0.01908123548977638
34	0xbfcd8beda6dc76e5	-0.2308327736617947
35	0x3fbdd17290170031	0.11647716539209864
36	0x3fd0a6248a30743a	0.2601405477051376
37	0xbfb60dcc37438ff4	-0.08614803647247965
38	0x3fd42d596afba8fb	0.315267900920517
39	0xbfb7955f90124024	-0.09212300555577763
40	0x3fc7595eb9919046	0.1824148565384595
41	0xbfb3d224311d069b	-0.07742525290543727
42	0xbfaa5fa48cb97cff	-0.051510946443835685
43	0x3fca920886b52969	0.20758158280871022
44	0x3fbe45e49ce11acd	0.11825398283063322
45	0xbfd26b1e66a86046	-0.2877880098835742
46	0xbfbeac14743bd99f	-0.1198132308744335
47	0xbfa8a533cad2ca38	-0.04813539362784919
48	0x3fd20a652e08a3dc	0.2818844747112601
49	0x3fbfb2a20eec77ce	0.123819473880274
50	0x3fb87fa9b145e270	0.09569798067048807
51	0xbfd260e66656c9d3	-0.28716430658383024
52	0xbfd010742ecf0069	-0.25100426264908166
53	0xbfc582a7ade1ff21	-0.1680497740780931
54	0xbfc4e155989be856	-0.1631266589318467
55	0x3fa7c67833555110	0.04643607737185296
56	0x3fa8649b92373370	0.047642575834834555
57	0x3fa6ca63f082a569	0.0445128661243171
58	0xbf3de215bcc85d80	-0.00045598059367209925
59	0xbfb752f278a7fa16	-0.09110942311961198
60	0xbfbce0c2e74c005f	-0.11280458590408803
61	0x3f8e74eac844fd29	0.014871439205875152
62	0x3fba2cc4616f1221	0.10224559191471673
63	0x3fc2dfc1c5fb240c	0.14745351950685437
64	0xbfd0b09e8c333a49	-0.2607799882070237
65	0x3fbf86bbe439ccdc	0.12314962694090376
66	0xbfcad7c17fae6e79	-0.2097093461460309
67	0x3fd56db9f19f6842	0.3348221644970445
68	0x3fc8b390a023ce61	0.19297988719300732
69	0xbfc53f9ef6f19fed	-0.1660040574818135
70	0xbfb6778ab76cf25a	-0.08776156404651073
71	0xbfc0b7d0314dbd1e	-0.13060953528791058
72	0x3fa1db2db7e97d7f	0.03487532491703415
73	0xbfd8805e71e73ed4	-0.3828350174271524
74	0x3fd525762d96e2dd	0.3304114766320206
75	0xbfca094d54c568b5	-0.20340887679305344
76	0xbfcd3c5e4a913134	-0.2284047950837561
77	0x3fd5856e8aeb49f7	0.3362690312034426
78	0xbfb9632508c493cc	-0.09916907753047538
79	0xbfa58641e4158c23	-0.042039927570634704
80	0xbfcb2cdf97853108	-0.2123069276661982
81	0x3fd28806d14be8b8	0.28955240668404825
82	0xbfc61da012960001	-0.17277909190670473
83	0xbfc8981a9e9450a4	-0.19214184516079513
84	0xbfce1ea1f9280358	-0.23530983606181155
85	0x3fcbf114732fbfcb	0.21829467415181933
86	0x3fd2488606288317	0.2856764850749171
87	0xbfc95dd1f2b531eb	-0.1981756625267644
88	0x3fbd4114afa7da90	0.11427430427998275
89	0xbfd5204c5a706c71	-0.3300963290400381
90	0xbfc6e3cd4092f6ef	-0.17882695820838232
91	0x3fc47b4c1bcd82cd	0.16001273496205784
92	0x3f9e09409480a6a1	0.029332169593692673
93	0x3fce39b89a855577	0.23613650841677344
94	0xbf61f1294352bbad	-0.002190189925918648
95	0xbfd3913378729106	-0.3057373691792836
96	0x3fbc2bd92a190cd7	0.11004407193927378
97	0x3fcdea856a7e997d	0.23371951770713997
98	0xbf960830f48d559d	-0.021515622068667296
99	0x3faf1059af77c4d8	0.060671618146338424
100	0xbfc34aa2cee59e4d	-0.15071520903005578
101	0xbfc36b7424395a58	-0.15171672600509356
102	0xbfd5395ae7af95cc	-0.3316256773526589
103	0xbfc6e4345aa5fb3f	-0.17883924890699096
104	0xbfb575dd8da22b70	-0.08382973392342108
105	0x3fa47ab21953d051	0.03999859389469463
106	0xbfc4e5102b92940e	-0.1632404530293176
107	0x3fd14dba0e481f0e	0.2703690661878547
108	0xbfccb413414783bc	-0.22424545943706942
109	0xbfb65e3c923a2563	-0.08737543649671901
110	0xbfc2645f3475a8bc	-0.14368810712341495
111	0x3fd05c15bf3cbf44	0.25562041926876966
112	0xbfa86e8306588bc1	-0.04771813824142824
113	0x3fc61f67edfaed91	0.17283343429685918
114	0xbfc4f44812f11213	-0.1637048809517557
115	0xbfcd298c5a492495	-0.22783045204622412
116	0x3fc02b50ec2ea87c	0.12632190258347353
117	0x3fbfaf8eb7e09a40	0.12377254475777821
118	0x3fb5f02fe5dcfa3e	0.08569621431249971
119	0xbfd2e9368a9218c5	-0.2954841950635337
120	0xbfd09b00c7ce4296	-0.2594606353023122
121	0x3fa58681a1387d9b	0.0420418271353313
122	0x3fa581e481b31016	0.04200662692304051
123	0x3fbb49361e8c2e87	0.10658586736479424
124	0xbfc83d7de635d875	-0.1893765806268594
125	0xbfc330375810b7a5	-0.14990894126952728
126	0x3fc9cfe92ae5d504	0.20165743441217654
127	0xbfbfcf5ca2cf0575	-0.1242578408701059
128	0x3fc1738d00c5d320	0.1363388303540427
129	0xbfcc57ef0a180dce	-0.22143352501744434
130	0x3f845dce1b9949f2	0.009944544045684876
131	0x3fbafe7dc13c18de	0.10544572799344418
132	0xbfb40b8cd916861a	-0.07830124187469104
133	0x3fc5cd2971334c46	0.17032354380953246
134	0x3fc675e1d7fbd807	0.175472479306052
135	0x3fc63d69045c8f2f	0.1737490912720374
136	0x3fd06037cd9d5a43	0.25587267951542375
137	0xbf88fbae6bd5be16	-0.012198794046269373
138	0xbfcf74f9d8fa8741	-0.2457573232141446
139	0x3f7fd83cfaaa1dcc	0.007774580192410462
140	0x3fd149a923c6e59e	0.27012089246599114
141	0x3fb81a1bb71beeb2	0.0941483804744461
142	0xbfd0421a3bf588c3	-0.25403457503683685
143	0x3fd3f75707c487ef	0.31197143324436544
144	0xbfc2c88be3b369d7	-0.14674519174771092
145	0x3fd29fc9623d911f	0.29100260347174073
146	0xbfce2e2b50b3c0cc	-0.23578397217307268
147	0x3fc85be1240f0266	0.19030393849063215
148	0xbf72df78704a43b6	-0.004607649291430363
149	0x3fc46b2e8c618b6f	0.15952092985670727
150	0x3fa5eb1d43a29640	0.042809404855955524
151	0xbfbc3db2582b54ed	-0.11031641628808915
152	0xbfd18ffc325ff9d0	-0.27441315574097036
153	0x3fb21dae034d398b	0.07076537685973087
154	0xbfaf929872f74bb3	-0.06166530993836918
155	0xbf82cdcf18b81464	-0.00918161195932949
156	0x3fb72fe25a7328a3	0.09057440479515093
157	0xbfc8a3bcc6b14d26	-0.19249686910425473
158	0x3fc9b22a957f3caf	0.20074970531138578
159	0x3fb5291902dec3a1	0.08265835113594601
160	0x3fa5ec194819d658	0.0428169155610873
161	0xbf716a00bb065536	-0.004251482824107191
162	0xbf98695b3c5e1ae5	-0.023839402732415933
163	0xbfc27d8ea7f48d05	-0.1444567031950116
164	0x3fc9f18fa6ee142a	0.2026843609893672
165	0x3fbd1438a2e29ecc	0.11358980156603166
166	0x3fd8f7e08c83771c	0.39012922021889707
167	0x3fc81c47ff463b33	0.18836307491843626
168	0xbfbfe8e77339925c	-0.1246475845633283
169	0x3fccfb0200fb0783	0.22641015098457382
170	0x3fb2f52e955482d3	0.07405367990260041
171	0x3fbe06349b65d3b7	0.11728218835726421
172	0xbfc16fa9651e112d	-0.13622014462829082
173	0xbfb72c5b23ee194f	-0.09052056910704674
174	0xbf84f0ff13729174	-0.010225289135924888
175	0x3fa1efcc360b42b6	0.03503263625828394
176	0x3fc5755ffbdb05f3	0.1676444988025164
177	0xbfcfb738fc8741ff	-0.24777901010976675
178	0xbfc4a2c6a4f6be42	-0.16121752791285543
179	0xbfcd32c03fbde498	-0.2281112967719181
180	0xbfba8632c05b94f1	-0.10361020275339052
181	0xbfb9e3e66065875f	-0.10113372662956753
182	0x3f91bfe7e7c0e9be	0.017333625335803175
183	0x3fc6a3e359b97409	0.17687646752429512
184	0x3f9e22f6d78e2cd5	0.029430252939658914
185	0x3fc3f83ab9911875	0.15601285992505934
186	0xbfa16a046828334d	-0.03401197215507654
187	0x3fb58c76e1d0cc1e	0.08417456639362839
188	0xbfac4bd0794ab5ac	-0.05526591759312835
189	0x3fd5d002f34c26a8	0.34082101592557956
190	0xbfce050863080028	-0.23452858767996188
191	0x3fbc9de6ecd84435	0.11178439409583592
192	0x3fc50dbdc2397f2e	0.1644818495142259
193	0x3fc557d271f8fd9e	0.16674261632031756
194	0xbfb7591388d5ac6c	-0.0912029465741157
195	0x3fcd07c11816034c	0.2267991416556704
196	0x3fcfb0b3bb8184e3	0.24758001952708417
197	0x3fd4390e80386f8f	0.31598246118095913
198	0x3fb34a0e58a4492f	0.07534875549416563
199	0xbfd2dd8def887f12	-0.29477260963356955
200	0x3fd36fc64ce7d81a	0.3036971808463719
201	0xbfd1274693a3bb68	-0.2680221978943593
202	0x3fc75b7ddf0287ea	0.18247960461763962
203	0x3fcefa14472a514d	0.24200681185596765
204	0x3fb19a59105dad20	0.06876141213949838
205	0xbfac8d3c537b3a89	-0.05576504248675913
206	0x3fbeb87cffbcb229	0.12000256770688424
207	0xbfd1954d317ce2b3	-0.27473764260097794
208	0xbfb2a0644822ab60	-0.07275988350981555
209	0x3fba0f22307661c8	0.10179341967739852
210	0xbfc4c684e3b16ad0	-0.162308322122803
211	0x3fbb0dab82322e14	0.1056773369656912
212	0x3f733fdbec1f2d9a	0.004699572631533222
213	0x3fca9ea5bb0a54d1	0.20796653397397916
214	0xbfc1a32b757a7045	-0.13779204593891073
215	0xbfd0af317f1ff9a1	-0.26069295324841774
216	0xbfc631918cae9547	-0.17338771218525492
217	0xbfd3d196cbc5029c	-0.3096673002183168
218	0x3fb88516997d7e44	0.09578076598472146
219	0xbfca2f6f089a3506	-0.20457256240880656
220	0xbfc35f4b680fe8d1	-0.1513456590763043
221	0x3f660b8e53216c26	0.0026910571842058304
222	0x3faeb14511f2d04c	0.05994621128175534
223	0x3fb1f7385fd884cc	0.07017853107437871
224	0x3fbc47a400dcf312	0.11046814938613306
225	0x3fb95cbc9cc3a155	0.09907130076647282
226	0x3fd44aab8776fa1d	0.31705749730090976
227	0xbfb7fc513ccf8fca	-0.09369380697859167
228	0x3fcd502a303b6592	0.229008935499945
229	0x3fcc147cd19613c0	0.2193752311106021
230	0xbfb504813750d9fa	-0.08209998703464541
231	0x3fc18156d8f37b06	0.13675962060275298
232	0xbfcac0589b551633	-0.20899493774975184
233	0x3fb0bc562519ec5a	0.06537378698151156
234	0xbf8baef3c85f47f4	-0.013517288734792722
235	0xbfbefa19e7a7f10a	-0.12100374131836503
236	0x3fc47b3f8eb8c8b6	0.16001123875463968
237	0x3fb906bdb6db53a2	0.09775911058689116
238	0x3fcb9b1bed0d4f30	0.2156710536461275
239	0x3fb7d2af7663ff72	0.09305855408092414
240	0xbfc848f6b3e3b333	-0.1897266748777838
241	0xbfc1e6ea17ba05dc	-0.13985944899108815
242	0xbfd06eaa2b3e16b3	-0.25675443861869524
243	0xbfd0be7303e6cdc5	-0.2616241014577237
244	0xbfa9543d6065374c	-0.049470823304189254
245	0x3fbb53603b46fd96	0.10674096533965946
246	0x3faaff1c923a4d20	0.05272759709364494
247	0x3fb2e21563065d6c	0.07376226108168787
248	0xbf7932559d113d8c	-0.006151518276126377
249	0xbfc3fe065ec5e20f	-0.15618972423159547
