weights/shakespeare_Why.npy (npy, 126128 bytes, 1 tensors)

array f8 [63, 250]
000000 ad ea 8f 6a ef 12 a4 3f 5a fa a4 85 ff e6 e2 bf
       0.03920696426208301 -0.5906980142825191
000010 12 ae 03 fe ac 9f ef 3f 91 b8 d5 bd 67 6e e2 bf
       0.9882416688173541 -0.5759772021972528
000020 91 01 fb a1 b0 89 fb 3f d3 cf 67 19 de e3 c7 bf
       1.7211157157290453 -0.18664146652702004
000030 7d fd 61 10 64 b6 ea 3f c3 d4 db c5 d7 0c e8 3f
       0.8347645111061152 0.7515677322795898
000040 5f 8d ce 6c 68 92 e1 3f 43 d0 44 79 69 9a d2 3f
       0.5491220593579945 0.29067456095367933
000050 9d ff a0 d9 fd d5 f2 bf 0c 1c 4a 2e 3f 1f da bf
       -1.177244043457882 -0.40815715332468083
000060 66 d9 19 1a f2 8d fa bf 37 c4 c4 ba 9e a4 a3 3f
       -1.6596547145432736 0.038365326212791144
000070 09 8d 15 a6 03 5b f1 3f ed 17 40 5a 3d e8 f5 3f
       1.084720276609746 1.3691991353421102
000080 0c 43 7c 61 e0 d5 e7 3f ad 34 f5 a3 9e 16 dd bf
       0.7448579696666413 -0.4545055962706311
000090 df 9d 66 c2 98 2e ec 3f b9 01 33 a7 45 d5 fc bf
       0.8806880757228405 -1.8020683795185575
0000a0 0c 18 bc 1a 66 0f f9 3f 54 3c a0 e2 8f b1 eb 3f
       1.5662594837499482 0.8654250551497946
0000b0 22 a2 87 20 f0 9f f1 bf 47 86 5c ff c4 75 e9 3f
       -1.1015473623939518 0.7956261622932254
0000c0 d3 ba bf 26 d4 e2 c0 3f eb f5 d9 b9 a8 39 f0 3f
       0.13192226306951813 1.0140769252606059
0000d0 5e 29 6f 53 a2 02 ce 3f 3d a8 e1 87 41 f2 e4 3f
       0.23445538591324583 0.6545722631392504
0000e0 8b d2 76 a8 90 cc d6 3f e8 18 a2 fc 03 23 d4 3f
       0.35623566104485666 0.3146371810074826
0000f0 15 e7 86 63 4c 62 07 40 f5 20 92 f1 32 04 f0 bf
       2.922997262529757 -1.0010251461372353
000100 1c 07 8b a2 f9 7a 09 c0 9f ca f0 bd 9e 59 0f 40
       -3.1850464533498677 3.918759807501672
000110 f1 1c 39 4b ab 57 d2 bf a5 fa 84 80 dc ef f9 3f
       -0.28660089822774554 1.6210598964968679
000120 1b fa cc 5e 7c 96 d0 3f f4 de 87 f8 d1 95 e4 bf
       0.2591849256313325 -0.6432885984531524
000130 21 4e 1e 7d e4 e3 05 40 dc 5c a6 a7 d6 19 f3 bf
       2.736275651442853 -1.1938082264730872
000140 71 87 8d 44 11 28 de 3f d7 99 a1 55 13 3c 09 40
       0.47119552321065955 3.1543337526265804
000150 98 64 ea de 07 05 d6 3f e2 57 eb ef 66 22 04 40
       0.34405705231763184 2.516797899598701
000160 d0 93 c5 ad 5b 40 eb 3f 3b 87 38 4f 77 b1 78 3f
       0.851606215856572 0.006028619816363985
000170 00 ce 6e e4 71 f0 d9 3f 21 27 2d e6 b7 ae cd 3f
       0.4053005915440906 0.23189448107796642
000180 78 4e b0 b3 c0 bb d1 3f 1c 42 01 ec 57 fd f6 bf
       0.27708451793407773 -1.4368514269773476
000190 4c 3d bd 9a 7d da ee 3f 64 80 62 3c b5 2e de 3f
       0.9641712209940265 0.4716008271880183
0001a0 d5 7b d3 5a 88 17 ec 3f 96 05 d8 b0 7f 35 f3 3f
       0.8778726362178256 1.2005612285578073
0001b0 41 10 16 ed 10 7f c3 bf cd 01 61 4a 12 61 0c c0
       -0.15231525017236616 -3.547398167691631
0001c0 73 9b d6 28 bf 4b b9 bf 32 62 d3 27 8a 37 e3 bf
       -0.09881205317524948 -0.6005297448965108
0001d0 dd 29 8c 4f 71 d7 e8 3f fa 98 ac 9c 4a e8 eb 3f
       0.7762991479551676 0.8721058902781629
0001e0 78 b1 1b e5 d6 8a f2 bf 0b e9 fb 27 4b 66 e3 3f
       -1.158896346048179 0.6062370091379149
0001f0 6f fd a1 00 74 b4 99 bf 9a f6 77 92 87 ff f9 bf
       -0.025102436579343242 -1.624885151045794
000200 3b 3d 8b e8 ff 39 cb bf 46 3e e5 7a d1 40 ed 3f
       -0.2127075086086537 0.9141623878767369
000210 59 2e ca 1b ac 57 e0 3f d0 dc a5 43 60 7a da 3f
       0.5107021849411907 0.4137192402481107
000220 71 86 dc 54 af 08 fb bf c2 e8 7b 63 3d ca ed bf
       -1.6896203341388196 -0.9309374754950783
000230 3b a6 c2 9b 4a b2 04 c0 06 f8 3a ca cf 52 e7 3f
       -2.587056366803862 0.728858847600123
000240 85 8d 20 66 b4 7f f5 3f 8c 86 d7 ce c4 1e ef 3f
       1.3436779012052693 0.9725059547310635
000250 8d a4 32 c2 d3 8c d7 3f f9 1e e7 d3 b3 3f 06 40
       0.36797040905600725 2.7811047129542854
000260 b9 24 b4 fc 53 15 13 c0 c6 e6 8f cc 32 bc a2 3f
       -4.7708281979513965 0.036592090102158845
000270 5c c6 b4 c9 f4 c7 fe bf 06 a9 fd 7c b1 f6 e1 3f
       -1.9238174323221733 0.5613639298656217
000280 10 0d 1b 61 43 62 f6 bf c7 37 51 83 c0 ea 90 3f
       -1.3989900391760024 0.016520507826775856
000290 a0 e6 d9 73 79 d4 c8 bf 8c 1f d3 7a 71 84 f7 bf
       -0.19398420483394307 -1.4698347852554177
0002a0 38 13 2b e2 0a a8 f5 3f 8e 82 90 21 22 02 c3 3f
       1.3535260042855963 0.14850260390177933
0002b0 7f 14 b5 2e af b8 e3 bf b2 83 be 7f f1 31 bc 3f
       -0.6162944710018933 0.11013707512621698
0002c0 52 8c a1 28 58 e3 e8 3f 7c f2 7d 53 57 83 ef 3f
       0.7777519982886452 0.9847828512861976
0002d0 d6 f6 0d c4 1c 28 d3 3f aa 3c 29 f9 c6 f7 d7 3f
       0.29932326456024094 0.3744981225217524
0002e0 47 25 40 ec 25 a1 b5 3f ee 9d ed 02 1b 55 01 c0
       0.08449017541729119 -2.1665554264798095
0002f0 6d b6 c0 9e ef 03 d3 bf 45 2e 73 a3 6d 24 e1 bf
       -0.2971152353592064 -0.5356968109494537
000300 6e ed 8b 5b 6f 7d dd bf bf 66 25 58 7b 6d 01 c0
       -0.4607809442529377 -2.178457916871451
000310 ac d2 5b bd 4c cf cf 3f 76 43 c2 b0 03 26 f0 bf
       0.2485137867548891 -1.009280863250948
000320 8e 19 82 57 cb 42 eb bf 9a b8 19 86 8f 72 eb 3f
       -0.851903601564844 0.8577344531202187
000330 b3 62 39 0a 97 36 e1 3f 2b c0 58 42 0f 1f f2 bf
       0.537913818329875 -1.1325829116503978
000340 c7 09 6d 83 fa 23 dd bf 40 2f ef 8b f5 34 e8 3f
       -0.4553209575134613 0.7564647420017323
000350 e1 3b 7d 22 9f 27 fc 3f 20 12 db 36 be 3e ef bf
       1.7596732470735719 -0.9764090606118465
000360 a6 3a b9 e1 75 37 96 bf 9c e5 0a b2 9b 7e bd 3f
       -0.02169593992430898 0.11521313759558044
000370 1d 67 24 a3 96 cd 01 c0 73 57 1c 86 67 ae e2 bf
       -2.2253849740490197 -0.5837895984029572
000380 87 b4 3a 00 8c 80 ed bf 6b f1 56 db dc 25 94 3f
       -0.9219417576292849 0.01967568482153707
000390 49 49 42 fa 72 97 d1 3f 3a 95 00 b2 79 f8 b6 3f
       0.2748687213835593 0.08972893329390255
0003a0 3e 86 3b 36 20 58 e5 bf 30 3d e3 aa 74 6f eb 3f
       -0.6670075473049975 0.8573554361009084
0003b0 53 72 19 48 22 9e f6 3f fe 4a 51 ef d9 0d 10 40
       1.4136069122679558 4.013526667916038
0003c0 bb 23 80 72 2f c6 f5 bf 0e b4 ab e0 e6 80 f3 bf
       -1.3608850929906413 -1.2189701820564127
0003d0 12 f3 45 4b 50 2b e0 bf 95 de e8 62 16 16 05 40
       -0.505287310617492 2.6357848861042137
0003e0 d8 18 bd 88 53 19 f3 3f a0 63 28 fb c1 11 0a c0
       1.1936831799844665 -3.258670770807342
0003f0 88 8f 4b 65 fd 90 92 3f e2 87 91 9a dc da f8 bf
       0.018131217296186303 -1.553433040412067
000400 a7 bb 8d 10 7d 6a 93 bf 27 7e eb 82 03 71 ed 3f
       -0.018960909018854413 0.9200456196812795
000410 7c e4 18 b8 cc df f1 3f 2b ea 01 9e 59 2f fb bf
       1.1171385947511956 -1.6990600750128901
000420 64 b8 02 d8 92 ef e4 bf 24 70 0c 15 84 bf fa 3f
       -0.6542448252637425 1.6717568227968593
000430 5e 82 06 a6 eb 72 e5 bf 3a af db e0 19 91 f3 bf
       -0.6702783816036335 -1.222925070144767
000440 5c 5b 82 e7 a4 b8 f9 3f 06 01 18 30 01 20 f9 bf
       1.6075791400268917 -1.5703136328375549
000450 a0 7f e4 48 5d 6a f2 bf 30 ba 40 e3 a9 e8 c2 3f
       -1.1509678695074186 0.14772533031778456
000460 5c 89 c9 bf 3c 9b fa 3f e8 6a 06 f9 02 4c fd bf
       1.6628997317971743 -1.8310575225393055
000470 e6 c5 f3 8e 8d 24 e4 3f 69 8e 49 ce 3e c3 ac 3f
       0.6294620315586001 0.05617710369258761
000480 8f 7c 37 d9 47 e1 f3 bf b1 20 c7 c4 ec 30 e5 bf
       -1.2425001606968953 -0.6622222750966299
000490 3d 9e 92 80 2d bb df 3f 12 11 83 9e b8 14 ff bf
       0.49579942279749273 -1.9425588790773571
0004a0 47 99 db e9 a7 6c df bf 60 d8 09 33 d9 43 da 3f
       -0.4910068305747654 0.410391139833683
0004b0 3c 85 ee ae 33 2b ad 3f 12 70 71 b9 0d 4d fe bf
       0.05697022924801806 -1.8938119167205554
0004c0 89 95 af a7 c5 8f e6 3f 94 b1 94 27 a4 8f e0 bf
       0.7050503039469486 -0.5175343297064949
0004d0 ab 01 6b 18 12 ad 08 c0 46 0b 7c 01 eb 10 ca 3f
       -3.0845071704536244 0.2036412961243405
0004e0 0e 93 90 14 d1 40 f5 3f cd 23 1f 40 1a d3 d9 bf
       1.3283243945417698 -0.4035096765697375
0004f0 d3 96 00 ae 3c 17 f4 3f 12 af 55 03 27 cb f3 3f
       1.2556731030430697 1.2370977525960751
000500 3f 8e c8 a6 2e e3 fa 3f ed 82 ae 47 4e db f8 3f
       1.680464412210213 1.5535414505067664
000510 e4 c0 94 9c 92 11 e3 bf 52 b5 a5 20 5e 89 97 bf
       -0.5958951051925649 -0.022984953634865697
000520 fd a7 70 89 34 92 f5 bf b0 03 cb 47 e4 32 e5 bf
       -1.3481946343185875 -0.6624623682220001
000530 19 ff 52 3c 1a 54 00 40 a2 a4 dd 13 72 61 70 bf
       2.0410656655148043 -0.003999181380870772
000540 4f 6b e4 66 a0 f3 c8 3f e4 54 2e 80 1a 06 e7 3f
       0.1949348928836465 0.7194950583967992
000550 78 c0 60 39 fd 99 e4 bf 50 69 44 d2 83 be f4 3f
       -0.6437975044882611 1.2965124333919285
000560 93 51 4b f2 de c3 ee bf 66 5c e7 f5 4d cd f2 bf
       -0.9614100200947625 -1.175123177110231
000570 3d 30 2f f9 29 ec e7 3f 6b 60 29 2a a0 05 e4 3f
       0.7475786082154695 0.6256867240399634
000580 9e 4d 0e 32 78 72 00 c0 e6 16 bd 2d 8e 37 d1 bf
       -2.055893317281245 -0.2690158316294017
000590 a7 8e 5a a1 78 44 f6 bf 8a ae fb 3b 6f 5d ba 3f
       -1.391716604507488 0.1029881974642938
0005a0 27 64 e2 55 36 c7 fb bf d3 fb 0f 9b 09 cf cd 3f
       -1.7361358027321871 0.23288078376205465
0005b0 5f 9e 06 09 ab 17 dc bf 89 0e 1f 70 4d e4 d6 bf
       -0.438944586576758 -0.3576844782767031
0005c0 e4 5a de 3a 9b 4c f8 3f aa 11 d2 62 82 ad e7 3f
       1.518702726321572 0.7399303369607442
0005d0 c0 51 89 fc a5 1e e8 3f 6c 58 04 df 10 f8 cb bf
       0.7537412578918108 -0.21850787057400411
0005e0 f2 07 b7 9b c5 ae fd bf 0d 5e 3c 41 c2 13 ef bf
       -1.8551689226737804 -0.9711619638573566
0005f0 14 2e 79 09 b2 b4 f0 3f b0 0a 6f 05 36 fd d2 3f
       1.044115101819334 0.2967047741951019
000600 8b 69 1a 3d b5 79 dd 3f fd 61 5d 28 4b 60 e5 bf
       0.46055346457583174 -0.6680045879721203
000610 3c 5d cb 27 ad ab d3 bf df 4d 39 15 fe b2 ee 3f
       -0.3073532951943496 0.9593496717956745
000620 b6 72 52 71 03 b6 f4 bf ad 4f 94 c0 92 55 c1 3f
       -1.2944368769305306 0.13542398837364314
000630 51 88 75 30 4e 90 e0 3f 2e c7 4c ab b7 38 eb bf
       0.5176154085604684 -0.8506735177709055
000640 48 b0 29 0e b7 14 f1 bf 88 84 6f 62 87 6c fc 3f
       -1.0675573876606155 1.7764963002339602
000650 32 84 59 2f 30 a1 ca bf 46 64 c5 10 fd 31 e6 bf
       -0.2080440741729333 -0.6936021163520614
000660 b7 3f b4 2b 65 9f a8 3f 54 0b a7 6d 05 07 f3 bf
       0.04809108885285645 -1.1892141612340383
000670 d1 5a 2a 29 6c ae ea bf 52 83 b9 19 a7 51 f1 bf
       -0.8337918094647084 -1.0824347500676663
000680 2a 08 64 3c 0b 40 ff bf 34 7b a6 ba 97 2c e7 bf
       -1.953135715390554 -0.724193443824197
000690 94 58 82 80 67 35 de 3f b2 01 3f 83 9a 50 e1 bf
       0.472009540078383 -0.5410893023873113
0006a0 71 bd 8c 2b 22 62 e9 bf 48 15 ea c0 01 06 d2 bf
       -0.7932291842061386 -0.2816166290216029
0006b0 2d b9 81 80 b1 1f a1 3f 3e cb d0 7f 06 86 f1 3f
       0.03344492620168391 1.0952210419461177
0006c0 22 d2 f3 57 81 1e d6 3f d7 c6 b6 63 5d 7d dd bf
       0.3456118925962831 -0.46077666032497916
0006d0 f1 8b 68 94 a5 f4 ea 3f 0d bc 26 a3 e2 63 f7 3f
       0.8423641108132626 1.4618860600564887
0006e0 28 5e 78 eb 75 ce 80 bf a3 7c 6d 49 2d c8 f4 bf
       -0.008206292389373607 -1.2988713138836736
0006f0 cd 5e 32 d2 78 9c de bf ec 66 b4 90 e7 f3 da 3f
       -0.478300290365479 0.421136752427272
000700 03 4d 5a f5 bb ec d8 bf f7 2e 78 9c cd e9 00 c0
       -0.38944910965183527 -2.1141617035080986
000710 21 81 17 0c bc 3d 09 40 aa 53 12 cd 52 73 f0 bf
       3.1551438278840043 -1.0281551371201467
000720 6f ec 61 fc ed ab 00 c0 39 d7 bc 61 be f9 f3 3f
       -2.083950015772238 1.2484725778462702
000730 e6 b7 71 80 0b d7 e3 bf 53 43 d8 b1 e6 bd 9c 3f
       -0.6200006016422293 0.0280681654022062
000740 46 de e1 39 9a f5 e5 bf 2e 05 1a 40 d8 02 fd 3f
       -0.6862307672990446 1.813194513699567
000750 0b 12 b9 9f f8 85 ff 3f 19 c6 2e c8 3c 5b c9 bf
       1.9702078093697561 -0.1980968453840866
000760 21 fe ec 00 be b9 62 bf 9b 3f 38 43 6d be df 3f
       -0.0022858344085816694 0.49599772991586527
000770 2a 70 05 d0 ed 32 d3 bf 44 61 90 88 9d 9c 08 c0
       -0.29998345675062643 -3.076472346216322
000780 c4 b5 33 0e ec fa fa 3f ea a7 1f a9 57 d5 e1 3f
       1.686260276295216 0.557292776412621
000790 dc 07 2a 87 7b f3 e4 3f 21 f1 d6 3f 4b 1a c6 bf
       0.6547219886708677 -0.17267742745560447
0007a0 df 2e 75 a6 93 53 ed 3f 2b 1d 5b 30 24 16 d7 3f
       0.9164522410514698 0.3607264015413018
0007b0 ed 4f 43 a5 79 fc bc 3f 71 6a d6 ba 53 86 fa bf
       0.11322746548404412 -1.6577946947424176
0007c0 77 c1 c8 53 66 af a1 3f 67 1c 33 88 15 32 e0 bf
       0.03454131863361714 -0.5061137828969436
0007d0 02 b2 ee e7 cc 68 df bf ea 73 ca 3c cc b8 e7 3f
       -0.49077150964402005 0.7413083255120203
0007e0 04 7d e8 40 aa d2 c6 bf fa 6c f7 43 60 a5 e6 bf
       -0.17830398721068985 -0.7076875045271713
0007f0 7f c4 d6 d9 ba bb e5 3f 78 10 94 e0 ca 48 e1 3f
       0.6791662459055628 0.5401358019157803
