weights/shakespeare_LSTM__Why.npy (npy, 124128 bytes, 1 tensors)

array f8 [62, 250]
0	0x3fe7ca0362d076c4	0.7434098176924739
1	0x3fc8c866a53e91dd	0.19361575192046035
2	0x3fda727e28f00c87	0.4132380866796627
3	0xbf8d88ba71892a26	-0.014420944776380184
4	0x3fabb92dc97a9bf4	0.05414717754802459
5	0x3fb5dd0bb44a5b28	0.08540414001104735
6	0x3f9e5ad5bf268156	0.029643382827658847
7	0x3fe5fbcaee9ed48c	0.6869864140086448
8	0x3fbd67b6177494f5	0.11486375877992201
9	0xbfbf97309fd2ec11	-0.12340072538329162
10	0x3fb3ca9ba095ef71	0.07731030149983355
11	0xbfa5cef05d183e36	-0.04259444366845992
12	0xbfcb6522867aaf35	-0.21402389112824385
13	0xbfc9f2f893de8f16	-0.20272738666710016
14	0x3fb5be03f35b7257	0.08493065539682597
15	0xbfd21937d18b006f	-0.2827891870802039
16	0xbfbd75cf55e0b2c6	-0.11507888647674766
17	0x3fd1b66718cc8e30	0.27675797864705753
18	0x3fd7b819c25135dd	0.37061161018649874
19	0x3fb3862c62ead7d2	0.0762660733697367
20	0xbfd377413042a2bc	-0.3041537257472944
21	0xbfd7eb71aec88129	-0.3737453657977477
22	0xbfdfad3d8703cde1	-0.4949487513069624
23	0xbfa7f659bdb902e4	-0.046801380548009225
24	0x3fdb5fea7f119258	0.42772924813315205
25	0xbfa33873a86d7545	-0.037540067968374426
26	0xbfbec25b06aa7305	-0.12015313065280615
27	0xbfc840a31f19cf93	-0.18947257059664632
28	0x3fd761cdd7747432	0.36534448662297614
29	0xbfd0b47ec0fb3830	-0.2610165485938323
30	0xbfd84d529a54d88c	-0.37971940108708035
31	0x3fc2e48c2e668266	0.14759971871991978
32	0xbfc4bbe9fe727155	-0.16198468135997737
33	0x3fcc73eadf5632b1	0.22228752045739023
34	0x3fb0c9755e76c254	0.06557401233909249
35	0x3fc325c7f8593d00	0.14959048868556835
36	0xbfbe47194d04557e	-0.11827238207145815
37	0x3fade07d3e6860ab	0.058353341930513856
38	0xbfca0d217a0e596b	-0.20352571925895843
39	0x3fd1c7e92ea82cb9	0.2778265910753351
40	0x3fc7b2c11e25e3cd	0.18514265033789315
41	0xbf66b5e6a33187a8	-0.0027722839964079045
42	0x3fb27065185e8a97	0.07202751011804263
43	0xbfb324e1624d1926	-0.07478150033884798
44	0xbfd0308fe480c214	-0.25296399416677784
45	0x3fd189fc50f833d5	0.2740469732969449
46	0x3fce2eae4cf02342	0.23579958683719765
47	0x3fd8c4b5807894db	0.38700616403577975
48	0xbfc128d4caf8bf43	-0.13405857001043317
49	0x3fddbb26e9b846d2	0.46454785179331026
50	0xbfc17fa527c722e3	-0.13670792047766786
51	0x3fe18667499c9c0f	0.5476566732148757
52	0x3fd0cb09348b8b83	0.26239233142239743
53	0xbf9452a2d2d8b1ff	-0.01984648143677425
54	0x3f8e068bcdf390d2	0.014660923216475306
55	0x3fe293f7d992bbd2	0.5805625199772015
56	0xbfc001158dd79709	-0.12503308702360297
57	0x3fcedb9a3f427263	0.241076737297493
58	0x3f68cc08bb80394a	0.0030269785456830444
59	0x3fce582fc2b387bd	0.2370662403764622
60	0xbfc8fe58c19d1d67	-0.19526204541964917
61	0xbfc392200b639bce	-0.1528968864069768
62	0x3fe5201c79e68dc3	0.6601698284979921
63	0x3f8f85fd02a61343	0.015392281192143314
64	0x3fac6f67e728a13b	0.05553745934259032
65	0x3fd65f9854f6b5d8	0.34958465859639665
66	0x3fc9a7c1282d6460	0.20043196164877752
67	0xbfcff7fa61726112	-0.24975518949646208
68	0xbf96f7b169bea768	-0.022429248885294767
69	0xbfa1da535a3d5d4c	-0.03486881710585496
70	0x3fc153c0d542df2a	0.13536844647546192
71	0xbfad32b3cf242185	-0.05702745345667196
72	0xbfd5fbd775fee3e4	-0.3434961941052832
73	0x3fadc793b573101a	0.05816327657660754
74	0xbfcc121a178eab51	-0.2193024268175017
75	0xbfddd7d36ee52e25	-0.46629796819317654
76	0xbfc96856b1bd2635	-0.1984966628900097
77	0xbfe111eb5c1098fd	-0.533437423528795
78	0xbfbd62cb94eb1c3f	-0.11478874574378127
79	0xbfcd48b9877648ac	-0.2287818824229978
80	0xbfa1874650aaa9ee	-0.03423518881512054
81	0xbfa2e118934611ac	-0.03687359617018457
82	0xbf9acc4a9165ad05	-0.02616993439134509
83	0x3fd3c17fc4a46692	0.30868524745310666
84	0x3fd8aef557caf563	0.38567861150280275
85	0xbfc4b6f4750f2fe9	-0.16183334079539627
86	0x3fb04f0636ca5893	0.06370581472069352
87	0xbfcb96bbcd8babd4	-0.21553752457052033
88	0x3fa4911f5e58f2ee	0.04016969706251482
89	0xbfcc17e335b4c2c6	-0.2194789898144533
90	0xbfb3658f2569fc6c	-0.07576841987064292
91	0xbfd07566e8844d50	-0.25716564852446755
92	0xbfa5bac39f06c61c	-0.04244052234879467
93	0x3fd1f43d3914883a	0.2805321748184074
94	0xbfdba2f5f24776b2	-0.4318213335044262
95	0x3fcda93ead26995c	0.23172744230869113
96	0x3fd11944985f57d3	0.2671672332775163
97	0xbfc5b6695e65f735	-0.16962926015178828
98	0x3fbbb232eb5542d3	0.10818784947810949
99	0xbfba2467e7198908	-0.10211800949176475
100	0x3fbff54182114d48	0.12483605790594254
101	0x3fca99e47a83ce3b	0.2078214262215726
102	0x3fb6e995a8a58b15	0.08950171820974291
103	0x3fbfba38826b164c	0.12393525299111124
104	0xbfdef70a1ebd9285	-0.4838280964088784
105	0xbfb8384893ef27bc	-0.09460881816553884
106	0xbfd42867d9958bf4	-0.31496616600469385
107	0xbfd5973780f66dda	-0.337354541721394
108	0xbfd0726316c21abc	-0.2569816324470755
109	0xbfd0a579ee3a861c	-0.2600998712970026
110	0xbfdb8f23037e1ebe	-0.4306113752468085
111	0x3fc706c42eb0dfe9	0.17989399223165428
112	0x3f92a713de5952cc	0.018215475507832576
113	0x3fc2c23f5b57cb32	0.1465529628763647
114	0x3fcf19c84212a5c7	0.24297431207859985
115	0x3f8eac805c26b56f	0.01497745782111323
116	0x3fd97285b7ee7132	0.3976148887829992
117	0xbfbcd456587defac	-0.11261500988433565
118	0x3fd6a7a0382bbefd	0.3539810703796176
119	0x3fb1227c544c475a	0.0669324594312263
120	0xbfa7a1139af41759	-0.046150791802616005
121	0xbfc04e49dfb3a980	-0.12738917754115775
122	0xbfcb905f400fc8bc	-0.21534338596354086
123	0x3fb531907025a47d	0.08278753984417793
124	0x3faae370a7d3ab27	0.052516479956315636
125	0x3fcacf3e93bb5469	0.20944959844078717
126	0xbfd4a733940d505c	-0.3227051683254609
127	0xbfb21202bc036e38	-0.07058732118769562
128	0x3fc8b1a3c44d93b9	0.1929211338530459
129	0xbfd1547372442fff	-0.2707794776804348
130	0xbf9e2c9b498ce07b	-0.029467035640863486
131	0xbfa07c1c0b3df7b0	-0.032196880695649965
132	0xbface6b374988a7e	-0.05644760893143984
133	0x3fbac4fb5df337c0	0.10456820529654376
134	0x3f9e073efdb18b67	0.02932451651976056
135	0x3f75e7826da74ab8	0.0053477377754968455
136	0xbfc95f7cceb8a6b3	-0.198226548135883
137	0xbfe254500244d502	-0.5727920574487657
138	0x3fc3a6ea117fa73c	0.1535313210909467
139	0xbfe796eb3a6acbfb	-0.7371727124176454
140	0xbfbf720b8525e733	-0.12283393860516582
141	0xbfc9c95bb60520a7	-0.20145746600815537
142	0xbfbe7a6881da2d99	-0.11905530138226651
143	0xbfc384dd66538f1e	-0.15249221321493506
144	0xbfcaedd5e38b8220	-0.21038316355317566
145	0x3fb46e3c1ea17c7e	0.07980705020735177
146	0xbf93887c06f622bf	-0.019075334477323787
147	0x3fc9f92061a930eb	0.2029152371272923
148	0xbfe0ebbdbbe5e68b	-0.52877699564779
149	0x3fb6163fe9ff5553	0.0862770029337601
150	0x3fd98ca28745902b	0.3992086716664313
151	0xbfcf50a221aa7db0	-0.24464823383185097
152	0xbfbf6fc71fb3ea95	-0.12279934429163071
153	0xbfa5458f27cd082e	-0.04154631958819298
154	0xbfc3bfc063db8d51	-0.154289292105299
155	0xbfa235d03f3fe69c	-0.03556681415643689
156	0xbfc108399fa976c4	-0.13306350990290217
157	0x3fc1893c0138388a	0.13700056132842447
158	0xbfc8d5e3ea9c78bd	-0.1940274138987145
159	0xbfda3309be4f270c	-0.4093651159752063
160	0xbfd883fbc9b2c50c	-0.3830556363783024
161	0xbfc4a53cc80234fe	-0.16129264608427002
162	0x3fc2747718a0b999	0.1441792364361845
163	0x3fd1ebb366fb5869	0.28001103455370085
164	0x3f76c0b676832731	0.005554878946165507
165	0xbfc921a59b3caf7f	-0.19633932189878675
166	0xbfc86fbae46155da	-0.19090973044755694
167	0x3fa8818cd775587b	0.04786338930232233
168	0xbfcffaa0b9b9919e	-0.249836054502464
169	0xbfc96395c4e52b2d	-0.19835159410498573
170	0xbfbcc52f24ae0c1a	-0.11238379140381519
171	0x3fd815505165600d	0.3763008875735075
172	0xbfc25c0107d6fbd2	-0.14343274004747159
173	0x3fb53b9a4268e19f	0.08294071313219441
174	0xbfda2910adb89c50	-0.40875641789393047
175	0xbfd0679cac2203ee	-0.2563239747033198
176	0xbfd1f2e998570938	-0.28045120121909717
177	0x3fce6671dfe9fb7c	0.23750136788654774
178	0x3fd73fb4886b7812	0.36326325723882846
179	0x3f91bbbad9e87917	0.01731769518857459
180	0x3fc590cc61df3a7f	0.1684813955202635
181	0xbfd0dadac86e7ba7	-0.26335782597919394
182	0xbf97b4d7b54903cd	-0.023150797309657457
183	0xbfb1c695fde306d2	-0.0694364304390789
184	0x3fc7366fd6ed1099	0.18134878153262404
185	0x3f9798d2b456faa1	0.02304391122538141
186	0xbfb90c47e7fe96b6	-0.09784364141395482
187	0x3fb967531b1c039c	0.09923285877085991
188	0xbfb1d60e3c13850b	-0.06967247931199354
189	0xbfbe8252bf97c4fe	-0.11917607476768308
190	0xbfcb24252d87fc0a	-0.21204056475832572
191	0xbfcdb44c20a76336	-0.23206473917414322
192	0x3fd60511921e9733	0.34405936498147865
193	0xbf92bc58a8280cdf	-0.01829660917611597
194	0x3fa92398b2df1da0	0.04909970458498525
195	0xbfd60612e037fd73	-0.3441207112918711
196	0xbfafbe68dca9064e	-0.061999585090700124
197	0xbfb0d39c8d2057f7	-0.06572893567530956
198	0xbfb63dbb690b6383	-0.08687945665896106
199	0x3fce60bfecac65e1	0.23732756668395807
200	0x3fafa222bde4ecae	0.06178387229962233
201	0xbfb44b4479b052a0	-0.07927349062840472
202	0x3fbabf8bc5d80912	0.10448525982068116
203	0x3fdcfb6a66bf0ac2	0.4528451922780442
204	0xbfc65c60b1a9dbb9	-0.17469414401031516
205	0x3fa69f08a1b1d402	0.04418208097278155
206	0xbfdbbef4aba7e440	-0.43353001368774713
207	0xbfb1297c60d145ff	-0.06703927386958951
208	0xbfbd2f111516469a	-0.11399943127460191
209	0xbfb8ac1e1955862f	-0.09637630575664312
210	0x3fd586901254bdcb	0.3363380602849843
211	0x3fbb4e914096a3a0	0.10666759325853414
212	0xbfb6c53119159c4c	-0.08894640791332725
213	0x3fc0f5ecd1580636	0.13250503751628323
214	0xbfd19f1557482b90	-0.27533467792152866
215	0x3fe39495429342d1	0.6118875789926169
216	0x3fcfaa73c82b71ed	0.24738929056083184
217	0x3fd3ef8e3cf7a3cd	0.3114963145622454
218	0xbfa8fb670709427a	-0.04879304848566775
219	0x3fb4c88e297071fa	0.08118523132038283
220	0x3fb36e33c3b2c2df	0.07590030219831644
221	0x3fe5237f27f2f214	0.6605830936674146
222	0x3fb4c02531f4442e	0.08105690450271716
223	0x3fb5371af4d78382	0.08287209012588728
224	0x3fbb9f3490c35999	0.10789803060774829
225	0xbfd20c1b3950d27c	-0.28198891255605196
226	0x3fac780cb4c8b94a	0.05560340601765519
227	0x3fce3ef5cddd6510	0.2362963919829686
228	0x3fdf5f087ca00b48	0.490175363258619
229	0xbfc3e336dc5b3675	-0.15537153014740893
230	0x3f9398d8612496f1	0.019137745789655495
231	0xbfc3712db4f9dcd3	-0.1518914350196839
232	0xbfda0490a03c6040	-0.4065286221316491
233	0x3fc551b69f290234	0.16655619403356214
234	0x3fd62b254a7bdc0f	0.3463834025746459
235	0xbfe3deffb5a1ee29	-0.6209715411673119
236	0xbfae820498da79f9	-0.05958570829283256
237	0x3fd3acf688029989	0.30743182451478696
238	0xbfca10862bda9ccd	-0.20362927571588899
239	0xbfcb9a1335d4b8db	-0.21563949707473892
240	0x3fc2cbcb4cf4ce33	0.1468443036807102
241	0x3fc323d133298197	0.14953055380011612
242	0x3f9741bbb653f264	0.022711689952290462
243	0x3fdb466bc270bbc8	0.4261731528121655
244	0xbfc0d2aefa9e6839	-0.13142955052609454
245	0x3fcd1fdea7fe5c7f	0.2275350876122708
246	0xbfd6ab7b4d353f3c	-0.35421640910952923
247	0xbfb1c30e8d889d2e	-0.0693825812855848
248	0xbfc219e47bdee2a6	-0.141415176852907
249	0xbfb2ab01268e69f5	-0.07292182151142142
250	0x3fc45a3f83f676c9	0.15900415366643575
251	0xbfd7536d626a2f3c	-0.3644669972497814
252	0xbfb5bc4d8424506e	-0.08490452266807022
253	0x3fe0c40cabe2d012	0.5239318234584991
254	0x3fcbb6b6863b3662	0.21651345781576753
255	0xbfd84cf06e37ed10	-0.3796959949829253
