weights/shakespeare_Why.npy (npy, 126128 bytes, 1 tensors)

array f8 [63, 250]
000000 d3 4f eb e1 90 a9 af 3f 08 5b 06 a1 c8 30 de bf
       0.06184056051065991 -0.47172752118187633
000010 93 f3 d4 42 bd 18 f0 3f ae 9f 54 68 b8 6f e9 bf
       1.006039868413812 -0.7948877370554237
000020 1d dc be f9 50 c3 f9 3f 14 72 f8 61 3e 34 d2 bf
       1.6101846461949727 -0.2844387013190339
000030 6c c6 1b 21 72 49 ec 3f 46 81 1b 62 ca af e7 3f
       0.8839655539179154 0.7402088085328067
000040 49 e5 87 03 f5 bc de 3f 2d 83 b1 59 be a5 c6 3f
       0.4802830252152331 0.1769330919223874
000050 62 6e 44 46 cc 99 f2 bf 86 f4 e4 6c 9d 94 d7 bf
       -1.1625483269516725 -0.36844573625769106
000060 ad 08 ad 71 8b f7 fa bf ee 6c 8c b7 3a fb c1 3f
       -1.6854357185807587 0.14047941171961703
000070 de 8b 58 c0 ed eb f0 3f 4c c7 a4 63 8e db f4 3f
       1.0575997842322447 1.303602589829512
000080 b8 58 3f b7 25 81 e9 3f 0a 9c 76 b0 31 62 e2 bf
       0.7970150546123227 -0.5744865843342961
000090 c4 ff 28 a9 35 db e6 3f 26 ef a2 3f f0 76 fb bf
       0.7142589858922226 -1.7165377126502306
0000a0 fb 02 05 a4 50 bd f6 3f 2f 98 41 70 85 46 eb 3f
       1.4212194830908504 0.8523585503105603
0000b0 66 c4 5c 90 9e 36 ee bf b3 9b 00 6d 81 f5 e9 3f
       -0.9441674060418677 0.8112189415886547
0000c0 c7 b0 42 40 37 72 c0 3f e6 b7 c7 7c 2e a1 f0 3f
       0.12848559034080706 1.0393509744858362
0000d0 b5 70 5b 5f 9d 7d ba 3f 77 87 e9 38 3e b4 e8 3f
       0.10347922876411782 0.7720023261610852
0000e0 65 81 09 37 e7 f9 d6 3f 57 b4 43 30 af 48 d3 3f
       0.3590028798553447 0.3013112994511337
0000f0 c9 54 98 8a 89 15 07 40 05 e8 d9 04 3d 41 f0 bf
       2.885516245626239 -1.0159273328304164
000100 f1 a8 d5 06 d2 d5 0a c0 3a eb 71 be 9d 38 0e 40
       -3.3544045003846965 3.77764462266114
000110 a0 1c 45 ad 92 48 d4 bf 8d 3b d5 b4 e2 33 fa 3f
       -0.31692950173278156 1.6376673759257045
000120 a0 fd 2b 67 88 83 c7 3f f5 79 f9 af 87 9e e8 bf
       0.18370156324088516 -0.7693518101694382
000130 c8 49 ac c5 71 ee 07 40 7a fb 7b 63 be 7e f4 bf
       2.991427940674132 -1.280943287478037
000140 8a 2a d3 9a d8 54 e0 3f 29 50 c3 76 5b b8 07 40
       0.510357191459961 2.9650182035784565
000150 91 12 aa d0 34 62 d8 3f 11 d2 be d9 80 d1 04 40
       0.38099403741242904 2.602296544204599
000160 3f 2c be 68 45 82 ed 3f 4e d8 b7 cd a3 5b a6 3f
       0.922152237487701 0.04366790662963692
000170 88 52 6d 23 1f 5e db 3f 73 df d9 8f e8 61 d9 3f
       0.4276197286574548 0.39660085723834654
000180 2d a4 03 23 a3 1f d0 3f 23 dc a5 c7 f4 e6 f5 bf
       0.2519309846816807 -1.3688857840295519
000190 01 fb 88 51 c4 39 eb 3f 43 c2 1d cd 75 ec e4 3f
       0.8508016197664291 0.6538647657562894
0001a0 1a c1 b5 09 83 22 ef 3f b7 09 3e 2e 39 78 f1 3f
       0.9729628743789676 1.0918514067021599
0001b0 f9 65 ec 85 07 79 d7 bf 79 25 86 85 a0 80 0c c0
       -0.36676204756221825 -3.562806170612643
0001c0 8b 5f 42 60 cc 31 d0 bf 42 98 0f 2c 62 7e e4 bf
       -0.25303944969481823 -0.6404276714863573
0001d0 df 98 2f 69 07 07 e3 3f 5e 70 cf 1d b5 d9 ef 3f
       0.594608025971663 0.995325620864161
0001e0 65 77 5b 71 ba db f1 bf 26 ec f2 cb e6 cc e2 3f
       -1.1161446025866664 0.5875123961808455
0001f0 2e e6 82 47 6d fe be bf f3 e0 1d 09 97 1e fc bf
       -0.12106974597818329 -1.7574682575341825
000200 fd 7e 6c 7f 08 5e d3 bf dd fb 3e ee 10 9a ed 3f
       -0.3026143307088061 0.9250569012873445
000210 23 0f df 69 a9 8a e1 3f bb 9b c5 40 c5 a9 de 3f
       0.5481764858054458 0.47911197018987267
000220 10 19 76 0a bc 0e fb bf 97 f8 63 20 95 bb ea bf
       -1.691097298492938 -0.8353982575061022
000230 11 e2 ad 5f b4 74 05 c0 14 c2 7a 64 2b f4 e4 3f
       -2.6819846606197264 0.6548058474055005
000240 91 c3 a6 7b 1f 4f f5 3f 6b d4 f3 0d 5a 0d f1 3f
       1.33181713391625 1.0657597107904404
000250 5e c9 2a f8 84 6a d5 3f a2 32 6d 2c 69 bd 04 40
       0.3346264289385966 2.5924857588600654
000260 aa 20 9b 8f 7e 78 13 c0 c5 8b 4e c1 00 cd 97 bf
       -4.867670291751134 -0.023242961691390968
000270 a8 7c 84 3e 42 0f ff bf 32 9f 45 c2 45 34 e2 3f
       -1.94122528477582 0.5688809198736406
000280 ed 20 c4 f4 b8 e3 f6 bf 52 f5 2e f2 f1 d0 b0 3f
       -1.4305963097740986 0.06568824923211494
000290 43 f3 14 9a 95 5c ce bf f5 06 6c 85 89 be f6 bf
       -0.23720045112158958 -1.4215178691669597
0002a0 91 1e 50 44 a7 c0 f4 3f 36 a2 ac fa 66 8b ca 3f
       1.2970345180964709 0.20737921943624976
0002b0 3a ee ae 2c 19 48 e5 bf 8b ac 66 85 43 97 c3 3f
       -0.6650510666581291 0.15305370343898902
0002c0 b0 cd 64 36 7b 57 e7 3f f1 c3 ef 8a 50 6e f0 3f
       0.7294288694742388 1.0269322802744194
0002d0 9c 5e 6f ef fd f0 b2 3f be b4 54 2a 9d 6b d0 3f
       0.07398974509794204 0.2565682328593758
0002e0 b4 c0 0e ac 66 01 a1 bf 24 ce d2 0b 72 15 00 c0
       -0.03321381426155892 -2.010471432085767
0002f0 59 2f 8d f4 40 b4 bf bf df d1 17 00 10 91 e0 bf
       -0.12384420366759964 -0.5177078248803432
000300 cf 8b 12 eb b7 b0 dc bf d7 b6 63 42 5e 1b 02 c0
       -0.44828603702825104 -2.2633633791618695
000310 fe 7a 79 a5 23 48 c0 3f 15 f3 18 1c 61 f2 ef bf
       0.1272015150052183 -0.9983373211649417
000320 c0 48 df e5 08 2d ed bf 32 d2 29 e1 eb 6c ec 3f
       -0.911747406930111 0.8882960698816247
000330 98 2d 2e 74 1a f9 e6 3f d2 a7 e7 7b a9 8d f0 bf
       0.7179081219814405 -1.0345854606662113
000340 da d9 69 3a b2 08 e0 bf 3c 81 de ef 20 3a eb 3f
       -0.5010615483177461 0.8508457837051888
000350 5c 3a 7a 95 a7 51 fb 3f f6 1e 36 84 2c 90 ee bf
       1.7074352110827453 -0.9550993520979023
000360 e3 89 3e ee 6d 0e 96 bf e4 b8 33 e8 47 47 9a 3f
       -0.021539418855931813 0.025662540004241743
000370 e5 de 2c 29 d6 64 02 c0 37 1b 09 f8 31 f7 e0 bf
       -2.299236604387135 -0.5301751942105061
000380 d7 e5 62 b8 1a 38 eb bf fd d5 3f 63 43 c7 b7 bf
       -0.850598678712397 -0.09288426564292958
000390 c4 39 3f 46 fa 09 d5 3f 03 db 20 f6 53 36 af 3f
       0.3287339864736192 0.060961364550555806
0003a0 84 25 62 c8 fa 38 e3 bf 6b 1a cc c8 26 b3 e7 3f
       -0.6007055200326907 0.7406190797635878
0003b0 1a 91 27 b3 af 09 f6 3f bc c4 ad dd 11 b1 10 40
       1.3773648260331073 4.172919715624797
0003c0 e2 22 1a 09 4a af f4 bf 9a 8b 63 60 29 f1 f2 bf
       -1.2927952151823594 -1.1838773503484163
0003d0 94 69 6e 35 6f a7 e4 bf a5 fa d6 c8 c1 fd 04 40
       -0.6454387706356095 2.623904770908967
0003e0 e5 33 04 86 64 49 f2 3f 77 7f df c6 3c af 0a c0
       1.1429181323066981 -3.335565141387572
0003f0 c2 fa c2 bf 9c ee a3 bf d3 8f 43 82 46 eb fa bf
       -0.03892984238472287 -1.682440289348041
000400 64 0f 74 4c ce 70 bb bf fe 2e 96 dc 5d 68 ec 3f
       -0.10719003073250871 0.887740069230375
000410 fe f5 4e 8a 25 6c f5 3f 22 36 a6 5f 91 20 f9 bf
       1.3389029886888006 -1.5704511390971523
000420 9e 42 16 d9 97 cd e0 bf 4e 35 6d 57 5e 14 f9 3f
       -0.5250968208293505 1.567472783575187
000430 65 ac aa 5e ab e1 e1 bf 30 12 4d 30 75 0e f2 bf
       -0.5587975357970093 -1.1285297285804852
000440 83 38 c9 13 c1 cb f8 3f be ac 96 d9 07 5e fc bf
       1.5497446797267294 -1.7729567050508162
000450 a1 ed 28 13 aa b3 f2 bf 62 c9 b3 2d 4f c4 af 3f
       -1.168863367884889 0.062044596032040614
000460 f7 13 c3 71 b3 e2 fa 3f e8 54 cd 36 30 31 fd bf
       1.6803469127491988 -1.8245088711458326
000470 aa 59 84 3a 30 95 e0 3f d5 97 a0 47 2b 1c bf 3f
       0.5182114737424872 0.12152357577050961
000480 7c a0 b7 a9 02 9a f4 bf b3 14 cf b2 9e 0d e7 bf
       -1.2876001958448162 -0.7204125873910442
000490 f5 91 e4 c7 2c c2 d3 3f 56 a7 03 8b 16 9e 00 c0
       0.30872649689470616 -2.0771914349069602
0004a0 43 f9 2a 68 32 17 df bf 19 34 5a 6b 75 65 e4 3f
       -0.48579082653659017 0.6373850914693576
0004b0 d3 b1 27 2d b5 e3 7f bf df 6f ae 64 1d 19 fc bf
       -0.007785518379460804 -1.756131547247598
0004c0 af 6b 15 ed 3b a9 ea 3f f8 73 37 e8 49 d4 e0 bf
       0.83315845780759 -0.5259141478996971
0004d0 8d 6a d3 37 e5 b2 06 c0 68 7f dd 02 55 68 bd 3f
       -2.8373512612718685 0.11487323112441816
0004e0 5a b8 09 a1 a8 8c f5 3f d0 21 c9 d4 9b fe db bf
       1.3468405046983407 -0.4374150827393608
0004f0 26 8b ab b3 dc 72 f4 3f 4a 68 08 e3 ef 4d f1 3f
       1.27804250892286 1.0815276020498623
000500 cd 7f 20 b3 5b d7 f9 3f e8 d2 d9 79 2f 1d fc 3f
       1.6150776860376823 1.7571253547477514
000510 83 45 23 8f 22 76 e7 bf 4b b2 8e 33 82 ef c4 bf
       -0.7331707759532694 -0.1635592223878056
000520 ec c5 c0 2e 76 ce f5 bf 9b b0 65 93 5c 0f e7 bf
       -1.362905676487908 -0.7206251982547828
000530 84 f5 b8 88 76 29 fe 3f 7f cf 0e 5b ed 6b ab 3f
       1.8851228085253249 0.05355779396577897
000540 bb 8d cd bf f4 25 d2 3f 90 86 74 ef ef 6a e3 3f
       0.2835666535449623 0.6068038632258368
000550 84 18 ac ff 34 34 e5 bf e9 db 25 d9 75 27 f3 3f
       -0.6626229280089011 1.1971338732089356
000560 0e aa 4c ca f1 ca e7 bf 6e 6f 47 46 7a 75 f0 bf
       -0.7435234976922531 -1.0286810632014425
000570 65 1b 4f a4 b9 b4 e7 3f 53 f7 2e ba 55 23 e7 3f
       0.7408111771736513 0.7230633388896684
000580 a9 2e 20 bb 11 4c fe bf a9 06 f3 bf dc 4b d1 bf
       -1.8935715970609783 -0.2702552675728876
000590 dd 53 c5 30 da 6f f5 bf 17 77 28 49 79 8f a8 3f
       -1.3398076920614053 0.047969618015697595
0005a0 b0 9b ae ed 96 db f8 bf 47 56 bf 46 97 f0 d2 3f
       -1.5536107334571447 0.2959345045941046
0005b0 ed c7 da 65 4c ee e0 bf ca 22 e4 69 70 2c d2 bf
       -0.5290891637180245 -0.28396234837468326
0005c0 e0 96 90 dc 02 fd f8 3f 87 6b bf 1e 0d 68 de 3f
       1.5617703071415505 0.47510078432758757
0005d0 72 0f ee 10 98 12 eb 3f 89 44 10 ca 3b 6f ce bf
       0.8460197764074862 -0.23776957861312933
0005e0 a1 61 59 66 9f 67 fc bf 8a f7 78 99 32 71 ef bf
       -1.775298499871589 -0.9825680730352684
0005f0 b8 7e 03 5a db 8e eb 3f 75 28 f1 b0 32 58 ca 3f
       0.8611885793761394 0.20581658973452802
000600 39 ed 4a 77 8e cb d9 3f 64 32 31 2a 0c d8 e2 bf
       0.40304910325695037 -0.5888729881349488
000610 3d f9 0c 2a 3b fb d3 bf 9b dc d7 6f 02 fc ec 3f
       -0.31220893007766276 0.9057628807485288
000620 db d9 27 2c 1a 58 f5 bf 85 0c a4 c4 87 d4 c8 3f
       -1.334009335024908 0.1939859113846049
000630 6f 78 6e 4d a8 bf e1 3f 1c 52 fb 0a 5d 93 eb bf
       0.5546456825575329 -0.8617387022482634
000640 e6 0a a1 fd ba fe f0 bf 79 cc db ba db cc fb 3f
       -1.062190047014775 1.7375142382777808
000650 e4 94 48 e8 62 64 cb bf 9a 2d 1f 82 58 95 e4 bf
       -0.2140010484883198 -0.643230680603142
000660 aa 8c 95 45 d3 8a 99 bf 3c c9 e7 06 e6 8e f2 bf
       -0.024943638918000367 -1.1598873395674465
000670 5d aa 15 3f 6f fe e6 bf e5 6a 89 29 7c f4 f3 bf
       -0.7185589058038421 -1.2471887228518252
000680 36 81 7d 76 e7 24 00 c0 4c 2d 37 c6 4a 24 e6 bf
       -2.0180196053553585 -0.6919301864049117
000690 61 c8 8d 22 eb d2 e0 3f 6b 8c 05 dc cb 32 e1 bf
       0.5257468867187179 -0.5374507233904188
0006a0 58 83 ac c9 04 99 e2 bf 2b 84 c5 7c 7a 9e d2 bf
       -0.5811790408080055 -0.2909227579567097
0006b0 fc bc 79 bb e6 74 c0 3f 5a b4 5b cc 82 23 f3 3f
       0.12856754449919794 1.1961696608298298
0006c0 07 80 d7 36 1b b5 d3 3f 04 22 92 e7 9f db de bf
       0.3079288516582896 -0.4821548234399702
0006d0 3d 01 b6 5e 4e 8b e8 3f 8f 01 45 70 23 75 f7 3f
       0.7670051431487434 1.4660982499627584
0006e0 cc ae 91 04 62 70 a9 3f 38 69 97 a2 45 73 f4 bf
       0.04968553834700415 -1.2781425811031806
0006f0 23 b9 ae c0 c8 86 e3 bf 6c 67 5f c7 ac 33 d8 3f
       -0.6102031482057878 0.3781539866446255
000700 a7 91 85 e0 5c d1 d5 bf 80 21 8a 95 ad ed 01 c0
       -0.3409034912677051 -2.2410537417201226
000710 65 c2 95 47 60 d9 09 40 94 21 97 df 54 ff f2 bf
       3.231140670068543 -1.1873368009565626
000720 9d b1 bb cf 0a 9e 00 c0 32 d7 d3 76 68 22 ef 3f
       -2.0771690587191203 0.972950203022924
000730 db c9 e5 38 0a 77 e1 bf fe eb fc 4a 2c 53 a2 bf
       -0.5457812415391418 -0.03579080977802816
000740 93 5b 1f 65 fc 1f e4 bf 47 30 81 9a 3c 36 ff 3f
       -0.6289045310066846 1.9507413897836317
000750 c1 68 75 b0 47 dc fe 3f 6b 42 f1 8a 85 64 da bf
       1.928779305736086 -0.41238535469623255
000760 5d b6 ea b9 3d cb a6 bf 25 45 13 e3 13 51 d2 3f
       -0.04451935667507876 0.28619858908958157
000770 0f cc 66 35 72 c0 cb bf 48 c5 03 01 8c be 08 c0
       -0.21681048972604386 -3.093040473868914
000780 7a 41 d3 a7 9a 01 fa 3f e2 6a 6c 09 11 97 d6 3f
       1.6253916316673824 0.3529703704859185
000790 b9 c4 47 0f c7 4a e4 3f 67 bd 0c 96 d0 e5 ce bf
       0.6341281221813438 -0.24138839079521832
0007a0 54 24 b1 d2 7e 38 e6 3f 41 90 b8 2e cb 31 cc 3f
       0.6943964114262919 0.22026958257004206
0007b0 32 0b fd 33 7b c1 c6 3f 9a b7 c4 8c 33 d7 f7 bf
       0.17777957952974927 -1.4900393961683904
0007c0 97 c4 96 7e 7a ee be 3f 30 74 5a 47 23 1b e1 bf
       0.12082639303732133 -0.5345627206439811
0007d0 53 cb d6 a5 a9 01 e0 bf 24 68 2b b1 a0 df df 3f
       -0.5002029646915197 0.498024151818415
0007e0 b0 17 77 80 cc 83 d0 bf 4f a5 4f 8a 0f dc e2 bf
       -0.25804436250143237 -0.5893628789319026
0007f0 74 ff 53 b8 10 88 e2 3f b1 8c bf b1 6b ae e7 3f
       0.5791095352324036 0.7400415870328257
