weights/shakespeare_RNN__Why.npy (npy, 124128 bytes, 1 tensors)

array f8 [62, 250]
00000000: 2f81 28b7 782d eabf 2541 3114 f209 e73f
00000010: bee1 b473 80a6 9dbf dd41 1f8e 01fe de3f
00000020: 7f5c 6d5b 3208 e93f e925 7d1b 7587 e53f
00000030: 2a2f 1a90 b921 cd3f 3ce3 4b25 895f d9bf
00000040: b359 975c 543c e23f b145 774b 1a20 e4bf
00000050: 8e38 0de4 9972 e5bf 5ed7 61ec 10c6 dabf
00000060: 5c78 026e 624d df3f 7a8e ed88 fddd e23f
00000070: f58f 1e82 da21 b8bf e1fc 9f7e 78b5 e6bf
00000080: b01e 0772 e7fa e0bf 330f 7d6a 32ac efbf
00000090: f90f 426b 097d e63f 6015 98f1 c4a8 eabf
000000a0: c575 2ca2 9bf0 c03f 1ac7 6ef0 b825 f4bf
000000b0: 22c9 a4e4 9b93 dd3f 79aa 8ef3 4e5a e2bf
000000c0: 8044 aa1e d30c e83f 44cb edbc 9aee e03f
000000d0: d4b0 901d 4107 e83f a3ee 0ad0 f669 f1bf
000000e0: 47a3 1132 d38f ea3f 2651 f8d5 62b2 d53f
000000f0: 8026 a3b3 e37f e43f 9a92 787d 8467 f23f
00000100: d1e9 b726 4f9b da3f fd9f 205d 91ae e7bf
00000110: f531 2469 f7a3 e5bf 3357 4bb0 d913 e7bf
00000120: 2426 0a97 5d90 d2bf 3368 b031 734e ee3f
00000130: b343 8395 8d60 e9bf c049 4493 3d5f da3f
00000140: 35ca b901 2f1b f0bf 039d 88fc 262d e83f
00000150: 581a 04ed e19f d8bf 80dd 683a 303f e63f
00000160: 4dff f9fe 8873 e4bf 2dbc 1149 fe11 ee3f
00000170: c970 e586 9c84 e63f 74ff abfc 85fb eb3f
00000180: 9952 bfc1 dbaa e4bf c946 7b65 6a45 ba3f
00000190: 4ee8 54bc a9ce e3bf 0bea 4c4c 60c7 dbbf
000001a0: c265 5601 e1f4 d2bf bedc 31e9 9c4a c13f
000001b0: ba96 f6f5 6be4 e1bf 251b 02b6 f815 d53f
000001c0: c134 aa3f af3c d93f 2400 351b b4d3 e4bf
000001d0: ff18 27ae 9ce3 e53f a4f5 9019 9aca d63f
000001e0: 6d73 336a 1983 dbbf 68e5 8297 9c23 e3bf
000001f0: ef6a 63e7 7c63 e63f 293b 9ab3 6770 c6bf
00000200: 9f1f df32 1aa1 e43f d171 bef5 06b5 d13f
00000210: 22d2 c461 9a9a e33f c611 3831 12f3 c93f
00000220: f7dc 34d1 cfbc e8bf 97c7 9451 7ecf e3bf
00000230: 11f5 8a80 271d e0bf 9f71 f98f b7aa cabf
00000240: 35b3 2ab7 7644 f4bf ba8b c155 1023 e7bf
00000250: eb5c 120c d59c e53f bfc8 993b 774f acbf
00000260: 762d e7de 6f28 cbbf abdb 6c8c d731 c03f
00000270: a71d 2ad1 b133 edbf 1a60 c7e1 68ea e33f
00000280: 6757 b62c 7e3f e2bf 60c3 7d5c d84e edbf
00000290: 6a84 aee2 0e76 e53f dd1d a352 d4de e43f
000002a0: 489a df61 8375 ea3f 7869 eac5 bc61 f2bf
000002b0: d00c 1dfb 206a d43f 8e0c c148 a22c d3bf
000002c0: 50a1 0668 7314 e2bf 147a 0a4a 33eb e6bf
000002d0: fb4c 1797 2350 ee3f f7e3 4f19 1a13 e63f
000002e0: c19e 96f3 b33c d4bf 04ff 8070 3131 e8bf
000002f0: 6192 fc92 193d e4bf 3f7a 5fda 087b d5bf
00000300: 1667 20b7 9cf7 dfbf 3f5e 229b 3cf6 f1bf
00000310: f64b 9da8 4d80 e93f bae1 b205 1911 d3bf
00000320: e70f 2a14 c235 e1bf 6d19 d12f 57b8 cabf
00000330: 6ffc 1b45 7b17 db3f b321 a4f5 5d3a cd3f
00000340: 4901 1869 2915 e0bf 5928 23ab daee e13f
00000350: c17f e507 98e0 e4bf 364d f024 080c e8bf
00000360: ab47 8126 0f73 df3f 90ea e370 5fed e1bf
00000370: ca8a bee4 0617 d2bf 08d6 17b8 3c97 f1bf
00000380: a640 c912 21b5 d63f 771d 9b06 141e e13f
00000390: 8d65 f165 7529 d93f 56a4 22f5 804c e9bf
000003a0: d212 2f64 de0f e2bf 4843 c581 4b0d e03f
000003b0: e305 2e7c d57a e33f 4460 7dcc a1e6 d43f
000003c0: 4ddc 3254 b372 e3bf 0ce8 dda5 812b e7bf
000003d0: 6578 784c 32ad d6bf 2e6d 0f60 d8cc e43f
000003e0: 794d 94e7 a340 e33f 9914 29f9 ea07 ec3f
000003f0: 98fd 0383 8c5b e93f b577 8e1a 6296 e63f
00000400: 3312 88d7 60f0 dd3f 8d35 f192 39c5 ea3f
00000410: b1af 1aa5 b50b d13f 9c20 3de2 fa26 d1bf
00000420: f695 7fa4 64dc e73f 1b16 c2b5 4f54 ecbf
00000430: 0d19 9207 7b1b ea3f 15f7 4c92 2755 d8bf
00000440: 4d6c 3f0c e0ac ea3f 4e00 b2b4 9553 edbf
00000450: d37d 9902 8296 e53f 45d1 e629 8d98 943f
00000460: 677d 3b84 6235 c3bf cac4 a494 c1d0 e13f
00000470: 5992 2120 73f8 e53f 3670 db45 665f db3f
00000480: bb11 04c2 eb4e d53f 535d 6c5e 88fb de3f
00000490: b351 5963 0788 d63f 0a8d 30bf a66c e5bf
000004a0: 7e7a f457 0315 e13f 259c 09a8 1292 bdbf
000004b0: ff68 8d61 31d1 e5bf 95a6 3d26 b515 eb3f
000004c0: 93ad 2d8b b7bf d23f 8deb b929 4e86 d83f
000004d0: d6c6 f6e0 80b8 d8bf 947c e10d 00c8 d4bf
000004e0: 93fc 34c1 1c01 c53f 78dc 9fb5 9024 c2bf
000004f0: efd4 6829 d9b0 cc3f ed47 5b56 bcbe e1bf
00000500: 4b54 7c09 6335 ef3f 4055 da64 0c59 d43f
00000510: a9fc e698 28b9 d7bf 70df 95c1 a62f f0bf
00000520: 1643 9525 e26d e6bf da74 da12 acf0 e7bf
00000530: b119 3716 fa0b e33f e79b c2fd 6caf e0bf
00000540: 1dce 5984 81d0 f13f cf00 15c2 4882 e4bf
00000550: 6d6f bcbe c8b8 b43f a94d 6416 79a5 e8bf
00000560: d21c 1613 3c19 ec3f a465 31e8 f638 e53f
00000570: e814 d057 2259 f1bf de39 0adf 74bc e13f
00000580: a6a0 d09c 63e3 e5bf 3679 dc5d 5e23 e93f
00000590: a928 eb0f 660d e73f 9a16 e8bf ed35 c3bf
000005a0: 7474 57d8 b1d6 d8bf 0565 03f9 4a7e e53f
000005b0: 9c45 5823 7567 e33f 795d 9491 215d dbbf
000005c0: 16ff 9ad7 3ef5 d73f 5baf 523d 0d49 c03f
000005d0: c7c9 1d5b 0b50 efbf 618d 1a35 ce9e d4bf
000005e0: a03f 04c6 0356 d6bf 7b74 be56 96f0 e23f
000005f0: acbf 0326 f065 0140 f610 00ce 87d8 e23f
00000600: 00a3 5b6b 7217 c9bf 07ba 59d3 b320 973f
00000610: a300 5507 8c8d e8bf 70a9 7587 e6ab dfbf
00000620: 19b4 3c57 e898 e9bf d6d0 bb94 1eb9 e93f
00000630: 5278 047f 3e4e 973f 9e03 0575 8eb5 e83f
00000640: 67f1 160a 19e1 e4bf f8e8 7c84 5d46 ef3f
00000650: abb5 075a 471e e83f e100 0cc7 0511 d7bf
00000660: c16a 6fd5 48ba d4bf be1e 5c1a d95e f6bf
00000670: 2d8a 7fb3 6cec c2bf a1de 5e8b 0d84 e53f
00000680: 557b 0079 c1ae e03f 7dfa 1012 224f e2bf
00000690: aeaa d8a1 812e e53f 19d9 6ef4 cc56 cebf
000006a0: 01bf ced4 4b46 e4bf d543 e95e 40e6 e4bf
000006b0: fa77 c49d ae69 dd3f 23c4 d12b e74b d4bf
000006c0: 3392 ca46 7307 e33f 14db 8d7a 3caa e6bf
000006d0: 04c0 ff95 4619 e1bf 884a 543a 0513 e43f
000006e0: e893 627c 7de4 cd3f d1bc 78b6 8c0c e03f
000006f0: 2428 62cd db4d e3bf 6015 21d9 38ee d63f
00000700: ae1d 8e5d 660c ddbf b64d f4db 63d0 df3f
00000710: 0716 3fa6 2c22 e4bf 050a 72cd e10e debf
00000720: dedd b9e0 f604 e5bf 6666 88f2 dbb0 d4bf
00000730: eeee 48bb f01f af3f d5af 182a 43d0 eebf
00000740: ffa9 665f 38d2 e53f f501 572a 5d72 e4bf
00000750: cc85 2a2e 65d4 d1bf 172c 62dd 2179 e43f
00000760: bfab 3b35 0155 edbf 599e 0035 d364 e4bf
00000770: ae30 f399 948e ea3f bebf 9870 3c60 e1bf
00000780: 3e1d 00f6 d820 e33f aadf fe17 a89e e1bf
00000790: 4b28 f1d8 8bb7 e43f 66f7 4e3e f023 e73f
000007a0: 2f44 3311 b489 d73f 6d15 cb41 363f b9bf
000007b0: 1831 204e af1a e7bf d786 0f5a f3c4 d63f
000007c0: 9f51 3d0f d003 d9bf 7bd4 0e24 92c9 d73f
000007d0: 4976 c1fa 38b5 e6bf 8601 94af c3d5 de3f
000007e0: 3fc9 6cae d4ee bd3f 3c74 9b0e af2e e93f
000007f0: d82f 194a bea3 e43f de35 a6cc e826 e53f
-0.8180507256802566 0.7199640650160616 -0.02895546632973533 0.484253300467598 0.782250574654327 0.672785333337001 0.2275917008995461 -0.3964560379240998
0.5698644455358618 -0.6289187883323192 -0.6702393964894939 -0.41833899578283773 0.48909817450647153 0.5895984339117171 -0.09426656414740349 -0.7096521828788377
-0.5306279399018958 -0.9897701339582227 0.702763280380622 -0.8331017225870418 0.13234277170788125 -1.2592095748809187 0.46213433578954455 -0.5735239750841422
0.751565513508595 0.5291265192048304 0.7508855416722562 -1.088370144526302 0.8300567605884702 0.3390128221083323 0.6406115063229691 1.150272836800616
0.4157293203458297 -0.7400595492263161 -0.6762654355566712 -0.7211731379745515 -0.290061376094487 0.9470764132013357 -0.7930362625285085 0.4120630205299243
-1.0066366259967598 0.7555117542550821 -0.3847584547624243 0.6952134266675074 -0.6391034107218531 0.939696448052819 0.7036879191105295 0.8744535384175678
-0.6458567413452158 0.10262169816567303 -0.6189774206498073 -0.43404395533767176 -0.29619622355093267 0.1350895060201988 -0.5591335109681588 0.32946603559723747
0.39432889191887105 -0.6508427173030253 0.6840346719189084 0.3561158418341057 -0.42987666484059767 -0.5980971297459918 0.6996445197395057 -0.17530533094073888
0.644665812834308 0.2766740226595888 0.6126224431560028 0.2027304401709797 -0.7730483137192142 -0.6190787881262051 -0.5035588751412964 -0.20833487062453757
-1.2667147784188277 -0.7230302500651 0.6753945575500472 -0.055293775582769815 -0.2121715391534555 0.12652105671597033 -0.9125603757137711 0.6223644647352586
-0.5702505944525286 -0.9158746534795732 0.6706613948227986 0.6522008527762712 0.8268448745337276 -1.1488616686898165 0.31897758982468094 -0.29959923844234815
-0.5649964362865294 -0.7162109800445386 0.9472825957294896 0.6898317808510218 -0.31620501315999766 -0.7560050198880792 -0.6324584837753485 -0.3356344349430493
-0.49948804744200126 -1.122616392129103 0.796912030530051 -0.2979185634281084 -0.5378122705301366 -0.20875062784962087 0.42330819844204987 0.22834372038074732
-0.5025832226383865 0.5604070036436141 -0.6524162439563882 -0.7514687272509153 0.4913976551080121 -0.5602261738670951 -0.2826554521399599 -1.0994231406342596
0.35480524859031914 0.5349216584226458 0.39315543132178093 -0.7905888355063648 -0.5644370991436409 0.5016229185658654 0.6087443757425571 0.32657666177465594
-0.6077515263085701 -0.7240608443819396 -0.3543210741789891 0.6500055195023486 0.6016406558068602 0.8759665361800614 0.7924253996751984 0.705857326381866
0.46779652641297104 0.8365753049817372 0.26633969424687637 -0.26800415128355737 0.7456534588679335 -0.8852919149364341 0.8158545635094768 -0.3801974228589285
0.8336029280866427 -0.9164532212453282 0.6746225405476544 0.020113187487099244 -0.1500666757265023 0.5567329314418654 0.6865783336221042 0.427697723598388
0.3329419512449722 0.48410233708405775 0.3520525427059297 -0.6695131048367398 0.5338150709029177 -0.11551014521101928 -0.6817862420387256 0.8463998553172184
0.29295147506373914 0.38319734644726894 -0.38626119584215013 -0.32470704417750906 0.16409644540724297 -0.14174088352567416 0.22414698144863318 -0.5545331656123814
0.975266951109583 0.31793508385574754 -0.37067618305077105 -1.0116336404734874 -0.7009134992641488 -0.7481289261083035 0.5952120241061519 -0.5214142757657755
1.1134047670319724 -0.6409038344063677 0.08094458252565824 -0.7701993405666389 0.8780804035931402 0.6632036719340033 -1.0842612676800005 0.5542549473046241
-0.6840074599067705 0.7855674584605257 0.7203855811033196 -0.15008327360572055 -0.38810392500983615 0.6716666091480482 0.6063790979698527 -0.42755927292588286
0.37434359603138156 0.1272293614796308 -0.9785210399261864 -0.32219271837148794 -0.34899992311056316 0.5918685621469558 2.1747744531530397 0.5889319442217402
-0.19602804414832775 0.022585687422571634 -0.767278684921639 -0.4948669741485423 -0.7999154762125072 0.8038475899652677 0.022759415152102065 0.7721626554049299
-0.6524777600348387 0.9773395145087127 0.7536961325073909 -0.3604139751260061 -0.3238699039772364 -1.3981562642747316 -0.14784010662613536 0.6723697397309999
0.5213324893301016 -0.5721598008020262 0.6619270478307351 -0.23702394423680387 -0.6335810810469128 -0.653106866238995 0.4595753231714067 -0.317132752220518
0.5946594603197525 -0.708280791629337 -0.5343354158085281 0.6273218287700084 0.23353546689500537 0.501531940832047 -0.6032542239565868 0.35828992084528544
-0.45388182770008256 0.49709412078774606 -0.6291716811180671 -0.4696583277037976 -0.6568560017757894 -0.3232946270451066 0.06079056059067321 -0.9629226515003163
0.6819116462041278 -0.6389604403448731 -0.27858857639702417 0.6397866557975956 -0.9166265525540139 -0.6373077426150743 0.8299048430285632 -0.5429975699571441
0.5977597050377097 -0.5506172627128667 0.6474055516384934 0.7231370179140242 0.3677797477694779 -0.09862078768045075 -0.7220074201482332 0.35577091021523927
-0.39085771072611836 0.37167790910036275 -0.7096218965122684 0.4817971434240679 0.11692551859303978 0.7869487080857946 0.6449881980165584 0.6609996792846535
